integration/nlp_to_action/checkpoint_nlp_action.pth (torch, 74362 bytes, 10 tensors)

ip_bn.weight f4 [5]
000000 65 76 80 3f b6 e9 7c 3f 3c d2 7d 3f 00 00 80 3f
       1.0036131 0.98794115 0.9914892 1.0
000010 00 00 80 3f
       1.0

ip_bn.bias f4 [5]
000000 71 80 13 bb e9 23 0f bc b5 f8 38 3a 5b 3a 99 3a
       -0.0022506977 -0.008736589 0.0007056103 0.0011690365
000010 9c a2 14 3b
       0.002267993

ip_bn.running_mean f4 [5]
000000 cc 01 7e 40 e5 00 9f 40 72 49 55 40 00 00 00 00
       3.9688597 4.968859 3.3326077 0.0
000010 00 00 00 00
       0.0

ip_bn.running_var f4 [5]
000000 f6 2d 2f 40 f6 2d 2f 40 7a dd 2e 41 ef 98 ac 2d
       2.7371802 2.7371802 10.929071 1.9622052e-11
000010 ef 98 ac 2d
       1.9622052e-11

fc1.weight f4 [128, 5]
000000 d0 18 d2 3d 88 f5 d9 bd 10 2a fb 3d a0 20 bb bc
       0.10258639 -0.106425345 0.12263882 -0.022842705
000010 14 a1 43 3e d0 24 ea 3d c4 3f 32 bd 1e 26 bb be
       0.19104415 0.11432803 -0.043517843 -0.3655252
000020 94 20 d2 3d b8 b9 ce be 80 bf 70 3d 30 79 f3 3c
       0.1026012 -0.40376067 0.05877638 0.029720873
000030 48 67 c9 bd 16 3b bb 3e d0 7e f4 3c 90 e6 3d 3e
       -0.098341525 0.36568516 0.029845625 0.18544984
000040 f8 cc 41 3e 20 14 87 be ee 0c 30 be 34 35 dc 3e
       0.18925846 -0.26382542 -0.17192432 0.4300934
000050 06 ce df be 3c 80 f1 bc 25 85 1f bd cc e1 9f 3e
       -0.4371187 -0.029480092 -0.038945336 0.31226957
000060 fe cd 35 bd c8 2b f1 3d 70 dd af bc 80 36 80 be
       -0.044385903 0.11775929 -0.021467894 -0.2504158
000070 a5 c7 81 be 69 7c 5e be b0 1b ce be eb b3 92 be
       -0.2534763 -0.21727146 -0.402555 -0.28652892
000080 2f 89 e5 3d 6d 87 95 3e e4 ba b4 3c d0 3c 4d be
       0.11207806 0.29204884 0.022061773 -0.2004273
000090 17 fc 4d 3e 54 5f 26 be b7 85 b7 bd b2 47 80 be
       0.20115696 -0.16247302 -0.08961051 -0.250547
0000a0 fa 4a 08 be 10 6a d0 be f1 cb 4b 3e e1 ac 35 3e
       -0.13309851 -0.4070592 0.19902016 0.1774173
0000b0 4f 69 a8 3d 3a 36 64 3e c6 79 45 3e 72 93 a4 3c
       0.08223211 0.22286311 0.19284734 0.020089839
0000c0 97 6a 2a 3d 12 4a 08 3d da e6 6b 3e 9e 99 95 3e
       0.04160556 0.033273764 0.23037282 0.29218763
0000d0 51 24 a0 3e fa 89 88 3e 59 a9 e9 bd f8 3e e7 bc
       0.31277707 0.26667768 -0.114092536 -0.028228268
0000e0 44 1f cb bd 18 cc 80 3e 86 35 37 3d 01 51 d2 3e
       -0.09918073 0.2515571 0.04472878 0.41077426
0000f0 82 ba 66 3e 03 76 c4 be 76 0a 03 3e 9a 54 dc 3e
       0.22532085 -0.38371286 0.1279696 0.43033296
000100 6a 37 cb 3e 0d 33 23 bb f2 98 1c 3e 50 b5 d8 be
       0.39690715 -0.0024902255 0.15292719 -0.4232583
000110 71 de 14 be ef 6a 60 3e 14 96 d0 be 7a 7b c7 3e
       -0.1453798 0.21915792 -0.407395 0.38961393
000120 14 94 96 be 24 d0 10 3e 70 b2 8a bc 95 76 a1 3d
       -0.2940985 0.141419 -0.016930789 0.07883946
000130 6f b3 31 3d 45 9a d0 be 08 dc be bd 40 fd 92 be
       0.04338401 -0.40742698 -0.093193114 -0.2870884
000140 78 e4 bf 3e b2 d0 76 bd 75 d9 e4 be 9a 5b d6 3d
       0.37478995 -0.06025762 -0.44697157 0.1046669
000150 0b 20 47 3e 97 1b 54 be f8 48 48 bd c4 92 3d 3e
       0.19445817 -0.2071365 -0.048897713 0.18513018
000160 46 74 91 be 06 f4 70 be a2 8c 26 bd c2 82 9f be
       -0.28409022 -0.23530588 -0.04066146 -0.31154448
000170 0a bc 8e 3e 11 17 1e 3d 71 78 88 3e 5c 7a 7c 3e
       0.27877837 0.038596217 0.2665439 0.24656051
000180 49 cc ac be a3 fc 8d be 21 4d 9a be 84 1b 16 be
       -0.33749607 -0.2773181 -0.3013697 -0.14658934
000190 c9 c9 21 be 12 6a 88 bd 4c 29 de be 21 5e 46 3e
       -0.15799631 -0.06660856 -0.43390882 0.19371845
0001a0 3e f8 7c 3e 07 62 0d 3e b2 a6 8f 3e 73 17 ac 3e
       0.24704072 0.13806926 0.28056866 0.3361164
0001b0 59 77 de be d4 0a 78 3d f8 65 d4 3e d7 f0 a5 be
       -0.4345043 0.0605572 0.41484046 -0.3241031
0001c0 26 e7 4b be 30 ee c0 bc c6 70 8e be e7 bf b3 bd
       -0.19912395 -0.023551077 -0.27820414 -0.08776837
0001d0 2c 81 8e bd eb ba c9 3e 07 a4 c9 bc dc 33 75 3e
       -0.06958231 0.3940042 -0.024614347 0.23945564
0001e0 ec ab a7 3e 98 06 4c 3e 92 1f c7 be e0 9d ab 3e
       0.32748353 0.1992439 -0.38891274 0.33518887
0001f0 16 ff 96 3e 1b 51 9c be ea a9 13 be 3e 57 a3 3e
       0.2949149 -0.3053063 -0.14420286 0.31902498
000200 25 27 da be 9d 36 d0 be c2 02 9e be 22 14 09 3e
       -0.4260799 -0.40666667 -0.3086148 0.13386586
000210 3d ee 3b be 34 49 cd be c3 ee 30 3e b6 2c 67 3e
       -0.183526 -0.40094912 0.1727858 0.2257565
000220 c2 1a 2b 3e 09 52 c3 be 60 c8 db 3e 67 39 1c bd
       0.16709426 -0.38148525 0.42926311 -0.03814068
000230 c0 86 da be dd 47 8c bd 81 5e 93 3e e9 b2 4e 3e
       -0.4268093 -0.06849644 0.28783038 0.20185436
000240 8f 0e 96 bb 0b 7f a7 3e f0 d5 ca be e0 1d a5 3e
       -0.0045793722 0.32714114 -0.39616346 0.32249355
000250 20 d9 e1 3e 0b 5f 86 be d8 5f cb 3d 7f af 8c bd
       0.44110966 -0.26244387 0.0993039 -0.06869411
000260 bb 50 bc be ac 02 a5 3b 77 90 20 be 9e 73 c4 be
       -0.36780342 0.005035719 -0.15680109 -0.3836946
000270 ad bc a7 be 85 c0 26 3c 33 4c d1 3e 50 d8 29 3e
       -0.32761136 0.010177736 0.40878448 0.16586423
000280 ff e7 9a be 22 5f 9b 3e dc 64 f5 3c 46 9a dd be
       -0.30255124 0.30346018 0.02995532 -0.43281764
000290 7a c2 ce 3c 54 4b 92 3e 0a 51 87 be f5 ac 97 bc
       0.025239218 0.28573096 -0.26429015 -0.01851509
0002a0 fd 56 58 be 11 4b b8 be 1e 28 84 be 92 85 27 3d
       -0.21126933 -0.3599477 -0.25811857 0.040898867
0002b0 69 9d 92 3e 80 95 9d bd 28 c8 cb be c0 e9 ac b9
       0.2863572 -0.076945305 -0.39801145 -0.00032980554
0002c0 2d 5c c5 be 18 af 04 3d 24 22 a9 3e f7 7e 43 3e
       -0.38546887 0.032393545 0.3303386 0.19091402
0002d0 93 8e 8e be 4b 28 d4 bd a0 e7 32 3e 36 79 f8 3d
       -0.2784315 -0.10359248 0.1747117 0.12132494
0002e0 15 44 d7 be ef 31 7e be 49 28 15 be e3 16 22 3e
       -0.4204413 -0.24823736 -0.14566149 0.15829043
0002f0 80 2d c9 3e 4b b2 49 3e 59 da 2b 3e 34 e1 c2 be
       0.39292526 0.1969692 0.16782512 -0.3806244
000300 b4 c4 92 3e 2f c0 1a 3e 0a dd 0a be 3b ba 5b be
       0.28665698 0.15112375 -0.13560882 -0.2145776
000310 c0 30 02 3e 74 3a 78 be 44 e6 39 3e d6 1c af 3e
       0.12713909 -0.24241048 0.18154246 0.34201688
000320 cc 3e 99 be da ff 90 be 14 c4 37 be 6f c1 c3 be
       -0.29930723 -0.283202 -0.17945892 -0.38233516
000330 53 7b 46 bd a1 b8 8a 3e e4 a1 23 3e e9 7f 0f be
       -0.048457455 0.27093986 0.15979725 -0.14013638
000340 fc 7d 3d bd 2f 54 47 be da 01 b4 be ef 9c e6 bd
       -0.046262726 -0.19465707 -0.35157663 -0.112604015
000350 6a 8b 30 3d b1 bf 60 be e9 9f af be 4c bb 08 3e
       0.043101706 -0.21948124 -0.3430169 0.13352698
000360 26 ed 8c 3d 75 61 0b be 80 d0 f1 3d f1 8a cf 3e
       0.0688117 -0.13611396 0.11807346 0.4053569
000370 70 da c5 3c ab 12 9d be a2 22 d3 3e 17 68 a1 3e
       0.02415201 -0.30678305 0.4123736 0.31524727
000380 62 c2 24 bd 25 85 4e be 4f e9 40 be 2b 06 c8 3e
       -0.04022444 -0.20167978 -0.18839 0.39067206
000390 5c 8e 74 3e 77 b6 6e be fb b3 65 3c 72 26 b4 3d
       0.23882431 -0.23311792 0.0140199615 0.08796395
0003a0 5b 20 03 3e ea 5d 98 bc 3a 4e 79 be 00 61 61 bc
       0.12805311 -0.01859947 -0.24346247 -0.013756037
0003b0 30 00 fd bd 58 bc 19 be ac 03 63 be 35 0d 5e be
       -0.123535514 -0.15013254 -0.2216937 -0.21684726
0003c0 ca 94 50 be a9 b0 3b 3e e0 7a c3 be dc c7 d9 be
       -0.20369259 0.18329109 -0.38179684 -0.42535293
0003d0 24 f1 c0 3e d2 d7 21 3e ac bc 7a 3e 25 34 44 3e
       0.37683976 0.15804985 0.24486035 0.19160517
0003e0 4c 42 2b be 60 a6 92 be 4e c5 9a be c3 3b d2 bc
       -0.16724509 -0.2864256 -0.30228657 -0.025663262
0003f0 59 ea e7 3d a4 1f d9 be 1b 29 af be 7c 7e 7b 3e
       0.11323995 -0.42406952 -0.34211048 0.24559969

fc1.bias f4 [128]
000000 6e e6 a7 be db d2 88 3e ac 97 e8 bd c8 ca 9b be
       -0.3279299 0.2672337 -0.11357054 -0.30428147
000010 f8 97 23 bd 3a 1e 88 be cb b6 37 3d 31 af 1a 3e
       -0.03993985 -0.2658556 0.04485206 0.15105893
000020 de 3c 59 3c 1d 42 aa 3c 6c 19 a4 bd b6 fa a5 3e
       0.013259141 0.020783478 -0.08012661 0.3241784
000030 6a 70 ba 3e 71 35 32 3c 22 68 bf be 85 b6 4e 3e
       0.3641389 0.010876999 -0.37384135 0.20186813
000040 75 e3 2d 3e ab 7a 5d 3e 42 8e 2f be d3 90 3f 3e
       0.16981299 0.21628825 -0.17144111 0.1870759
000050 cb 54 ae 3e 8e 19 93 3e 4a e6 b5 be 04 d0 46 3d
       0.34049067 0.28730434 -0.3552726 0.048538223
000060 3c 51 c1 be 5f 14 c9 be 2e 70 99 be 2f 43 37 3e
       -0.3775729 -0.39273354 -0.299684 0.17896722
000070 06 61 9c 3e d6 05 a3 be 07 91 cc bd f4 fa 12 3e
       0.30542773 -0.3184039 -0.09988599 0.14353544
000080 33 fd 6a 3e 4c a3 41 3e 43 29 98 3e 15 fb 80 3e
       0.2294815 0.18909949 0.2971898 0.2519156
000090 9c 18 9b be 44 80 3d 3e 83 f4 9b 3d b6 fb bc be
       -0.30292213 0.1850596 0.07614996 -0.3691079
0000a0 2a 14 91 3e 89 aa 87 3e 91 6b 9e be b3 c8 b0 bc
       0.28335696 0.26497295 -0.30941442 -0.021580076
0000b0 f6 95 6d 3e 9f d0 ea 3d 32 0c d6 3e 1a 8b b2 be
       0.23201737 0.114655726 0.4180618 -0.3487175
0000c0 12 c0 2a bd b4 bb df be 1c 51 e6 3e 6b c6 7e be
       -0.04168708 -0.43697894 0.44983757 -0.24880378
0000d0 44 49 6b 3e 1c 37 85 3e 5f 99 fb bd b2 0e 8b be
       0.22977167 0.26018608 -0.122851126 -0.2715965
0000e0 82 fe ba 3e af 59 e0 3e a4 1b 45 bd e7 de 48 bd
       0.365223 0.43818423 -0.048122063 -0.0490407
0000f0 80 20 c9 3e e7 af 22 3d 40 4f 81 be ad bb 7a 3e
       0.39282608 0.039718535 -0.25255775 0.24485655
000100 b4 4c cd be a1 c1 a0 3d ca 9d 97 be de 3c 54 bc
       -0.40097582 0.07849432 -0.2961257 -0.012953965
000110 68 6b 14 be a9 da 3e be 3e 07 39 be f5 06 fa 3d
       -0.14494097 -0.186381 -0.18069169 0.12208358
000120 a7 4a ee 3d 7c eb bb be 91 0c da 3e f1 fb 8d 3e
       0.116353326 -0.36703098 0.42587712 0.2773128
000130 da 96 b4 be 6b 4b da 3e e4 10 9d bd 20 34 93 be
       -0.3527134 0.42635664 -0.07669237 -0.28750706
000140 5a 1a 3b 3e fd 70 b1 3d 40 43 3b be 72 b9 18 3e
       0.18271771 0.08664129 -0.18287373 0.14914492
000150 ae bf 20 3e 82 85 3b 3e 0a 99 92 be f7 23 c7 be
       0.1569812 0.18312648 -0.28632385 -0.38894626
000160 93 9c 69 bd 30 64 d3 be 99 30 be 3d 62 e0 de be
       -0.057034086 -0.41287374 0.09286613 -0.43530566
000170 72 09 96 bd c2 61 ae 3e 2b c1 99 be 97 a7 dd bd
       -0.0732602 0.34058958 -0.30030188 -0.10822981
000180 d0 44 33 3e e2 2d af be 36 c4 da be 24 98 29 be
       0.17506719 -0.34214693 -0.42727822 -0.16561943
000190 8b 15 b9 3d 59 94 df 3d a5 59 84 be 38 ae d7 bd
       0.09037312 0.10916967 -0.25849643 -0.105312765
0001a0 10 5b d3 bd 6c 9a dc be f0 9e ca 3b 1e e3 46 bd
       -0.10320103 -0.43086565 0.0061834976 -0.04855644
0001b0 a0 41 b8 be b9 c0 64 be 2e b6 a6 3e 02 10 25 3e
       -0.35987568 -0.22339143 0.32560867 0.16119388
0001c0 bc 4b bd be 57 94 1f 3e b3 31 e3 be ad 85 84 be
       -0.36971843 0.15583931 -0.44373855 -0.25883237
0001d0 08 a8 8f 3d d2 f7 28 bd 45 37 98 be 31 0e a4 3d
       0.07014471 -0.041251965 -0.29729667 0.08010519
0001e0 01 84 bd 3d 2e 1e a6 3e 7f 5b d1 bd c6 f1 d5 3e
       0.09253693 0.324449 -0.102225296 0.4178602
0001f0 30 bf 8b 3e e8 a6 41 be e3 fb a5 3e 5f a5 6b be
       0.27294302 -0.18911326 0.32418737 -0.23012303

fc2.weight f4 [128, 128]
000000 94 af 8f 3c 76 fd fe 3c 20 ad 5b 3b e4 5a f0 3c
       0.017539777 0.031126719 0.0033519939 0.029340215
000010 be 5e 10 3d bf c1 a3 bd b0 29 36 3d a8 ef f4 3c
       0.035246603 -0.079959385 0.04447335 0.029899433
000020 fc c9 46 bd 03 8c 80 3d 94 ac a3 3c 89 51 88 bd
       -0.04853247 0.06276705 0.019979753 -0.066561766
000030 4b 93 9d 3d 41 fe 1c 3d d6 75 73 3d 52 2d 6e 3c
       0.076941095 0.038328413 0.05943855 0.014537172
000040 e2 4d d5 3c 80 e6 3a 3c e2 aa b6 3d 36 93 99 3d
       0.026038114 0.011407495 0.08919312 0.074987814
000050 7d 18 ea 3c 94 5b 1d 39 a6 69 78 bd 06 0f 5a 3d
       0.02857613 0.00015006802 -0.06064763 0.053236984
000060 83 c8 3b bd aa 03 c1 3c 21 3d 8b 3d 74 6f f3 bc
       -0.04584552 0.023561317 0.06798769 -0.02971623
000070 fb 28 45 bc d0 7e 75 bd 08 20 d5 bc 4b 0f 9b bd
       -0.012033696 -0.05993539 -0.02601625 -0.07571276
000080 53 ce a2 bc 4f c8 9f 3d 00 3b 9f bd 8e 44 52 bd
       -0.019873774 0.07801878 -0.07774925 -0.05133491
000090 f7 1a 43 bd d6 a3 2b bd 97 69 4d 3d ae ed 5c 3d
       -0.047633138 -0.041904293 0.050149526 0.053937607
0000a0 6c c2 a8 3d 19 0e 17 3d 1b 80 9a 3d 40 6e 26 bd
       0.08240208 0.03687868 0.075439654 -0.040632486
0000b0 88 7b 3f bd fa 67 b0 bd 56 80 b6 bd c0 6c a2 3c
       -0.046748668 -0.08613582 -0.08911197 0.019827247
0000c0 4f 46 8f bc bf e0 85 bd 54 c1 99 bc d9 b7 a2 bd
       -0.01748958 -0.065370075 -0.018768944 -0.079452224
0000d0 e6 34 32 3d ce 31 60 3d 9b 7b 88 bc c7 7e 36 bb
       0.04350748 0.054734997 -0.016660502 -0.0027846561
0000e0 ac 35 ac 3b 57 32 ca 3b 80 a3 09 35 62 1d b2 bb
       0.0052554216 0.0061705518 5.12744e-07 -0.0054356316
0000f0 7f 0c d6 bc d8 bf 09 3d 58 47 b0 bb 9e c1 24 3d
       -0.026129005 0.033630222 -0.0053795986 0.04022371
000100 9d f1 26 3c 29 23 9e 3d f1 04 cf 3d da 4c 62 bd
       0.010189441 0.0772155 0.101083644 -0.055249073
000110 af 9e 9d bd 01 6b 17 3d ab 63 9f bd b0 1a b7 3d
       -0.07696282 0.03696728 -0.07782682 0.08940637
000120 24 0a a3 bd 16 4d 53 3d 03 0d 17 bc f8 91 9e 3c
       -0.079609185 0.051587187 -0.009219411 0.019356713
000130 7f f5 ad 3d f2 be 96 3d 29 d2 94 bc 40 9c 22 bd
       0.0849409 0.07360639 -0.018166618 -0.039699793
000140 56 9e b8 3c 43 56 05 bc 42 70 99 bd 6a 24 c4 bd
       0.022536438 -0.008138242 -0.074921146 -0.09577258
000150 75 ff 8c bd 19 be 7a 3d 80 86 57 3b 78 42 21 3c
       -0.06884662 0.061216448 0.0032886565 0.009842508
000160 9d e8 4e bd 5c 10 29 bd d4 38 eb 3c 31 25 8d 3d
       -0.050514806 -0.041275367 0.028713621 0.06891859
000170 70 f4 33 bd b1 ef 79 bd dc 53 ad 3c cd cb 9f bb
       -0.043934286 -0.061019603 0.021158151 -0.00487659
000180 02 c9 eb bc 13 b6 b3 bd 92 b4 b0 3d 4b 5b e6 bc
       -0.028782371 -0.08774962 0.08628191 -0.028119704
000190 29 b1 ed 3c ea 59 95 bd 32 97 94 bd 82 71 73 3d
       0.02901514 -0.0729254 -0.07255401 0.05943442
0001a0 27 10 8b bd 64 8c 27 3c c9 9a 1e 3c c0 2a 70 3c
       -0.0679019 0.010226343 0.009680458 0.01465863
0001b0 e5 3d 8e bd 9a 8c 4d 3d 29 1d 56 bc b1 e4 02 3d
       -0.06945399 0.050182916 -0.013068476 0.03195638
0001c0 3d f9 87 3d 5a da 7a bd 48 51 23 3c 68 b4 0e 3d
       0.06639335 -0.061243393 0.009968109 0.034840018
0001d0 93 c3 ff bc bc 28 5b 3d 1f a5 7f 3d 0e 77 5b bd
       -0.031221187 0.053505644 0.06241333 -0.053580336
0001e0 93 94 65 bc 54 98 ec 3c 09 cc 4f bd c8 47 b4 bd
       -0.014012474 0.02888123 -0.050731692 -0.08802754
0001f0 c3 7a a7 3d 21 ad 73 bc 74 d3 86 3d 91 1f 15 3d
       0.08177712 -0.01487282 0.065833 0.036407057
000200 00 95 fd bb 46 b0 65 bd b8 f0 c2 3c 1f 06 3b bd
       -0.0077387094 -0.05607631 0.023796424 -0.045660134
000210 a8 9f c2 3c 47 96 96 bd 30 7e 84 bc 10 d6 00 bd
       0.02375777 -0.07352882 -0.016173452 -0.031454146
000220 24 d3 8c bd cc 2b 95 bd 8c 7e 09 bd 35 ad 06 bd
       -0.068762094 -0.07283744 -0.03356795 -0.032880027
000230 af e5 1d 3d 33 6f 21 3d a7 db 57 bd 81 ec 11 bd
       0.03854912 0.03941269 -0.05269971 -0.03562594
000240 5e 37 91 3d 8d 8e 9d bd 01 ba c6 bc 0d 8d e8 3c
       0.070906386 -0.07693205 -0.024258615 0.02838757
000250 3c 83 af bd d3 61 aa bd fe 0f 2f 3d 55 f9 42 bd
       -0.08569953 -0.0831944 0.04273986 -0.047601063
000260 17 88 98 3d 72 9c 71 3d 79 d7 92 3d e3 f5 83 bd
       0.07447832 0.05898709 0.071700044 -0.064433835
000270 54 2a 0e bd 16 1c 47 3d d5 47 99 bd 48 1d b3 3a
       -0.034708336 0.04861077 -0.07484404 0.0013665343
000280 40 10 71 3d 82 5d a8 3c 14 ca 22 3d 9d 22 34 bd
       0.058853388 0.0205524 0.039743498 -0.043978322
000290 49 8b f4 3a ea 3e 80 bd 4a 71 ce 3c 00 fb 7f ba
       0.0018657233 -0.06262 0.025200505 -0.000976488
0002a0 59 ea 59 3d e0 c9 ba bc 65 9f 56 bd b3 85 95 3d
       0.053202007 -0.02280134 -0.052398104 0.07300892
0002b0 7c 05 8a 3d 1b f1 25 3d 38 98 78 bd c6 e1 51 bd
       0.06739327 0.04051314 -0.060692042 -0.051240705
0002c0 ef 9b bb bc 7c ec 96 bd ee 1d b4 3c fa ce 75 3d
       -0.022901503 -0.073693246 0.021986928 0.06001184
0002d0 19 4d 8e 3d 0f 63 08 bd 72 b1 82 bd 2c 5d a3 bd
       0.06948299 -0.033297595 -0.06381501 -0.079767555
0002e0 3f 68 93 bb 7f 87 9b 3d 1f 47 a6 bc 4f 3a 8e 3d
       -0.004498511 0.07594203 -0.020297585 0.06944715
0002f0 a4 97 9d bc f4 02 86 bd 08 32 a9 3c 33 27 11 bd
       -0.019237347 -0.06543532 0.02065374 -0.035437774
000300 9f d4 13 bd 3d 3c ac 3d 42 18 66 bd b6 0c a3 bd
       -0.036091443 0.08409927 -0.056175478 -0.07961409
000310 57 9f a6 3d d5 c9 2a bc 9f a1 8e bc 77 08 2c bd
       0.081358604 -0.010424097 -0.017411051 -0.04200026
000320 57 92 31 bd 76 9a 69 bd 91 f9 ca bb 2e 4e 21 bd
       -0.04335245 -0.05703207 -0.0061943014 -0.0393812
000330 75 20 b4 3d b7 1a 68 bc f4 e8 aa 3c 74 bd 58 bd
       0.08795253 -0.014166526 0.020863034 -0.05291505
000340 21 8c b0 37 bd cb c4 bc be cc 5e bb 9b 29 53 bd
       2.1046088e-05 -0.024022931 -0.0033996548 -0.05155335
000350 ba c7 d9 bc fe 42 9f bb 5a f1 56 3d d0 80 82 bc
       -0.026584495 -0.004860281 0.052476265 -0.015930563
000360 ff c6 71 3d 3f 3f a2 3d f6 5d 8f bd 80 52 70 ba
       0.059027668 0.079222195 -0.070003435 -0.0009167567
000370 be ef ee bc 95 17 88 3d d7 72 3f bd 8f 5e 44 3c
       -0.029167052 0.06645123 -0.04674038 0.011985435
000380 cf 72 9b bd db 4b aa bd 45 fa 8d 3d cd b9 b9 bd
       -0.075902574 -0.083152495 0.06932501 -0.09068642
000390 58 00 9e 3c 2a 50 bb 3c 60 32 07 3b c5 87 60 bd
       0.019287273 0.022865374 0.002062939 -0.05481698
0003a0 5d 31 37 bd 80 6b 8b bd 9a d0 5e bd 48 d8 ad bc
       -0.04472481 -0.068076134 -0.054398157 -0.021221295
0003b0 1e d6 6d 3d 68 e0 0d bd 17 de 03 ba f4 2a db bc
       0.058065526 -0.03463784 -0.00050303474 -0.02675388
0003c0 88 b3 0a 3c 2b be ab 3d c0 8c 49 3b a6 67 72 bd
       0.008465655 0.08385881 0.003075406 -0.059180878
0003d0 89 23 9c bd ed 71 36 bd 21 c3 9d 3d b7 fd 23 bd
       -0.07623965 -0.04454224 0.077032335 -0.040036883
0003e0 19 33 ad bd 03 6b 99 bc bf be c5 3a e2 b1 a4 3d
       -0.08457012 -0.018727785 0.0015086754 0.08041741
0003f0 23 b3 5b 3c 2b d2 a2 3b 5a 50 95 bd 0a 35 02 bd
       0.013409409 0.0049689016 -0.072907165 -0.031788863

fc2.bias f4 [128]
000000 f0 7f 14 3d 5e 76 f9 ba 4d 1f 89 3d da 9f 93 bd
       0.036254823 -0.0019032469 0.06695423 -0.07208224
000010 4d 30 ab bd 49 90 47 3d 83 e6 96 bd f6 ed 64 3d
       -0.08358822 0.048721585 -0.07368185 0.055891
000020 f7 c0 fe bb 8c 5e 3b 3d 81 bf 36 bd cd be 6e 3d
       -0.007774468 0.045744464 -0.044616226 0.05828743
000030 eb 6f 8d 3d 2d 8e b6 3c 58 79 92 3d e9 61 a4 3d
       0.06906112 0.022284592 0.07152051 0.080264874
000040 1a da 81 3d 20 b4 44 bc 18 62 a0 38 ec 79 ac bd
       0.06340428 -0.012005836 7.647666e-05 -0.08421692
000050 a8 a0 b8 bd a0 d3 b9 bd e0 4e 1f bb 2d 3a 19 bd
       -0.09015018 -0.090735674 -0.0024308488 -0.037408996
000060 a9 29 de 3c 98 f8 73 3d d6 48 e6 3c 49 ac 92 3d
       0.027119474 0.05956325 0.028110903 0.07161767
000070 89 e3 a6 3d a1 ff 21 3d 81 72 92 bd 45 b7 20 3d
       0.08148868 0.039550427 -0.07150746 0.03923728
000080 ce b0 89 3d c6 bb 8a bd a8 5c 7e bc 2b 73 eb 3b
       0.06723176 -0.06774096 -0.015525021 0.00718536
000090 58 ed 79 3d 35 1a 0f bd 90 02 88 bd c0 21 dd bb
       0.061017364 -0.034937102 -0.06641114 -0.006748408
0000a0 b2 d6 96 bd 07 79 9b 3c df 4d 98 bd 7b 36 f6 3c
       -0.07365169 0.018978609 -0.07436728 0.030055275
0000b0 bc 33 05 3d 99 3f b8 3c 15 41 4d 3d 3b ea 56 bd
       0.03252004 0.022491263 0.050110895 -0.052469473
0000c0 c5 33 60 3d 30 70 27 3c 23 03 20 bd 4f ca 82 3b
       0.05473687 0.010219619 -0.03906549 0.003991402
0000d0 cf fe 74 3d c1 6e 5f 3d a0 9a b7 bc d8 8c 93 bd
       0.059813317 0.054548983 -0.022412598 -0.07204598
0000e0 73 3f 5d bd dc 2e b1 bc 22 e6 bc bc 30 e5 ae 3d
       -0.054015588 -0.02162879 -0.023058955 0.08539808
0000f0 91 4c 4c 3c da 33 95 bd 82 2b 7f 3d 04 ee dd bc
       0.012469427 -0.072852805 0.06229735 -0.027091034
000100 cc 82 81 3d 1c 44 9f 3c 5c 01 bb 3d 44 4e 92 3c
       0.06323776 0.019441657 0.09131119 0.017859586
000110 ee b4 4b 3d 97 7e af 3c dd 31 02 bd f5 4e 90 bc
       0.049733095 0.021422667 -0.031785835 -0.017615775
000120 c4 56 fa 3c 21 4a a2 3c 35 40 67 3d 89 a7 98 3d
       0.030558951 0.019810738 0.056457717 0.0745383
000130 e8 fa 60 bc 4e d2 c4 3b bf 49 7b bb 08 e6 20 3d
       -0.013731696 0.0060065156 -0.0038343517 0.039281875
000140 22 d3 bd 3d d4 0e 1f 3d 9a f8 53 3d a3 97 64 3d
       0.09268786 0.0388325 0.051750757 0.055808675
000150 51 5a 8c bd c8 16 62 bc 1c 68 b1 bc 9d f2 57 bd
       -0.06853164 -0.013799377 -0.021656089 -0.05272161
000160 80 26 45 3b 20 72 0a bd 98 3b 8a bd 10 74 f7 bc
       0.0030082762 -0.033800244 -0.06749648 -0.03020671
000170 27 b4 52 bd 64 ca 65 bd ee 56 a8 3d 45 27 36 bb
       -0.051441338 -0.056101218 0.082197055 -0.0027794403
000180 92 81 08 3d d5 f4 01 3d 93 e8 90 bd 3b e4 b4 bd
       0.033326693 0.03172763 -0.0707561 -0.08832594
000190 20 31 99 3d 3e da 9d bd 60 38 27 bd c8 e0 01 3d
       0.07480073 -0.07707642 -0.040825248 0.03170851
0001a0 ce 94 cb ba 0f 50 04 3c 33 09 10 bd eb 2e 43 3d
       -0.0015532018 0.008075728 -0.035165023 0.047652166
0001b0 82 5d a7 3c f0 97 f6 3b 84 3f 8a bb 45 ae a4 bc
       0.02043033 0.0075254366 -0.0042189974 -0.02010263
0001c0 40 e3 eb bc 5c 1e a7 3d f7 dd 0b bd f9 45 3f bd
       -0.028794885 0.081600875 -0.03414723 -0.04669759
0001d0 d0 d5 27 bd bd eb e1 3c f1 d3 9d bd b9 3f a3 3d
       -0.040975392 0.02757823 -0.0770644 0.079711385
0001e0 37 74 21 bd ac 2e 01 bd 1f 2a ab 3d f5 35 af bc
       -0.03941747 -0.03153865 0.08357643 -0.021388033
0001f0 15 31 1d bd ff 50 59 3d 43 2b 69 3c 41 9e 0c 3d
       -0.038376886 0.05305576 0.014231506 0.03433061

fc3.weight f4 [3, 128]
000000 13 a7 67 bd 79 61 36 bd be ce c0 bc 5f 87 15 3c
       -0.05655582 -0.04452655 -0.023536082 0.009126513
000010 8a 17 b0 3c 4f 6e 3f 3c 30 39 90 3b 62 57 76 bd
       0.0214956 0.011684014 0.0044013485 -0.06014193
000020 c5 05 a0 3d f3 50 0f 3d 14 3b 54 bc 55 0d 1e bd
       0.078136005 0.03498931 -0.012953538 -0.038586933
000030 24 5f eb 3c 35 38 b9 bc f4 54 2a 3c e3 1b 98 3d
       0.02873189 -0.02260981 0.010396231 0.07427194
000040 eb 6c a8 3c b3 33 96 bd 1e 61 38 bd f0 a4 79 bd
       0.020559749 -0.073340796 -0.045014493 -0.060948312
000050 d2 30 ed 3c e5 f4 c7 3c 3b fd c1 3b 2f 6a 7d 3d
       0.028953943 0.024408767 0.00592008 0.061868843
000060 cc 96 61 3d c3 20 88 3d 34 8b 4c 3d 3b ee 94 3d
       0.05507545 0.06646874 0.049937442 0.07272001
000070 ae ee 14 bc 4f 6a ab 3a 05 3c 8a 3d 06 44 84 bd
       -0.009090109 0.0013077947 0.06749729 -0.06458287
000080 a8 2d a1 3d 5d 4b ba 3d 1b 83 6f bc 2b 83 b2 bc
       0.07870036 0.09096406 -0.01461866 -0.021791061
000090 71 18 72 3d 03 73 b6 3d a5 00 6d bd 56 b5 23 3d
       0.05910534 0.089086555 -0.057861943 0.039967857
0000a0 e0 3e ae bc 94 e0 42 3d 70 21 3e 3c e1 3b 7c bd
       -0.021270216 0.047577456 0.011604652 -0.061580542
0000b0 d0 3e 4c bd a3 84 99 3d 9c c9 ae 3d 7e 60 e5 bc
       -0.04986459 0.074960016 0.08534548 -0.028000113
0000c0 3b f0 4b 3d 52 b5 3b 3d d4 60 3e 3d 5f 15 79 bd
       0.04978965 0.045827217 0.04647906 -0.060811397
0000d0 49 ba 84 bc e2 59 c2 bd 72 0b 33 3d d7 74 8e bd
       -0.016202109 -0.094898 0.043712087 -0.06955879
0000e0 d1 d7 ab 3d ad 5f 0d 3c 2c 21 a4 bd b5 a1 8c 3d
       0.08390773 0.008628768 -0.080141395 0.06866781
0000f0 35 9b 5a bd f0 7f f9 bc 43 1d b5 bd 4c 3b 8f bd
       -0.053370673 -0.030456513 -0.08843472 -0.06993732
000100 24 9d d9 bb 68 35 83 bc 21 3f ae bd c4 03 2c 3c
       -0.006641047 -0.016016677 -0.08508135 0.010498945
000110 28 1a e2 3c 1d c8 34 bc 10 1c 45 bc 2b 99 63 bd
       0.027600363 -0.011034039 -0.012030616 -0.055565994
000120 50 5d 95 bd ed 44 27 3d 4b 3f ac 3d 27 91 1c bd
       -0.072931886 0.040837217 0.0841051 -0.038224366
000130 72 57 86 3d 44 6e 59 bd af b6 90 3d 89 53 ab 3d
       0.065596476 -0.053083673 0.07066094 0.083655424
000140 08 81 a2 3d 6f 05 2f 3d b4 ab f2 3c d6 53 06 bd
       0.07934767 0.04272979 0.02962289 -0.032794796
000150 17 d3 b3 3d fa 3b 39 3d 62 8e aa bc ac c1 9e bd
       0.087804966 0.045223214 -0.020819847 -0.07751784
000160 88 85 b9 3c 34 cf 41 3d 59 e0 87 3d 5b c4 24 bd
       0.02264668 0.047316745 0.06634588 -0.04022632
000170 0b a3 d4 bc e3 dc 30 bd ea 22 1d 3d 9f 73 44 bd
       -0.025956651 -0.043179404 0.038363375 -0.047961827
000180 e3 48 b8 3c 90 69 c0 bd a0 3f cb 3b 62 0d f7 bc
       0.022495693 -0.093951344 0.006202653 -0.030157749
000190 c1 ae 97 3d 80 16 be bd ff 8e 11 3d 92 72 38 bd
       0.074063785 -0.09281635 0.035536762 -0.045031138
0001a0 85 61 23 bd 9a 5a 80 bd 21 d1 08 bd c7 59 45 3d
       -0.039887924 -0.06267281 -0.033402566 0.04818132
0001b0 c1 cd 12 3d ef 49 b2 bd 3c ee b6 bd 9d 81 9e bd
       0.035840753 -0.08705508 -0.08932158 -0.077395655
0001c0 fe a9 cd bb ff 9a fd bc 5f 07 43 bd fc 3e 05 3d
       -0.006276368 -0.030957697 -0.04761445 0.03253077
0001d0 75 78 a8 bc bc 64 1a bd de a3 28 3d 4e 91 4b bc
       -0.02056525 -0.037693724 0.0411719 -0.01242478
0001e0 7b 5f 87 bd fe 65 cd 3c 23 2f b5 bd a5 7b 5d 3d
       -0.06610008 0.025073048 -0.08846881 0.054072995
0001f0 08 9b 03 bd 12 df 46 3d 67 5e 44 3c 6c 02 9d 3d
       -0.03213027 0.04855258 0.011985398 0.076664776
000200 2a ec af 3d 66 0d 8f bb aa 7e d4 bc b9 83 81 3d
       0.085899666 -0.004365611 -0.025939304 0.06323952
000210 7b 90 f8 3b fa 9e 2c bd 7f c5 b1 3d 31 28 1c bd
       0.007585583 -0.0421438 0.086802475 -0.038124267
000220 d0 1f 59 bd 0b 18 80 bc fa a6 8d bd 8f 49 72 bc
       -0.053008854 -0.015636465 -0.06916614 -0.014788046
000230 bd 28 43 3d 85 47 8c 3d a4 e2 57 3d 6e a9 63 3d
       0.047646273 0.06849579 0.052706376 0.055581503
000240 51 17 11 3d 9f 9f 05 bd bc b6 53 bd 1d 00 9c bd
       0.035422627 -0.03262293 -0.05168794 -0.07617209
000250 ee 99 66 3d fe 42 67 bd 74 0a 04 3d 9d 48 41 bd
       0.056299143 -0.056460373 0.03223653 -0.04718839
000260 c0 8c 6e bd 59 7a 11 bd ae e2 71 3d 9e 03 5c bd
       -0.0582397 -0.03551707 0.05905407 -0.053714387
000270 eb 09 a3 bd 18 a4 70 3d 86 07 3e 3d 8b 71 8e 3c
       -0.07960876 0.058750242 0.046393894 0.017388126
000280 df dd 90 bd 71 2d ae 3d 51 be 86 3d c4 92 1c 3d
       -0.070735686 0.08504761 0.06579269 0.038225904
000290 78 ae 96 bd 13 b3 14 3d d1 67 4a 3d 24 cc a8 3c
       -0.07357496 0.03630359 0.049415413 0.020605154
0002a0 c0 77 3a 3b ef 81 9e bd 52 b4 99 bd 7c 40 6a bd
       0.0028452724 -0.077396266 -0.075050965 -0.057190403
0002b0 34 e4 80 bc 2f 19 6b bd e5 2d b2 3c 7e fd 27 3d
       -0.015733816 -0.057397064 0.0217504 0.041013233
0002c0 20 f1 fe bb e6 cd 2a 3d e7 ca bb 3a 9e 8e ff bc
       -0.007780209 0.041700266 0.0014327437 -0.031195935
0002d0 75 43 c7 3c b0 16 29 3d ac 96 81 3c a1 85 c5 3b
       0.024324158 0.041281402 0.015818916 0.0060278927
0002e0 4f d8 99 3d c0 7e a5 bd 7c 6c ad bd 87 57 98 3d
       0.07511961 -0.08080816 -0.084679574 0.074385695
0002f0 1b a1 af 3c a0 f0 63 3b 5f e6 88 bc 29 1d 9d bd
       0.021439126 0.0034780875 -0.016711412 -0.076715775
000300 94 ad a3 3d b3 ca 84 bd 82 38 9b 3d 86 78 b6 3b
       0.07992092 -0.06483974 0.075791374 0.0055685667
000310 a0 a2 f8 3c f6 c1 ff bc 20 cf 2d bd 6f 32 2f 3d
       0.030350983 -0.031220417 -0.042433858 0.042772707
000320 2b 4d 47 bd 99 9a bc bd 0a 7d 65 3c 18 fb 33 bc
       -0.048657577 -0.09209175 0.014006862 -0.010985158
000330 d5 95 96 bd a2 4f 48 bd 45 a1 96 bd 1c 09 da bc
       -0.07352797 -0.04890407 -0.073549785 -0.026615672
000340 80 34 5e 3d 73 1a 93 3d 8e d5 3f 3d 77 cf aa 3c
       0.054249287 0.07182779 0.04683452 0.02085088
000350 21 b0 56 3d 62 24 11 bd fe 28 9a 3d d4 2f 2c bb
       0.052414063 -0.035435088 0.0752735 -0.0026273625
000360 7e 4d 65 3d b2 74 89 bc c5 6b 7d 3c 72 a4 73 3d
       0.055982105 -0.016779277 0.015467589 0.059483
000370 b5 f9 a0 3d 16 c4 8d bd ee 76 25 3d 1b 28 b7 bb
       0.07860128 -0.06922166 0.040396623 -0.0055894977
000380 3c c9 32 3d 5a b7 7c 3d 10 65 b7 3d ce df 99 3d
       0.043648943 0.061698295 0.08954823 0.075133905
000390 e4 16 4c 3d 2a 6c 97 bc 9c 4d a3 bb 99 6a 98 bc
       0.049826518 -0.018484194 -0.004983617 -0.018605517
0003a0 e7 b9 82 bd fd 91 81 3d 00 62 82 bc 15 09 c9 bc
       -0.06383114 0.06326673 -0.01591587 -0.024540463
0003b0 73 c6 8c 3d ae 4a 42 3d a1 e2 aa 3c aa 41 86 3d
       0.06873789 0.0474345 0.020860018 0.06555493
0003c0 62 b1 13 bd 50 63 a5 3d 11 24 98 bd 1e da b0 bd
       -0.036057837 0.08075583 -0.07428754 -0.086353526
0003d0 27 cb 9b bd 58 36 9f bd 44 0a 4e bd 7b a6 ee 3c
       -0.076071076 -0.07774037 -0.05030276 0.029132118
0003e0 e2 df b3 bc 3d 4e 76 3d f0 97 48 3d 77 ff 29 3d
       -0.021957342 0.060133208 0.048973024 0.041503396
0003f0 8d 15 3b 3a a2 ec a2 bd b4 91 f5 bc d2 07 ef bc
       0.0007136695 -0.079552904 -0.029976703 -0.029178534

fc3.bias f4 [3]
000000 2f 86 1f bc d8 d1 0a bd 7f d9 8c 3c
       -0.009736582 -0.03389153 0.017193554
