integration/obselete/checkpoint.pth (torch, 132139 bytes, 10 tensors)

ip_bn.weight f4 [20]
00000000: a573 753f 0e21 793f cf71 7d3f 2ae0 793f
00000010: f9f2 773f 1092 793f 0f05 7a3f 0700 7a3f
00000020: 63a0 793f 0000 803f 0000 803f 0000 803f
00000030: 0000 803f 0000 803f 0000 803f 0000 803f
00000040: 0000 803f 0000 803f 0000 803f 0000 803f
0.95879585 0.9731606 0.99001783 0.9760767 0.9685512 0.974885 0.9766397 0.9765629
0.97510356 1.0 1.0 1.0 1.0 1.0 1.0 1.0
1.0 1.0 1.0 1.0

ip_bn.bias f4 [20]
00000000: 2d1d 4c3c a712 febb 1061 aebc 299b 8abb
00000010: 9d09 96ba 759f fe3b 22b1 63bb 8dfb 813c
00000020: 10ad 03bc 660a 48bc 7f1e 3f3c 53d5 a1bb
00000030: fae9 003c 5698 aabc 30ca 3a3c 3386 de3b
00000040: 7c2e 493c 76c7 ba3c 7670 69bc ebd8 f8bb
0.012458128 -0.0077536884 -0.021286517 -0.0042299223 -0.0011446957 0.0077704736 -0.003474303 0.01586702
-0.008036867 -0.01220951 0.011664986 -0.0049387603 0.007868284 -0.020824593 0.011400744 0.0067909
0.012279149 0.022800189 -0.014248004 -0.007594218

ip_bn.running_mean f4 [20]
00000000: d628 1b3f b045 dc3e 04c2 013f 89c4 203f
00000010: 9284 373f 7f84 3c3f 32c6 493f e966 443f
00000020: efca ca3e 0000 0000 0000 0000 0000 0000
00000030: 0000 0000 0000 0000 0000 0000 0000 0000
00000040: 0000 0000 0000 0000 0000 0000 0000 0000
0.60609186 0.43021917 0.5068667 0.6279989 0.7168666 0.73639673 0.7881805 0.7671953
0.3960795 0.0 0.0 0.0 0.0 0.0 0.0 0.0
0.0 0.0 0.0 0.0

ip_bn.running_var f4 [20]
00000000: 0d5c 253d 8990 3138 c5f6 0e3b 44d8 173b
00000010: b769 e63b 7289 693d 02af 873d 8813 0c3e
00000020: 560a 6d3e ef98 ac2d ef98 ac2d ef98 ac2d
00000030: ef98 ac2d ef98 ac2d ef98 ac2d ef98 ac2d
00000040: ef98 ac2d ef98 ac2d ef98 ac2d ef98 ac2d
0.04037099 4.2334697e-05 0.0021814567 0.0023169676 0.007031645 0.057015844 0.06625177 0.13679326
0.23148474 1.9622052e-11 1.9622052e-11 1.9622052e-11 1.9622052e-11 1.9622052e-11 1.9622052e-11 1.9622052e-11
1.9622052e-11 1.9622052e-11 1.9622052e-11 1.9622052e-11

fc1.weight f4 [128, 20]
00000000: e199 4b3d ce3b 5dbd 8b77 7f3d 3212 26bc
00000010: 8451 c73d 7c14 573d d1d1 d8bc 2c69 3abe
00000020: 6036 453d f1be 45be 1322 803c 6415 753c
00000030: a01c 27bd 6ebe 3d3e ad7c 373c a39d c53d
00000040: c946 bd3d 774a 0cbe b745 a5bd b6e9 5b3e
00000050: c724 55be d064 5ebb 449a 04bd 7a5e 143e
00000060: f5af 0ebd 87d2 953d f615 6e3b 4b57 f5bd
00000070: 7f3a e8bd 02d4 c5bd 0457 51be 2af4 05be
00000080: 2eca 173d 0d79 263e 9f45 56ba f078 f8bd
00000090: b94f a93d f1e0 d3bd b880 05bd c5bf dbbd
000000a0: 6eda 81bd d49c 4dbe 9be9 ae3d 97af 9f3d
000000b0: 9c3e 093d ef8c f33d 918b d03d cee2 9f3c
000000c0: 41ff ee3c b539 ce3c e139 d13d b9fe 263e
000000d0: 4a48 1e3e 67f4 113e 0947 85bd f8ca ccbc
000000e0: 319c 6cbd 9a60 f53d de0d 0b3d b7b5 603e
000000f0: 8e68 dd3d 6ec6 43be 8063 803d 63dc 583e
00000100: 281c 473e c2e8 54bb dd35 993d 1c00 52be
00000110: 69b7 82bd 0026 f03d 3dbc 5fbe ff78 563e
00000120: 31b7 21be b32f ab3d d9ff 9bbc 181e ba3c
00000130: 778c fa3b 9582 5ebe 500c 28bd 296c 02be
00000140: 3f95 353e c3fe 8bbc cde3 69be b5f3 543d
00000150: b433 b93d 617f c6bd cef7 8dbc c338 e43d
00000160: d3ee 10be 1810 e4bd c5c5 1fbd fe5b 16be
00000170: fc05 113e 4250 d23c f837 003e 434e e43d
00000180: cfd5 37be c0d4 15be e2c7 14be 86da 85bd
00000190: 5ac1 9cbd b56a 35bd 0101 6cbe 969e d23d
000001a0: 4e4f 023e 914e 833d 70e4 083e 9a4e 373e
000001b0: 5175 68be 45e7 c33c 072f 533e 6aca 31be
000001c0: 8b9e d0bd b35a aebc e30e 05be 0a0a e4bc
000001d0: 8ea2 bbbc fe3c 583e 4121 c7bc 4daf e33d
000001e0: 980b 1b3e a247 cb3d 118b 48be 70d1 243e
000001f0: d460 0f3e 80a0 23be af90 a2bd d76b 213e
00000200: f0f0 5cbe 5c50 46be d6c7 25be ba9a 9e3d
00000210: 29ad c2bd e588 48be d97c a93d 14aa d83d
00000220: 442f a13d ac0b 43be a15f 5c3e 11b3 4cbc
00000230: 7814 4ebe 5a92 c9bc 8887 173e 7f31 dd3d
00000240: e40f 033c a92a 273e 173c 4bbe d703 183e
00000250: 2a93 533e bb22 e9bd 7f93 ac3c 5be4 a1bc
00000260: deb8 35be 69f0 893c cd98 c0bd 3b1e 54be
00000270: 1590 39be 82e7 52bc 2909 663e 5564 c53d
00000280: a54c 0cbe da18 1b3e 999a d93c a93d 4cbe
00000290: 0435 a73c 161f 083e 7c14 12be b280 a3bc
000002a0: f3de cfbd 784f 26be 1bf6 0bbe ab53 163d
000002b0: 98ad 113e 6586 ccbc 124f 5cbe a3f2 a1bc
000002c0: 2c5c 58be c3b5 033b ccb4 313e 9cd7 e53d
000002d0: 7454 08be d0f5 9dbc 6e42 af3d fec0 623d
000002e0: 3128 5bbe 0ee0 e8bd 8e6a 7abd 8472 bc3d
000002f0: 4999 503e 632e e53d 7ae9 9d3d 7357 34be
00000300: 8ee3 fc3d 2ae5 c33d 14c0 acbd 8432 00be
00000310: 6208 453d d7c9 0dbe 6b19 d83d 42e3 3d3e
00000320: e16d 0cbe 64fb 1dbe eafb c3bd e3e2 3bbe
00000330: 87d6 aebc 825d 053e 3954 963d 2582 8ebd
00000340: 9136 8fbc e66c b6bd d2d9 33be 2e9e 63bd
00000350: 1c0a ad3c 78dd d9bd 4107 33be 5dda 713d
00000360: e06e d53c c9b3 a1bd 28e4 913d 51c2 593e
00000370: 6ffd b83c 32d2 13be 3508 543e 30c2 1f3e
00000380: 25e5 d8bc ba21 c2bd f1f1 b3bd c885 4f3e
00000390: 0d36 f73d e896 d8bd 65a1 b6bb 3e87 5c3d
000003a0: 1554 1a3d b305 90ba f686 00be 6571 85bc
000003b0: 2c16 96bd 6830 bebd 3ee8 c0bd 9271 cabd
000003c0: b4ff d8bd 4500 a03d 862b 43be 9710 4fbe
000003d0: 1036 433e 8468 953d 7162 f43d 196e b03d
000003e0: 5843 9cbd d6e4 00be 8f8f 2dbe a0ee cdba
000003f0: 3077 673d d759 45be 35b9 3ebe 506d e33d
0.049707297 -0.054012112 0.062369864 -0.010136174 0.09732345 0.05250977 -0.026467236 -0.18204182
0.04814756 -0.1931112 0.015641248 0.014958713 -0.040798783 0.18529674 0.011199159 0.096492074
0.09242017 -0.13700281 -0.08069938 0.21475872 -0.2081481 -0.00339346 -0.03237368 0.14489165
-0.034835774 0.073155455 0.0036329008 -0.119795404 -0.11339282 -0.09659578 -0.2044335 -0.13081422
0.037058048 0.16257115 -0.00081738265 -0.12132442 0.08267159 -0.103456385 -0.03259346 -0.107299365
-0.0634049 -0.20079356 0.085406505 0.07797163 0.033506975 0.11892115 0.1018287 0.019517329
0.029174449 0.025174001 0.10216118 0.16308106 0.15457264 0.14253388 -0.065076895 -0.024999127
-0.057766143 0.11981316 0.03394877 0.21944319 0.10810958 -0.19118664 0.06268978 0.21177821
0.19444335 -0.0032487367 0.07480977 -0.20507854 -0.06382639 0.11725998 -0.21849151 0.20944594
-0.15792538 0.08358707 -0.019042896 0.022719428 0.0076461392 -0.217295 -0.041027367 -0.12736572
0.17732714 -0.017089253 -0.22840805 0.05199023 0.09043065 -0.09692264 -0.017330077 0.11143639
-0.14153604 -0.11135882 -0.039006967 -0.1468353 0.14162439 0.025673036 0.1252135 0.1114774
-0.17952655 -0.14631939 -0.14529374 -0.06535821 -0.076540664 -0.044291217 -0.23047258 0.10284154
0.12725565 0.0641147 0.13368392 0.17901078 -0.22701003 0.023913989 0.20623408 -0.17362371
-0.1018649 -0.021283483 -0.1299396 -0.027836818 -0.02290466 0.21117017 -0.024307849 0.1111742
0.15141141 0.09925772 -0.195843 0.16095519 0.14001781 -0.15979195 -0.079377525 0.15763794
-0.21576285 -0.19366592 -0.16189513 0.077443555 -0.09505684 -0.19583471 0.08275766 0.10579315
0.07870343 -0.19047421 0.21520855 -0.012493865 -0.20124996 -0.024605919 0.14797795 0.10800456
0.007999394 0.16324867 -0.19847141 0.14845215 0.20661607 -0.113835774 0.021066425 -0.019762209
-0.17746302 0.01683827 -0.094041444 -0.20714657 -0.18121369 -0.012872579 0.22464432 0.096382774
-0.13701113 0.15146199 0.026562976 -0.19945396 0.020411022 0.13293108 -0.14265627 -0.019958828
-0.10149946 -0.16241252 -0.136681 0.036700886 0.14226377 -0.024966428 -0.21514538 -0.019769019
-0.21128911 0.0020097352 0.17354125 0.11222765 -0.13313466 -0.019282252 0.08557592 0.055359833
-0.2140205 -0.1137086 -0.061136775 0.092015296 0.20370974 0.11190488 0.07710548 -0.17611484
0.1234809 0.09565194 -0.084350735 -0.1251927 0.048103698 -0.13846527 0.10551723 0.18543723
-0.1371379 -0.15427929 -0.09569533 -0.18348269 -0.021342529 0.13023952 0.07340283 -0.06958417
-0.017482074 -0.089074895 -0.1756356 -0.055570774 0.021122985 -0.10637945 -0.17483236 0.059046138
0.026053846 -0.078956194 0.071235955 0.21265532 0.022581784 -0.14435652 0.20706256 0.1560142
-0.026476452 -0.09479089 -0.08786381 0.20265877 0.12070856 -0.10575658 -0.005573439 0.053839915
0.037677843 -0.0010988027 -0.12551484 -0.016289422 -0.07328448 -0.092865765 -0.09419297 -0.09884943
-0.105956465 0.078125514 -0.19059572 -0.20221172 0.19063592 0.072953254 0.11932839 0.086147495
-0.07630032 -0.12587294 -0.16949295 -0.0015711375 0.05651015 -0.19272552 -0.18625338 0.11104834

fc1.bias f4 [128]
00000000: 293f 5dbe f694 56be 9bb7 57be 27d2 9ebd
00000010: d48f e6bd eee3 653e e2bb b63d 4d66 343e
00000020: f5b8 80bd 5130 4b3d eec6 5ebd 3b99 01be
00000030: 1c7f 59be 8f0a 4ebe 80ca 08be 00db 9dbd
00000040: 89c6 eebd 7ed1 e1bd a9f4 f33d f96d 31bd
00000050: f058 1fbe 5810 44bc 8253 a2bd 2685 f2bd
00000060: ca2d 5bbe 9973 66bd d80a f2bd fea5 313e
00000070: 19e9 8bbd 4af0 273e 0055 0cbe c79f f03d
00000080: 7203 093e b409 ecbd e0d8 edbd 0a81 babb
00000090: 3729 65bc 84b8 93bd a94e fa3d 8c4f 373d
000000a0: 89aa 14be 07e0 9f3d 5733 f53d 9d96 bd3d
000000b0: 4edf ae3d e644 c0bd 1d4f 0b3d 27e9 503e
000000c0: c17a 12be 41b8 01be 8cd6 9dbd ce16 3dbe
000000d0: 9275 5bbe df2c 043e 44e3 193e 87c9 8b3d
000000e0: be78 fdbd c15d 36be 2a1d b6bd bef3 3cbe
000000f0: 90c8 f23d 07fd 27be d7ef 9dbc f45b 02be
00000100: dbb2 9e3d acb1 3dbe bb06 0fbe 8071 d23d
00000110: e3c7 3cbe 3797 87bd 8280 383d 5f0b 043e
00000120: caf2 8c3c ecd9 ed3d b7a5 f83d 34f1 423e
00000130: c33a 5d3d 8b50 4fbe 30a0 543d be2e 3cbe
00000140: db23 e13d 9bc0 15be 2380 54be 6ad5 473e
00000150: ed1d 313e 463d ddbd 037d 2a3e ecc4 063a
00000160: 45f2 4fbe 701d c6bb 97f2 f23d 2f80 73be
00000170: 7d5f 18be a27c 55be c262 93bd a988 08bd
00000180: c243 63be a828 50bd 4fe0 5d3d 3ab3 d8bc
00000190: 4542 353e 9fe7 923d a4cd 59be 88fd c83d
000001a0: 54e3 d4bd 4de5 6fbd 925c 8d3c aecd 903d
000001b0: 0158 3bbe dc52 94bd 703b 2ebe 012f 893d
000001c0: e1f5 37be a2fe febd faea 443d 3c5d 3c3e
000001d0: e05f d5bc 7e6f 69be aedf 99bd 84a5 20be
000001e0: 7c57 383d 9dfc 61be c782 113e d284 053d
000001f0: 7d22 18bd ed64 fcbd 0538 363e dfc8 783d
-0.21606125 -0.20955262 -0.21066134 -0.07754927 -0.11257902 0.2245023 0.089225546 0.1761715
-0.06285278 0.049606625 -0.054388933 -0.12656109 -0.21239895 -0.20121215 -0.13358498 -0.077077866
-0.11658961 -0.110262856 0.119118996 -0.04331777 -0.1556127 -0.011966787 -0.07926084 -0.11841802
-0.21404186 -0.056262586 -0.118184745 0.17348477 -0.06831569 0.16400257 -0.137043 0.11749225
0.1338022 -0.11525288 -0.11613631 -0.005691652 -0.013986877 -0.07212928 0.122220345 0.044753596
-0.14518179 0.07806402 0.11972683 0.09257243 0.08538686 -0.09388141 0.034010995 0.2040144
-0.1430464 -0.12667944 -0.07706937 -0.1846573 -0.21431568 0.12907742 0.15028101 0.06825548
-0.12376545 -0.17809202 -0.08892281 -0.18452355 0.118546605 -0.16405116 -0.019279404 -0.1273039
0.07748958 -0.18524808 -0.13967411 0.10275555 -0.18435626 -0.06620639 0.04504443 0.12894963
0.017205615 0.11613831 0.121409826 0.19037324 0.054011118 -0.20245568 0.05191058 -0.18377206
0.10993167 -0.14624254 -0.20752005 0.19515005 0.17296572 -0.108027026 0.1664925 0.0005141038
-0.20307262 -0.0060459897 0.118626766 -0.23779367 -0.14880176 -0.20848325 -0.07196571 -0.033333454
-0.22193816 -0.050820023 0.054168995 -0.02645265 0.17701061 0.071730845 -0.21269852 0.09813982
-0.10394922 -0.058568288 0.017256055 0.0707048 -0.1829529 -0.07242367 -0.17014861 0.066984184
-0.17964889 -0.12450911 0.048075654 0.18394941 -0.026046693 -0.22796437 -0.07513367 -0.15688139
0.045005307 -0.2206902 0.14210044 0.03259737 -0.037142266 -0.123239376 0.17794807 0.06073844

fc2.weight f4 [128, 128]
00000000: 5c94 283d f6ab 993b 2127 16bd 11e6 6abb
00000010: 7db4 a83d 5651 1b3d 03eb 923d 45bd afbc
00000020: defc a0bd abac d7bc e9f2 2ebd 1407 bb3d
00000030: b52b 6b3d 17c0 ee3b 245f 09bd 8e90 2fbd
00000040: 3697 7e3c daa2 84bd b9d9 7fbb cb7d 9fbd
00000050: 468b 223d 2ae2 6fbd 4721 58bc 8460 f8bc
00000060: 1d85 9cbd e1d9 243d 0a28 43bd 127d d8bc
00000070: 0238 4cbd e479 9b3c e250 56bd c00a 663d
00000080: 347c 4e3d cd7e 4dbd 6a66 773d 6c30 b73c
00000090: 053c 91bd 4c0d 89ba 371c d6bc 9943 c4bc
000000a0: a89c b23d fa87 eb3b dfc4 fabb 49ba 9c3d
000000b0: 185e 183d 38f4 a7bd 45c3 13bd 43dc fc3c
000000c0: 2486 74bd 2f57 8ebd 14f9 803d bc9d adbd
000000d0: b034 b5b9 3390 733d e1fc 683d 8854 66bd
000000e0: 2144 103c 9e97 86bd 387a 783d 697f b43c
000000f0: eb29 14bd 716e 413c b59e a23d 5711 483a
00000100: e81a 31bd f54a b8bc 284b 543d a512 1d3d
00000110: 1aa0 b4bb d75d 303d 2b9e 3c3d 7244 85bd
00000120: 344a a03c 05d6 8d3d c85f c2bd e863 93bd
00000130: 6b46 a73d 25af ea3c e6e3 053d 14fc 5cbd
00000140: 5fdd 8fbd 05ca b63d 7832 26bd 6e2b 98bd
00000150: 1225 e93b d39d 26bd 55b9 323d a35f 21bc
00000160: 5774 c7bc d45b 50bd f8e7 9fbd 923d 093d
00000170: d01e 87bd 10a5 c0bd 3884 eebc 19aa 47bd
00000180: 35a5 52bd a212 a73d 2187 8fbc ca9e 873c
00000190: e133 6a3d b4a4 81bc ab1c c6bd f2d2 07b8
000001a0: bffe 923d 41b2 b83c 81f5 203d 61ad a73c
000001b0: 8676 86bd 7140 90bc 269d b1bd 083a 1ebd
000001c0: 6de6 f43b 4f99 903d 2dbd 3d3d 5db5 863c
000001d0: 6b33 b63d 611d aa3d 84b5 d13c 4595 583d
000001e0: ef90 593d f59b 6fbd d21c 8a3c b7f2 253c
000001f0: ec6c ae3c 0a23 41bb ee37 bc3d 77af 743b
00000200: a449 6e3d 3dc9 dcbc 072b 883d dae8 55bc
00000210: 496e 2f3d e7f0 843c 4f61 9d3d deb3 04bc
00000220: 305e 8c3d 59ed a0bc 0e70 2a3d e641 9c3c
00000230: ab07 19bd c0d8 d93c 0a65 17bd 6980 1abd
00000240: 4e66 51bd b627 663d f3ee c63c 8752 8c3d
00000250: eb64 87bd ae45 053d 2079 d3b8 4bf5 d83c
00000260: 055b 88bc 4b3f 9bbd 0007 f23c 69fc 0c3d
00000270: 5547 8b3d 8412 efba 5dc0 5fbb 767a a33d
00000280: 2a17 41bd ce69 9c3d 0c98 96bd 2d93 b63d
00000290: 0f4f a43d b4fc 7d3d 903d 123c 3237 5bbd
000002a0: f4c7 21bd 4112 6f3c 854b 403d 5daf 683d
000002b0: 4006 c5bc 5847 c8bc 5f20 67bd 6f65 34bd
000002c0: 4ead 2b3d 0124 10bd 22fe 0ebd 0210 fb3c
000002d0: f7a3 dfbc 180d 383c e434 15bd d3a1 62bd
000002e0: 4b96 9dbd f56d 2ebd 80e0 763d a957 6fbd
000002f0: d5e5 b3bc e9f9 1b3d ad3f a03c 4eb4 9dbb
00000300: 0cd4 0abd 0d3b 2cbc 84da 8fbd 530a 9a3d
00000310: 612c 63bd 0f42 02bd 91a3 e33c 1e91 09bd
00000320: b938 32bd cdbe 89bd 603d 6f3c 0f8c 613d
00000330: de31 8fbd 85ee d7bc ec7c 1a3d c2e4 3dbd
00000340: eb26 2c3d f773 323d ff6d 96bc f525 c23b
00000350: 1b36 c33d 4c2f 143d d720 d6bc aeea 2ebd
00000360: d415 723d 9505 ba3c edcc 533d b67f 713c
00000370: ce12 ad3d eb9b 9a3d 6d14 fa3c fb06 0d3c
00000380: 82bd 9c3c ae93 563d a63a 2a3d d525 09bd
00000390: d74f 343d e74d c8bc 9fe0 59bd 3515 24bd
000003a0: f5fb c139 40a4 573d 5473 963c 6663 aa3d
000003b0: 3f52 d03c 8404 44bd a0ef 9c3d 899b 733d
000003c0: 86ea 3ebd 6c82 3fbd 84f9 093d 00d1 1bbd
000003d0: 358e 793c db7b 33bd 5d8a 23bd 1798 70bd
000003e0: 3d7c b7bd 2457 6bbd e1de 503d 6621 273d
000003f0: 95ef 9abb 520a 85bb bcb0 453d 69a9 923d
0.04115711 0.004689689 -0.03665841 -0.0035842697 0.082375504 0.037919365 0.07173731 -0.021452555
-0.078607306 -0.026327452 -0.042712126 0.091322094 0.05741473 0.0072860825 -0.033538 -0.042862467
0.015538981 -0.06476374 -0.0039039685 -0.07787665 0.039683603 -0.058565296 -0.013191528 -0.03031946
-0.07642577 0.040246848 -0.047645606 -0.026426826 -0.0498581 0.01897902 -0.05232323 0.056162596
0.050411418 -0.050169755 0.060400404 0.022361957 -0.07091526 -0.0010456233 -0.0261365 -0.023958014
0.08721286 0.0071878405 -0.0076528634 0.076527186 0.03719911 -0.08200878 -0.036074895 0.030866748
-0.05969824 -0.06950223 0.06297508 -0.08477351 -0.00034562266 0.05946369 0.05688179 -0.05623296
0.008805306 -0.065718874 0.060663432 0.02203341 -0.03617279 0.011806116 0.07940427 0.00076319784
-0.04323855 -0.02249668 0.051829487 0.03834786 -0.0055122497 0.043058243 0.04604928 -0.065071955
0.019566633 0.069255866 -0.09490925 -0.0719679 0.08167728 0.028647969 0.032688044 -0.053951338
-0.07024645 0.08925251 -0.040575475 -0.074301586 0.007115015 -0.040677857 0.043633778 -0.009849462
-0.024347467 -0.050868824 -0.078079164 0.033505984 -0.06597674 -0.09406483 -0.029115781 -0.048746202
-0.051427085 0.08157851 -0.01752049 0.016555209 0.05717838 -0.015825607 -0.09673437 -3.2382966e-05
0.07177495 0.022545936 0.03929663 0.020468416 -0.06565575 -0.017608853 -0.08672552 -0.03862956
0.007473758 0.07060491 0.04632299 0.016443903 0.08896526 0.08306385 0.025599249 0.05287673
0.053116735 -0.05849834 0.016859446 0.0101286685 0.021292172 -0.0029470348 0.09190355 0.003733603
0.058175698 -0.026951427 0.06648832 -0.013056004 0.042829785 0.016228152 0.07684576 -0.008099524
0.06853902 -0.019644426 0.04161077 0.019074392 -0.03736083 0.026592612 -0.036961593 -0.037720118
-0.051122956 0.056190215 0.024283862 0.06851678 -0.066110454 0.032537155 -0.00010083825 0.026484152
-0.016644964 -0.075804316 0.029544353 0.034420405 0.06800715 -0.0018239771 -0.0034141757 0.07982342
-0.04714123 0.07637368 -0.073532194 0.0891479 0.08022892 0.062008575 0.00892581 -0.053519435
-0.03949733 0.014591754 0.04694702 0.056807864 -0.024050832 -0.024448082 -0.056427356 -0.044042047
0.041913323 -0.035190586 -0.03491033 0.030647282 -0.027299864 0.011233591 -0.036427394 -0.05533011
-0.07694682 -0.042585332 0.060272694 -0.05843321 -0.021960178 0.03808013 0.019561613 -0.0048127538
-0.03389363 -0.010512126 -0.070241004 0.075215004 -0.055462245 -0.03180128 0.027787955 -0.03358566
-0.043511126 -0.067258455 0.014602035 0.05506521 -0.06991933 -0.026358852 0.03771679 -0.04636074
0.042029303 0.043567624 -0.018362997 0.005924935 0.09531804 0.03617792 -0.026138706 -0.042704277
0.05910285 0.02270774 0.051709104 0.014739921 0.08450852 0.0754927 0.030527318 0.008607621
0.019133333 0.052386932 0.041559838 -0.033483345 0.044021454 -0.02445121 -0.05319273 -0.040059287
0.0003699955 0.052646875 0.01836554 0.0831974 0.025429843 -0.04785587 0.07662892 0.0594745
-0.046610378 -0.04675524 0.033685222 -0.038041115 0.015231659 -0.04381929 -0.039926875 -0.058738794
-0.089592434 -0.05745615 0.050993804 0.040803336 -0.0047282674 -0.004060068 0.04826425 0.07161219

fc2.bias f4 [128]
00000000: bb4d 40bc d786 df3c bfef df3c f118 32bd
00000010: 7bad 34bc e7dc 29bc fff5 dcbb 8022 9bbb
00000020: e6f3 80bd 3f28 bfb9 ec01 f73c b4ef 1fbd
00000030: d28f 763d ccf9 35bd 9068 a2bd ff36 9c3d
00000040: fa1f 88bd 4d30 f53b 9875 1bbd e0c6 4b3c
00000050: 663b 493d b275 ef3a 5d8f 55bd e983 8e3d
00000060: c9c6 a6bd 8af7 453d 07b4 4dbd f340 07bd
00000070: 1413 583c e6bc ae3b 4517 893d 93dc 92bd
00000080: c0c9 7abb fc0a 81bd 1d33 093a 1f88 863d
00000090: 0947 85bd e725 07bd 80c8 c8bc 279a 88bc
000000a0: 14cb 533c f7c5 8c3c 6eff 61bd 71ce 493b
000000b0: 8c60 e03c 0bd4 423d 0e2e 7ebd 2beb 493c
000000c0: 98a7 563d 62f4 be3b 142c 61bd 2e7b 91bb
000000d0: c891 07bd c75b 553d 6f9a 12bd 6d28 993b
000000e0: 432a 893c 3a0d 043b 9e85 28bd 0743 02bd
000000f0: 2bc1 343d c47a 74bd 57c8 38bd 829d 24bc
00000100: 1cf6 ac3d 23c0 393c f2af 473d 4c4f 81bd
00000110: 2801 ac3d 75a7 46bd cad9 89bd 07b1 473c
00000120: cb5f d83c 986e bebb 2c91 d5bc eb9b a4bd
00000130: 31e8 173c cb4a 4abd 987e 1cbb 5b05 773c
00000140: d078 b93d 3f51 dfbc 71d5 253d a4bb aebd
00000150: b3db d0bb 1823 2a3d 6842 c4bc 6ca1 b7bd
00000160: 47eb 943d 9037 0b3c 9c45 873d b687 453c
00000170: 130d f4bc f4f4 adbd bacf be3c eec8 053d
00000180: dfe0 cebc d6f6 1a3c 27b2 6dbd 5c4a c4bd
00000190: 2754 833b 8ac5 1f3d 6a5e 25bd bd50 d13c
000001a0: 1779 8fbd 0556 de3b 32a4 c2bc bc11 adbd
000001b0: cd4a 453d 4683 96bc 0a4f 85bd 9695 9e3d
000001c0: 3f7b 403d 349f a0bc 53e0 bf3b 3d22 9e3d
000001d0: e712 2fbd 66c6 76bd 5ae3 353d da2d 76bd
000001e0: 274d bbbc d770 e13b 5016 53bd de7b a5bd
000001f0: 3973 a7bd 48d8 1b3d f4f7 ad3c f0ac 5f3d
-0.011737282 0.027285976 0.027336 -0.043480817 -0.011027689 -0.010367609 -0.006743192 -0.0047343373
-0.0629652 -0.00036460345 0.030152284 -0.039046958 0.06019575 -0.044427678 -0.079301 0.07627677
-0.06646724 0.0074825645 -0.037953943 0.012437552 0.049128912 0.0018269329 -0.052138675 0.069587536
-0.08143384 0.048331775 -0.050220516 -0.033020925 0.013188142 0.005332577 0.066938914 -0.071709774
-0.0038267225 -0.06300923 0.0005233752 0.06568932 -0.065076895 -0.03299513 -0.024509668 -0.016675068
0.012926836 0.01718424 -0.055175237 0.0030793215 0.027389787 0.0475655 -0.06205564 0.012324135
0.052405924 0.0058274725 -0.054973677 -0.004439733 -0.033098012 0.05208948 -0.03579181 0.0046740086
0.016743785 0.0020149485 -0.041143052 -0.031802204 0.04412953 -0.05968739 -0.045112934 -0.010047318
0.08445379 0.011337313 0.04875178 -0.06313953 0.08398658 -0.048499543 -0.06730993 0.012188203
0.026412865 -0.0058115236 -0.0260702 -0.080375515 0.009271667 -0.049387734 -0.0023879167 0.01507696
0.09056246 -0.02726042 0.040486757 -0.08531883 -0.0063738464 0.041537374 -0.023957446 -0.08966336
0.07271438 0.008497134 0.06605074 0.012056282 -0.02979139 -0.08493987 0.023292411 0.032662325
-0.025253711 0.009458264 -0.058031227 -0.095844954 0.0040078345 0.039006747 -0.040373243 0.025551194
-0.07005518 0.0067851567 -0.023759935 -0.08450648 0.04816704 -0.018373143 -0.06509216 0.07743375
0.046992537 -0.019607164 0.005855599 0.07721374 -0.042742636 -0.0602478 0.044406272 -0.06010232
-0.022863938 0.0068799066 -0.05153495 -0.080802664 -0.08176274 0.03804806 0.021236397 0.054608285

fc3.weight f4 [100, 128]
00000000: cf4b 043d 1b13 6e3c de5b 72bd 9267 87bd
00000010: 12ae 613d 851b e2bc 9a39 793d e794 3fbd
00000020: ecb7 563d 3e5e 793d 7d40 debc 7ca3 68bc
00000030: 3700 dc3c f786 09bd d01b d3bb f280 d33c
00000040: 7fb5 3cbb d0b4 933d ddec 1bbd 584d 2b3c
00000050: 84f6 e4bc d354 373d 831a 793b dd0f abbd
00000060: 376f b5bd ad4f 8ebc 0753 543d 2d95 e8bc
00000070: 0f2e 303b 4f00 90bd 8413 88bb a075 453b
00000080: 0fcb 163d c918 233d c429 43bb a15c 913c
00000090: 6560 97bd cc3c 673d a36a 73bd a241 303d
000000a0: 6e66 993c 5f15 2cbd abe8 a6bd e88b c4bd
000000b0: 28c8 193d 3730 cbbc 4096 e6bb 4549 d1bc
000000c0: c112 933d 7049 743c 359f ad3c e55c 1fbc
000000d0: 1528 ca3c a16e acbd 3c8d 493d 2597 50bd
000000e0: f13c 3bbb a81d 34bd 4d4d 673d a487 9b3d
000000f0: 2e4a 94bd 13ed a5bd 0450 c53c 300f fdbc
00000100: 011b a7bd 2ce6 6ebd ac18 79bd c5f0 4abd
00000110: e2e3 da3b 9fc5 61bd 4728 92bd 9f77 6e3d
00000120: 9c7a a43d 7b46 d5bc ab5d 96bd 48a6 8f3d
00000130: a3cb a53d b231 a33d 5533 dc3b 41fc 33bd
00000140: 2213 8dbc 5e58 053d 64aa 9d3d 92e4 e3bc
00000150: d986 b5bb 1bdd 4f3d 5169 8dbc da7e e4bc
00000160: 2cb9 ed3b 76f1 77bd 74a5 193d 441f 9d3d
00000170: 7d8f 4f3d a84a 303d 4740 aebd 563d 043d
00000180: 5b11 43bc c1bc 4a3b dcfb 62ba ab69 5cbd
00000190: 5b68 81bd a8ab c63c f140 f3bc fe67 2dbd
000001a0: 1627 cbbc 19e4 7f3d 9382 8bbd 24ac ae3c
000001b0: 7bc3 523d a0e5 933c 07df 8a3c 84db 0dbd
000001c0: 43dd dabc cb85 54bd e14f 643d 6d09 653c
000001d0: dbc4 843c 7cee 893d 801b bbbd c2dd a63d
000001e0: c624 a4bd e5e8 1ebd 0b7e b03c 26db 04bd
000001f0: b201 363c 567c 0a3d 3ac6 c93c d2e6 a8bd
00000200: 1d81 22bd 0f8f 363d 6b07 2fbb 387e 1b3c
00000210: 2f19 a23d a0a8 6fbd 7eef 88bd 6c14 85bd
00000220: a856 1dbd 30a6 f83b 1e18 213d d964 663d
00000230: 95e5 6dbd 6381 aeba 7eec 6d3d aec7 8b3d
00000240: 7993 b0bc bd68 5cbd d7df 883d ebe8 993d
00000250: d073 a73c 7b75 a3bd 8667 be3d ae17 9a3d
00000260: 31d1 68bd 11d6 9cbd 685f adbd d062 be3b
00000270: e8cc 94bc 4d0d b33d 539d 463b 5654 793d
00000280: 771b 91bc 7238 763d 961c 2d3d 9f1b 1eb9
00000290: 4ab5 153d 76ce 7abc 0644 903d 06b2 98bd
000002a0: 0073 9abd 7ddd a63d 5efc 9abc ebf7 abbc
000002b0: 3cd4 3f3d b76b 233d c4d2 92bc 35f2 8fbd
000002c0: 092d 813c ff12 a23d d41f c4bc 1150 af3d
000002d0: 9705 4abb 7ec0 a33d d4dd c63c 994e 9e3d
000002e0: 6c53 923d 740f a33c daa3 36b9 7601 57bd
000002f0: 5a0d 8e3d 0872 283c 5c65 133d 41f7 563c
00000300: 3ed3 80bd 6a67 523d 071b 063d e363 b93d
00000310: 8860 e03c c484 d23c 82e0 763d 3bea 183d
00000320: 83a3 a63d 8711 9ebd 6c16 b93c 9fde 03bc
00000330: 2a0a 8d3c 5ba9 b9b9 455c 97bd 6974 293d
00000340: 9dea b6bc 5e81 9dbd 5c0f c1ba a3fa 39bd
00000350: 4cee 38bc 0d6c a7bd 8211 5abd f8af 21bc
00000360: c8d1 9dbd 4ccf e7bc b825 2ebc 42aa 9bbd
00000370: 25fb 2abd 56e3 693d c572 9c3c 9e37 80bd
00000380: 16a0 453d d06c f7bc 5cbd 3e3b 1571 ac3d
00000390: c082 b7bb 61c1 a73d bed7 8bbd 0dfc 9abd
000003a0: 050e 39bd 6f9b 4e3d 08a6 bc3d 471e 29bd
000003b0: 44ec 993d 2713 833d c8de 49bc aae3 ab3d
000003c0: b25a 303c 23b1 803d 6b76 91bd fa41 0bbd
000003d0: 0c3e eb3c 47ae ab3d 16e7 98bd abc5 1b3d
000003e0: 9a49 9ebd 1e67 233d 041d 8abd f314 9f3c
000003f0: 5286 273d 491f 873d a916 df3c 0bb1 943b
0.03229886 0.014530922 -0.059169643 -0.06611551 0.055097647 -0.027601013 0.06084595 -0.046772864
0.052421495 0.060880892 -0.02713036 -0.014199134 0.026855571 -0.033575978 -0.0064425245 0.025818322
-0.0028794704 0.072122216 -0.038067687 0.010455452 -0.027949579 0.04475863 0.0038010187 -0.08352635
-0.08859103 -0.017371977 0.051836994 -0.028391445 0.0026882922 -0.07031309 -0.004152717 0.0030129924
0.036814746 0.03981856 -0.0029779533 0.017744364 -0.07391433 0.056454465 -0.05942787 0.043031342
0.0187256 -0.04201257 -0.08149847 -0.095969975 0.0375444 -0.024803264 -0.007036954 -0.025547633
0.071813114 0.014910087 0.02119408 -0.009726738 0.024677316 -0.08419538 0.049206957 -0.050925393
-0.002857026 -0.043973595 0.056470204 0.07594231 -0.07240711 -0.08101859 0.024086006 -0.030891031
-0.081594475 -0.058324978 -0.060814545 -0.049546022 0.006679998 -0.055120107 -0.071365885 0.05821955
0.080311984 -0.026034584 -0.073420845 0.070141375 0.08095481 0.07968463 0.0067199864 -0.04394174
-0.017221037 0.032554977 0.07698515 -0.027818952 -0.0055397567 0.050747972 -0.017262133 -0.027892519
0.00725474 -0.06053301 0.037511304 0.07671979 0.05067395 0.043039948 -0.08508354 0.032285057
-0.011905993 0.003093526 -0.0008658746 -0.05381171 -0.06318732 0.024251774 -0.029694052 -0.042335503
-0.024798911 0.06247339 -0.068120144 0.021322317 0.051455956 0.01805383 0.01695205 -0.034633175
-0.026716834 -0.051885407 0.05574024 0.013979298 0.01620715 0.067349404 -0.091361046 0.08147766
-0.080148265 -0.038796324 0.021544477 -0.03243556 0.011108803 0.033809982 0.024630655 -0.082471505
-0.039673913 0.044570025 -0.0026707302 0.009490542 0.0791496 -0.058510423 -0.066863045 -0.06498036
-0.03841272 0.0075881705 0.03932964 0.05624852 -0.058080275 -0.0013313707 0.058086865 0.06825195
-0.021554695 -0.053810824 0.06683319 0.07515129 0.020440966 -0.07981392 0.09297089 0.07524048
-0.056840125 -0.076580174 -0.08465463 0.005810119 -0.018164113 0.08742771 0.0030306175 0.060871445
-0.017713292 0.060112424 0.04226359 -0.00015078344 0.036549844 -0.015308013 0.070442244 -0.0745583
-0.07541466 0.08147714 -0.018919166 -0.02099224 0.04683326 0.039897647 -0.017922767 -0.07028619
0.015768545 0.079137795 -0.023940958 0.08560193 -0.0030826086 0.07995699 0.024275698 0.07729835
0.07144818 0.01990483 -0.00017417912 -0.052491628 0.0693614 0.010281093 0.035985336 0.013120473
-0.06290291 0.051368155 0.03274062 0.09052255 0.02738978 0.025698073 0.0602727 0.037332755
0.08136656 -0.07718187 0.0225937 -0.0080486825 0.01721676 -0.0003541213 -0.07390646 0.041370783
-0.02232867 -0.076906905 -0.0014729309 -0.04540504 -0.011287283 -0.08174906 -0.053239353 -0.009868614
-0.07706028 -0.028297089 -0.01062911 -0.076008335 -0.041743416 0.05710157 0.019097695 -0.06260608
0.048248373 -0.030203253 0.0029104566 0.08420006 -0.0056003034 0.08191181 -0.06828259 -0.07567606
-0.045179386 0.0504412 0.092113554 -0.04128864 0.07515767 0.064001374 -0.012321182 0.08393033
0.010763811 0.06283786 -0.071026646 -0.033998467 0.02871611 0.0838285 -0.07465951 0.038030308
-0.07728882 0.039893262 -0.067438155 0.019419169 0.040899582 0.06597764 0.027232485 0.0045377067

fc3.bias f4 [100]
00000000: 6488 1e3d 10b7 32bd 01e4 e93b fb87 9b3d
00000010: 74fe a13d 11ce 333c 969e daba bb79 8abc
00000020: 7461 81bd fcfe 8c3d 78b8 e03b 594c 7fbd
00000030: 5607 e1ba f0fd ba3a 90aa 48bc 6f41 733d
00000040: c91c 993d a9db ca3c 8295 283b f8d2 b03c
00000050: d0de 2cbd 7206 e73b c588 d73b 9ab9 473c
00000060: 9b67 7fbd 922d 2cbd 3019 88bd faac 7bbd
00000070: a971 21bd aa85 cf3c d722 57bd 7b9a b03c
00000080: 15be 52bc 7f1e 48bd a01e 6cbb 32b2 343d
00000090: 8e05 6c3d e09b a6bb f4e5 3d3d a8a8 633c
000000a0: db53 abbc 1078 263d eec2 e8bc 12fe 353d
000000b0: f0c0 a8bd 2e7c 47bd 85ae 27bd 7557 f43b
000000c0: 8c5f 9b3d bfaf 103d 8a0d a7bc dc4f f4bc
000000d0: b5ba abbd 1f3e 373d ea12 1b3d e877 41bd
000000e0: 33fc 9bbc fb18 0ebd 55c9 02bd 54b3 c9bc
000000f0: 03e4 92bd 6039 a23c 1150 883a a816 0c3d
00000100: 7305 61bc 6bf2 73bd 8886 123d 9e93 02bd
00000110: 7577 bcbc 846c 18bd f2cb 603d 86b4 3d3d
00000120: 2582 823d 94ff 1bbd 943e a6bd ba07 8fb9
00000130: e745 a4bc 792b bc3c afe2 2cbd 9095 ebbb
00000140: 2cb2 1a3c 623b 3ebd dafa af3b 3d98 6fbd
00000150: 7ca8 083d fb52 67bd 90c9 07bd 9b01 963d
00000160: 7cad fa3c 98f6 39bc 6878 8ebd 4cc3 683c
00000170: 1932 9d3d d699 433d 3b27 993c 7768 583d
00000180: dfb0 73bd e602 26bb baa3 10bb 518a 52bc
0.03870429 -0.043631613 0.007137776 0.075942956 0.07909861 0.010974423 -0.0016679342 -0.016903749
-0.06317416 0.06884572 0.006857928 -0.06232867 -0.0017168324 0.0014266353 -0.0122476965 0.059388574
0.074761935 0.024762945 0.002572388 0.021584973 -0.042204678 0.007050329 0.0065775835 0.012190247
-0.062354665 -0.042035647 -0.06645429 -0.06144426 -0.039415035 0.02533229 -0.05252346 0.021558037
-0.012862702 -0.04885721 -0.0036028996 0.044115253 0.057622485 -0.0050844997 0.04636188 0.013895191
-0.020914009 0.040641844 -0.028413262 0.044431753 -0.08239925 -0.04870241 -0.04093792 0.0074567148
0.075865835 0.035323855 -0.020392198 -0.029823236 -0.08385221 0.044736978 0.037859835 -0.047233492
-0.019041156 -0.034691792 -0.031930286 -0.024621643 -0.07172396 0.01980275 0.0010399838 0.034201294
-0.013734209 -0.05955736 0.03577283 -0.03187906 -0.02300618 -0.037212864 0.054881997 0.04631474
0.06372479 -0.038085535 -0.081174046 -0.00027280842 -0.020052863 0.022969948 -0.04220837 -0.00718946
0.009441894 -0.04644335 0.00537048 -0.058494795 0.033363804 -0.05647562 -0.03315121 0.07324525
0.030600302 -0.011350296 -0.069565594 0.014206719 0.07675571 0.04775413 0.018695464 0.052834
-0.05949485 -0.0025331317 -0.0022070245 -0.01285036
