ml_engine/DQN_label_field/checkpoint.pth (torch, 92203 bytes, 10 tensors)

ip_bn.weight f4 [9]
000000 c2 e4 68 3f 1c ed 95 3f 2b b2 58 3f e8 0e 97 3f
       0.90974057 1.1712985 0.8464686 1.1801424
000010 e5 91 7a 3f f8 fa 93 3f a5 b3 9a 3f cd 26 a8 3f
       0.9787887 1.1560965 1.2086073 1.3136841
000020 2e 4d 2e 3f
       0.68086517

ip_bn.bias f4 [9]
000000 cb 51 37 be e3 42 0c bd 90 cc f3 bd 67 72 f6 bc
       -0.17902295 -0.034243476 -0.119042516 -0.030083848
000010 75 b1 dd bd 77 63 f9 3b a9 b6 bf bd 27 b3 a5 3c
       -0.10824863 0.007610734 -0.093610115 0.020227028
000020 1e 8a 00 be
       -0.12552688

ip_bn.running_mean f4 [9]
000000 b8 d2 e5 3e 59 88 da 3e 77 6b e4 3e d9 b6 b9 3e
       0.44887328 0.4268215 0.4461324 0.36272314
000010 d9 1d ef 3e 26 0a 0b 3f 86 48 bb 3e 58 a3 8d 3e
       0.4670246 0.5431236 0.36578768 0.27663684
000020 6b e5 9f 3e
       0.3122972

ip_bn.running_var f4 [9]
000000 bd 1f 7f 3d f6 d1 7e 3d bf 91 70 3d 44 a6 3c 3d
       0.062286127 0.062211953 0.058732744 0.046057
000010 42 a5 98 3d 0e b4 ab 3d 95 a5 01 3e f6 c2 aa 3d
       0.074533954 0.08383952 0.12660821 0.08337967
000020 a3 39 cb 3d
       0.09923103

fc1.weight f4 [128, 9]
000000 de 87 0c 3e 3d 15 34 3e df f6 31 3e 35 22 7e 3e
       0.13723704 0.17586227 0.1737933 0.24817736
000010 ee 56 9b 3e f5 89 33 3e 95 da 7d bd 62 87 a2 be
       0.3033976 0.17533095 -0.061976034 -0.31743914
000020 46 9e 36 3d 01 50 93 be 73 5a 69 3d 5b 1d a3 bc
       0.044584535 -0.28771976 0.056971025 -0.019911459
000030 be 70 6a be 7c 09 fb 3e 83 03 90 3e 23 f9 94 3e
       -0.2289457 0.49030674 0.2812768 0.29096326
000040 e4 c8 32 be 41 9e 9d be 91 6e 2f be d5 8a f7 3e
       -0.17459446 -0.307848 -0.17132021 0.48348108
000050 3c a7 b5 be f8 56 9d 3c 6a fd c1 3c fa a8 84 3e
       -0.35479152 0.019206509 0.023680408 0.2591017
000060 6e 51 ed bb 15 50 ae 3d cc 4d b4 39 33 32 35 be
       -0.007242373 0.08511368 0.0003439024 -0.1769493
000070 c5 41 8c bd 8d dd 2a be 7c b2 cf be cf 09 0b be
       -0.06848482 -0.16686077 -0.4056586 -0.1357796
000080 fe f0 73 3e 65 3e 94 3e a1 fe 4f bd 6d 7b 10 be
       0.238224 0.28953853 -0.050779942 -0.14109583
000090 3f 41 9a 3e bf 9f 47 be 17 ce 5a 3d f8 e0 57 be
       0.30127904 -0.19494532 0.0534192 -0.21081913
0000a0 cf a7 79 bd c8 e3 84 be 0b d5 a6 3c 95 7e 1e 3e
       -0.06095105 -0.25955033 0.020365259 0.15477975
0000b0 6b db c2 3d 68 67 38 3e 56 76 18 3d ef 37 b0 bb
       0.09514507 0.18008196 0.03722223 -0.0053777616
0000c0 34 24 48 3d 8e 21 6e be 08 40 12 be db 6e c7 be
       0.04886265 -0.23254988 -0.14282238 -0.38951764
0000d0 6a b0 10 3f 3d ae 1d 3e 35 ce 47 be 17 77 2c 3e
       0.56519186 0.15398498 -0.19512255 0.16842304
0000e0 1a db fc bd 05 1b 94 3e a9 fb 86 3d 2a 1e 84 3e
       -0.12346478 0.28926864 0.06590969 0.25804263
0000f0 c6 73 ec 3d aa 49 b0 be 67 21 1f 3d d3 f1 cc 3e
       0.115455195 -0.344312 0.038850214 0.40028247
000100 e5 47 60 3e 17 8d f2 3d e5 84 c5 3d 82 16 b9 be
       0.21902426 0.11843317 0.09644488 -0.36149985
000110 fa 56 33 be c7 f6 07 3e 3d e0 c1 be 9d 20 90 3e
       -0.17513648 0.13277732 -0.37866393 0.28149882
000120 75 a3 83 be 34 4e 84 3d 6a 40 16 bc e7 ce 93 3d
       -0.25710645 0.064602286 -0.009170631 0.07217198
000130 32 05 32 3e 91 e0 83 be f2 92 09 3f ed b3 09 bf
       0.17384794 -0.25757268 0.53739846 -0.5379017
000140 92 d1 bd 3e 6f 58 d4 3c 3b 60 9a be b0 3d 44 3d
       0.37073952 0.025921075 -0.30151543 0.047910392
000150 d5 2a 11 3d 17 46 7e 3e 36 94 e7 3e a9 b4 f2 3e
       0.03544124 0.24831425 0.45230263 0.47403458
000160 fc 03 0c bf 37 68 53 be 82 f4 05 3e 1e 67 35 be
       -0.5469358 -0.20645224 0.13081554 -0.17715117
000170 04 42 dc 3e 13 44 7c bd ff b9 90 3e 24 42 84 3e
       0.43019116 -0.061588358 0.28266904 0.2583171
000180 47 4e 82 be 5d 8b 91 be 4c bb 5e be 15 82 a0 3c
       -0.25450346 -0.28426638 -0.21751136 0.019593278
000190 b3 4f a9 3d 93 97 68 3e 89 37 dd be f9 e8 be 3d
       0.082671545 0.22714071 -0.43206432 0.0932178
0001a0 fe 9c 3a 3e b2 50 b7 bd 2e 41 82 3c 3a c0 f4 3d
       0.1822395 -0.08950938 0.01590022 0.11950727
0001b0 ec fe 56 be 91 20 08 3e 78 36 ce 3e d8 a7 cc be
       -0.20995682 0.13293673 0.4027593 -0.39971805
0001c0 d3 68 1e be df 5d 50 3e d2 53 36 be 89 b2 8f bd
       -0.15469675 0.20348309 -0.17805412 -0.07016475
0001d0 a1 52 a2 3b 43 1e 16 3e 01 2f 39 3d 80 f4 45 3c
       0.004953698 0.14659981 0.045210842 0.012082219
0001e0 8c 41 c5 3e 75 8f 43 3e ac e1 ab be 10 b0 a3 3e
       0.3852657 0.19097693 -0.3357061 0.31970263
0001f0 3c 3d 90 3e 29 07 49 be 6e dc 40 be c0 38 97 3e
       0.28171718 -0.19631638 -0.18834087 0.29535484
000200 0b 26 ac be e2 f3 e5 be 32 78 22 be 7e 7f 88 3e
       -0.33622774 -0.4491263 -0.15866163 0.2665977
000210 d0 6b ff 3e 6b 7c 45 bf b5 61 31 3e b9 2d 93 3e
       0.49886942 -0.7714297 0.17322429 0.2874582
000220 1a 59 c1 3d 8e df 1d be dd 73 e5 3e 1b 46 02 be
       0.09440823 -0.1541731 0.4481496 -0.12722056
000230 bc e9 e0 be 4d ce 73 be 99 7e 28 3e 07 1e c3 3d
       -0.43928325 -0.23809166 0.16454543 0.09527212
000240 7c ac 13 bd ca 30 0c 3e 5b 27 a1 be c2 1f e4 3e
       -0.036053166 0.13690487 -0.31475338 0.4455548
000250 d3 cb cb 3e 8a 08 99 be cf 8b b8 3d 46 14 73 be
       0.39803943 -0.29889327 0.090110414 -0.23738202
000260 96 51 bd be 55 bf 1d 3e 44 18 fa bc 64 c5 64 bd
       -0.36976308 0.15405019 -0.030529149 -0.05585231
000270 cd f8 b2 be 62 cb 0c 3d a8 be c5 3e 5e 97 43 3d
       -0.34955445 0.03437365 0.38622022 0.047751777
000280 18 dd cb be ea aa 1d 3e fa 08 7a 3d 26 d6 a6 be
       -0.3981712 0.1539723 0.061043717 -0.32585257
000290 f7 0c d0 3c f2 ac 20 3e a4 46 d3 bd 46 9e 51 3e
       0.025396807 0.15690973 -0.10316208 0.20470533
0002a0 f8 8f 2f 3e 07 ab 44 bf 43 0a 8c be 0e 5c 0d 3e
       0.17144763 -0.76823467 -0.2735158 0.13804647
0002b0 71 1d 89 3e 8f 5e a5 3d d0 34 95 be ec 1b 90 bd
       0.26780275 0.08074676 -0.29141855 -0.07036576
0002c0 c1 b6 b1 be 59 96 47 be 42 d3 a1 3e cf ec 0b 3e
       -0.34709743 -0.19490947 0.3160649 0.13664554
0002d0 9f ea b5 bd 17 ea c2 bd 03 77 78 3e 0a cd 06 3e
       -0.08882641 -0.09517305 0.2426415 0.13164154
0002e0 84 41 ba be c8 b3 63 be 10 f7 8b be bb 67 82 3e
       -0.3637811 -0.2223655 -0.2733693 0.25469765
0002f0 a2 5b ae 3e 1c bb 6a 3e af 1c 29 3c 92 e1 6f be
       0.34054285 0.22922939 0.01032178 -0.23425892
000300 4c 75 b9 3e ea f8 9f 3d c2 33 5b be f4 c1 7c be
       0.36222303 0.078111485 -0.21406463 -0.24683362
000310 29 48 f7 3d 3d 7c 13 be da fd df 3d be d2 8a 3e
       0.1207431 -0.14402862 0.1093709 0.2711391
000320 01 8b 91 be 5f 21 e3 be 1f c7 58 be ad a7 6f be
       -0.28426364 -0.44361398 -0.21169709 -0.23403807
000330 db 8f 56 be 8d 4c 82 3e 95 5b d7 3d a7 9e 32 3d
       -0.20953314 0.2544903 0.10515515 0.043608334
000340 50 f1 3c 3e 6e 1f 98 bc 8f 91 cd be 04 ee 32 3e
       0.18451428 -0.018569674 -0.40150115 0.17473608
000350 64 65 e0 3e c2 17 2a 3d e2 49 c9 be 61 2f 19 3e
       0.43827355 0.041526563 -0.3931418 0.1495948
000360 30 9c 20 3e 40 2d 0e be 30 44 7b 3e cb 5a ce 3e
       0.15684581 -0.13884449 0.2453773 0.40303645
000370 70 50 42 be e8 44 e6 be 04 83 1c 3d f3 56 52 3e
       -0.18975997 -0.44974446 0.038210884 0.20540981
000380 5b 36 05 be a9 76 2a be d1 4f 20 be 4a ee 8b 3e
       -0.13009016 -0.16646828 -0.15655448 0.27330238
000390 00 f2 1c 3e d8 54 3e be 11 99 35 3a c0 b9 55 3d
       0.1532669 -0.18587053 0.0006927411 0.052179098
0003a0 07 a5 8c 3d 8c fa 10 bd 75 ab 99 bd e4 fa a0 3d
       0.06867414 -0.03539519 -0.07503406 0.078603536
0003b0 81 b3 19 bd a1 a8 41 be 13 16 18 be c1 d9 9c bc
       -0.037524704 -0.18911983 -0.1485217 -0.019146802
0003c0 1a 09 95 be 6b 91 b8 3e 07 78 5b be 53 77 6b be
       -0.29108506 0.36048445 -0.21432506 -0.22994737
0003d0 25 04 9a 3e 76 ab 90 3e 38 5c 87 3e aa 55 4e 3e
       0.30081287 0.28255814 0.26437545 0.20149866
0003e0 38 32 ff bd e9 4b 12 be 42 25 bc be fe 44 2a bd
       -0.1246075 -0.1428677 -0.36747175 -0.041569702
0003f0 26 e8 28 3e 6d ab a5 be aa 8a b9 bd 8d 9a 06 3e
       0.16494808 -0.3235735 -0.09059651 0.13144894

fc1.bias f4 [128]
000000 32 4a fb be 77 9e 0f be ea 2b fe be cd d6 5c be
       -0.49080044 -0.14025293 -0.4964288 -0.21566315
000010 10 0a 79 3e bd 72 a5 3e c1 c7 1b bf cd f0 ae 3e
       0.24320245 0.323141 -0.60851675 0.3416809
000020 dc ac c9 3b 8c 6f f1 ba 59 32 fb 3d ea 00 32 bc
       0.0061546396 -0.0018420084 0.122654624 -0.010864476
000030 8c fb 73 be e7 e8 fb be f1 7b 86 be 8c 98 a2 3e
       -0.23826426 -0.49201128 -0.26266435 0.3175701
000040 5d ac b6 bd b6 eb 28 3e 40 9e d9 be 84 8f a1 3e
       -0.089195944 0.16496167 -0.42503548 0.31554806
000050 16 10 c3 3e a0 fd 45 3e 67 c8 aa be 71 c7 3b 3e
       0.3809821 0.19335032 -0.3335602 0.183378
000060 78 31 4d 3e de 21 7c be 12 02 cf be 55 a6 74 3e
       0.20038402 -0.24622294 -0.40431267 0.23891576
000070 51 0b 20 3e 73 9f c1 be 5e 64 98 3d 47 bd c0 3e
       0.15629317 -0.37816963 0.074410185 0.37644407
000080 b7 c8 a4 3e 8c 7e b6 3c a9 35 c0 3e 98 5d 2b bf
       0.32184383 0.02227714 0.3754094 -0.6693969
000090 de 48 db be d6 1e ba 3d 9d 39 13 bd 0a 90 2d 3e
       -0.4282903 0.09087913 -0.035943616 0.16949478
0000a0 74 a8 1b 3d f1 b3 c9 3c cd ab 08 bc e5 b4 03 bf
       0.038002446 0.024621936 -0.008341742 -0.514479
0000b0 8a d5 ba 3d 9b e4 a1 3d 01 ef a7 be af 3a 8e 3e
       0.091227606 0.07904931 -0.32799533 0.27779147
0000c0 fd 9c 42 be f0 54 f2 3e a3 c2 2b be f4 a3 ef 3e
       -0.19005199 0.47330427 -0.16773467 0.46804774
0000d0 9a 79 16 be 3c 60 0f bf 84 5b 64 3d d1 48 45 3e
       -0.14694825 -0.56006217 0.05575134 0.19266059
0000e0 c5 c7 4f 3e 05 be 10 3e 88 42 98 be 84 98 3c be
       0.2029105 0.14134987 -0.2973826 -0.18417555
0000f0 dc 88 39 3d 35 cc 6d be d4 1e 38 be 9a 52 94 3e
       0.045296535 -0.2322243 -0.1798051 0.2896927
000100 60 da 19 bf 0b 7f 12 bd 3f de 68 3e 96 20 97 be
       -0.6009884 -0.03576569 0.2274103 -0.2951705
000110 3e 4e 2c bf ec 42 98 be 2d d6 e4 3e 14 18 bc be
       -0.6730689 -0.29738557 0.44694653 -0.3673712
000120 5e 16 93 3c 12 20 01 3e 91 80 ab 3c e8 42 18 be
       0.017955001 0.1260989 0.020935329 -0.14869273
000130 c6 d6 2c bf c1 61 f2 be 8d 2b 95 be c9 a1 06 3e
       -0.6751522 -0.47340205 -0.2913479 0.13147654
000140 71 16 ba be 47 85 16 3e 58 f2 a4 be 6e 6a 3b 3d
       -0.36345246 0.14699279 -0.32216144 0.045755796
000150 a1 1b 09 3e 37 11 5c 3e d0 df 8e be 30 dc 10 be
       0.13389446 0.21490942 -0.2790513 -0.14146495
000160 f3 61 7c 3d 45 83 84 be 2e 09 16 3e 58 06 8c 3e
       0.06161685 -0.258814 0.1465194 0.2734859
000170 52 e6 22 3d 47 95 c9 be 1d e6 96 3e ca 3b 39 bd
       0.03977043 -0.39371702 0.29472438 -0.045223035
000180 ab f0 a7 be a0 8c ac 3e f7 14 8f 3d ee 45 d5 bd
       -0.32800803 0.33701038 0.069864206 -0.10413729
000190 76 09 b3 be 72 d7 10 3e 21 2a c1 3e a6 02 ea be
       -0.34968156 0.14144686 0.37727454 -0.45705146
0001a0 2d 63 9e 3d ef ca 9c 3e 94 7a 9d bc 99 84 c2 bd
       0.0773376 0.30623576 -0.019223489 -0.09497947
0001b0 df 75 28 bf a4 b0 0b bf ae d8 a5 bd b5 bb 70 be
       -0.65804857 -0.5456641 -0.08097969 -0.23509105
0001c0 61 fc 65 be a5 3f 4e bd 76 e9 f7 be 08 48 38 3e
       -0.22459556 -0.050353665 -0.48420304 0.17996228
0001d0 e1 fc 33 be be 72 01 bf 9c af 92 be fd df 0a be
       -0.17576934 -0.5056571 -0.28649604 -0.13562007
0001e0 84 16 bd bd 74 e3 d7 3d a8 70 d6 3d f2 c4 98 be
       -0.0923281 0.1054143 0.10470706 -0.29837757
0001f0 c8 28 9f be 1b 91 00 bd 98 47 29 3e 06 db 8c be
       -0.310858 -0.031388383 0.16531217 -0.27510852

fc2.weight f4 [128, 128]
000000 e7 5e 85 3d c3 86 89 3d c6 63 fb bc db 28 65 bd
       0.06512242 0.06715157 -0.030687224 -0.055947166
000010 0d f4 44 3d 20 e6 8f bd 80 47 ab bb 27 92 9f bd
       0.048084307 -0.07026315 -0.0052270293 -0.07791548
000020 cb 78 82 3d 55 35 dd 3c 13 15 89 bd d6 c1 bd bc
       0.06370696 0.02700297 -0.06693473 -0.023163717
000030 da f6 6a 3d 88 2b a0 3c 05 ee 65 3d 61 fa 87 bd
       0.057364322 0.019552007 0.056135196 -0.06639553
000040 fd 61 fe 3b be 88 81 bd 00 ba 0f bd ec eb ce 3c
       0.007763146 -0.063249096 -0.035089493 0.02525898
000050 64 46 95 bd dc d4 d8 bc ca 6a 09 3d e9 c1 84 bd
       -0.072888166 -0.026468687 0.033549108 -0.06482298
000060 98 15 2b bd d9 9a 70 3d d9 67 89 3d 0c b5 a5 bd
       -0.04176864 0.058741424 0.067092605 -0.080911726
000070 f5 c9 74 3d 1b 74 7e bd a1 d8 e4 bb 7b 88 73 bd
       0.059762914 -0.062122446 -0.006983832 -0.05945633
000080 d2 0a b6 bd 9d f2 d5 bd 0e e2 22 bc 00 1b 09 bb
       -0.088887826 -0.104466654 -0.009941591 -0.0020920634
000090 70 07 95 3b 96 9d 0c 3c e9 d0 8e 3c 09 9c 7b 3c
       0.0045480058 0.008582493 0.0174336 0.015357026
0000a0 4f 63 b6 bd 89 99 56 3d 7a 80 df bd 82 c2 7c 3d
       -0.0890566 0.052392516 -0.10913177 0.061708935
0000b0 c0 07 85 bd 35 0e b7 bd 93 f7 59 3d a0 1f 3c 3c
       -0.06495619 -0.08938257 0.05321462 0.011482149
0000c0 d7 62 bf bd a3 e3 e7 bb 29 1f 1e 3c ea 22 0f 3c
       -0.09345024 -0.007076697 0.009650984 0.0087363515
0000d0 b0 d2 33 3d e0 02 1e 3c 8b b2 6e 3d 3f 54 8c bd
       0.0439021 0.00964424 0.05827574 -0.06852006
0000e0 b8 90 65 3d bf e2 a4 bd 00 f9 86 bb 3a f6 27 3d
       0.056046218 -0.08051061 -0.0041190386 0.041006304
0000f0 ce 8e 99 3d e0 06 96 bc 26 0b 40 bc c7 d4 67 bd
       0.07497941 -0.018313825 -0.011721408 -0.056599405
000100 20 34 fc 3b cf 27 ca bd df a8 68 bb 3a ed cb bd
       0.0076966435 -0.09870874 -0.0035501046 -0.09957357
000110 b8 17 42 bd dc 49 f6 bc 21 69 93 bb b8 52 a8 bd
       -0.0473859 -0.030064516 -0.0044986163 -0.08218902
000120 f2 b7 be 3c ab cc 15 bd 05 b6 e3 bd df e1 a3 3d
       0.023281071 -0.03657214 -0.11118702 0.08002066
000130 ba cf 78 3d 4d c1 8f bd ee a3 4d bd 15 bb 17 bd
       0.06074498 -0.07019291 -0.050205164 -0.03704365
000140 54 c3 b4 bc 2c 4c e2 3b c4 d8 a1 bc 40 a5 9d 3d
       -0.022065796 0.006906053 -0.019756682 0.076975346
000150 eb 9b b2 3d 21 11 a7 bc 90 75 e1 3b be c7 e2 bc
       0.08721145 -0.02039391 0.0068804696 -0.027683135
000160 c2 82 a4 bc f2 b7 07 bc aa 85 51 bd 46 44 92 3d
       -0.020081881 -0.008283602 -0.051152863 0.071419284
000170 27 e1 ca bc e4 2b fc bc 0b 6b 9e bd 47 cd 35 bd
       -0.024765564 -0.030782647 -0.077352606 -0.04438522
000180 ac 14 77 3d f3 00 b5 bd 31 a3 51 bd 4d d2 b5 bd
       0.06032245 -0.08838072 -0.051181022 -0.08878002
000190 62 0d 8c 3d 6b 87 92 3d a7 96 91 3d 40 fc 00 bc
       0.0683849 0.07154735 0.07108813 -0.007872641
0001a0 0c 12 3f bd c6 79 99 ba 6d 91 ad bc 32 51 b9 bd
       -0.04664807 -0.0011709265 -0.021187508 -0.0904869
0001b0 e8 7d 89 bd db a5 8f bd 85 05 04 3d f9 1e 89 3b
       -0.06713468 -0.07014056 0.032231826 0.0041846004
0001c0 04 e3 4a 3b 9e 85 47 bc 4a 18 1a 3d d4 b6 98 3d
       0.0030958066 -0.012177853 0.03762082 0.07456747
0001d0 10 1c 37 3d 61 ca 6b bd 64 54 9a bc 86 0e 9b bd
       0.044704497 -0.05756605 -0.018839069 -0.075711295
0001e0 1e 35 96 bd f1 94 8e 3d 00 01 ca bd 67 ef 8f 3c
       -0.0733435 0.06962002 -0.09863472 0.01757021
0001f0 44 a1 b6 3c 8b 62 2b 3d 2e 6c 8d bb de bb b6 bd
       0.022293694 0.041842025 -0.0043158745 -0.089225516
000200 13 59 18 bd e2 96 a8 3d fd 97 d9 be 15 0d 2b be
       -0.037194323 0.082319036 -0.4249877 -0.16704209
000210 76 75 97 bd 80 bf a7 bd 33 7a 98 be 1a 59 08 3e
       -0.07395451 -0.081908226 -0.2978073 0.1331524
000220 78 b4 84 be f4 aa 26 3e 75 86 28 3e cf 34 6b 3b
       -0.25918937 0.16276151 0.16457541 0.003588963
000230 42 d7 8e be ee f6 1c be db cf 05 bf 63 cf 1e 3e
       -0.27898604 -0.15328571 -0.5227029 0.15508799
000240 f2 1e 04 3c 14 5a 9f 3d 85 6f 97 3e 29 0d b6 be
       0.008064019 0.07780853 0.2957727 -0.35556915
000250 13 3e d1 be 00 fa 10 bd e8 01 bf bd 20 d1 40 be
       -0.4086767 -0.03539467 -0.093265355 -0.18829775
000260 61 5a f4 3e 9d d6 4f bd f6 07 dc be ce 77 30 3c
       0.47725204 -0.05074178 -0.42974824 0.010770751
000270 4f c4 05 be 58 d9 de be ad be 94 bd 1b d0 07 3d
       -0.13063167 -0.43525195 -0.07262931 0.03315745
000280 39 5c 86 bd b1 85 73 bf c5 31 87 3c 59 5f 68 3c
       -0.06560559 -0.9512587 0.016503224 0.014182889
000290 8b d5 2b 3e 93 18 9c 3e ee 25 49 bb 2e 5b 5a bd
       0.16780679 0.304875 -0.0030692774 -0.053309612
0002a0 5b 8b 5d 3e 1a b4 5a be de d0 b6 bd 2a e4 5a 3d
       0.21635191 -0.21357766 -0.08926557 0.05344025
0002b0 ca 4b 2f bd f8 59 13 3e 79 41 f7 3c 1b a5 c1 3a
       -0.042796887 0.14389789 0.030182587 0.0014773937
0002c0 98 92 d5 3c f7 42 39 bc 1b 03 df be 7f 73 e4 3d
       0.026070878 -0.01130747 -0.43557057 0.11154842
0002d0 bf 23 5c be 70 23 38 be 43 39 b7 bd da 08 76 3d
       -0.21498011 -0.17982268 -0.08946469 0.060067035
0002e0 15 09 38 bd 03 70 60 be be 78 21 be fb ad 90 ba
       -0.044930536 -0.21917729 -0.15768716 -0.0011038178
0002f0 10 ea b4 be 22 05 4c bf 2b 51 e5 bc 2e 51 0b bd
       -0.35334826 -0.7969533 -0.027992805 -0.034012966
000300 ef 37 0b bf cd b7 95 bd cf 3e d5 bc c4 04 09 be
       -0.5438222 -0.07310448 -0.026030926 -0.13380724
000310 0f 94 44 be ad 3e 42 bf a8 ce ad 3d d8 8d 73 3b
       -0.19197105 -0.75876886 0.08486682 0.0037163403
000320 6b 15 87 3d 48 1c 37 bd d2 38 55 3e 54 a4 f6 3e
       0.06595882 -0.044704705 0.20822456 0.48172247
000330 93 0e 8b 3d 41 86 16 bd 99 0a c5 bd 50 9d 87 be
       0.06789889 -0.03674913 -0.09621162 -0.26487207
000340 04 e1 12 bb 71 99 76 be 5a c1 cf bd f5 c3 81 3d
       -0.0022411952 -0.24081971 -0.10144301 0.06336204
000350 b6 dc f0 3b e4 82 a9 bc a6 b0 38 3d 45 6a 88 3c
       0.0073505295 -0.020692296 0.04509034 0.016652236
000360 06 50 fa bd 10 27 2b 3e 72 17 a0 be 0b 22 29 be
       -0.122222945 0.1671412 -0.31267887 -0.16516893
000370 ef 5f 50 3d c4 8b b3 3d 87 e3 11 be 69 ed fb bd
       0.05087274 0.087668926 -0.14246951 -0.12301142
000380 6f 76 c9 bd 9b fe ef 3c b7 c3 12 be 05 00 3c be
       -0.098370425 0.02929621 -0.14332472 -0.18359382
000390 f4 41 15 be df 72 9e bd 57 87 bc bb f0 26 f4 bd
       -0.1457594 -0.07736754 -0.0057534385 -0.11921489
0003a0 64 a2 c4 bd 30 60 39 3d 89 28 05 be e5 00 06 be
       -0.09601286 0.045257747 -0.13003744 -0.13086279
0003b0 14 09 ab bd b2 8a d0 be 4a 3c e7 bd 1e ef 56 be
       -0.08351341 -0.40730816 -0.11290796 -0.20989653
0003c0 b9 0b 3c be de 55 70 3d 82 d2 e8 bd 2d 26 12 3e
       -0.18363847 0.05867564 -0.11368276 0.14272375
0003d0 ca 4f f4 bd b0 65 b2 bd 13 df 8f be 7c 92 89 be
       -0.11929281 -0.087108016 -0.2809988 -0.2686957
0003e0 14 27 1c bd 7d a5 67 3d 23 fe 30 bd 1f a0 82 3d
       -0.038123205 0.056554306 -0.043211114 0.06378197
0003f0 bb 28 4f be 8c 37 5f bb 44 49 a9 3d c1 5d 9a 3e
       -0.20230381 -0.0034060208 0.082659274 0.30149654

fc2.bias f4 [128]
000000 82 69 6b bc 04 0d 0a 3d 13 59 7b 3d 72 69 89 3d
       -0.014368417 0.03370382 0.061364245 0.06709565
000010 16 db a2 bd b7 30 6a 3d 35 a8 10 3e 5b 61 19 3e
       -0.079519436 0.057175364 0.14126666 0.14978544
000020 1a 04 5b 3d f2 3f 36 3d 62 c0 4a bd 80 92 47 be
       0.05347071 0.044494577 -0.049499877 -0.19489479
000030 2d 37 7d 3e 63 de 2f bd 17 19 15 3c 15 f5 aa bd
       0.24728079 -0.042936694 0.00910022 -0.08347527
000040 dc 54 13 3e c0 c5 9f bb fc 7b 88 3e 33 6e 0e 3e
       0.1438784 -0.0048758686 0.26657093 0.13909225
000050 2b d5 b5 bd 46 8d 90 bc b2 d5 bd 3c e5 a8 88 3d
       -0.08878549 -0.01764549 0.023173187 0.06672839
000060 5b 6b a8 bc fe 8e 7a 3d 36 a3 35 3d 91 b5 90 3d
       -0.020559004 0.061171524 0.044345103 0.07065881
000070 35 b6 0b bd 16 08 86 bd 6f 2a 0b 3e f4 ab be bd
       -0.034109313 -0.06544511 0.13590406 -0.09310141
000080 c5 6f 5d bc 74 fc d9 3d 26 f6 33 bd ef d6 90 bd
       -0.013515417 0.10643855 -0.043935917 -0.07072245
000090 95 34 0a 3d 25 1a 57 3c b5 03 49 bd 22 09 87 be
       0.033741552 0.013128792 -0.0490758 -0.26374155
0000a0 5b 6a 02 bd e4 eb 93 bd c9 1c a1 bd 8c be 5e bc
       -0.03183971 -0.07222727 -0.078668185 -0.013595235
0000b0 83 8b 1f 3d b9 00 82 bc ff 2d 9f bd d3 c4 84 bc
       0.038951408 -0.015869485 -0.07772445 -0.016207134
0000c0 6c ff dd bd 93 2c 22 be 93 37 69 3c 09 a4 6b 3d
       -0.108397335 -0.15837316 0.014234441 0.057529483
0000d0 fc d5 d7 bd 38 72 5f 3c 9e 47 e6 bd 85 8c a0 3d
       -0.10538861 0.013638072 -0.11244129 0.07839302
0000e0 5d 31 08 3e 9b 23 c4 bd bd 30 16 3e 24 24 d5 bd
       0.1330008 -0.09577104 0.1466703 -0.10407284
0000f0 95 7f 35 be 18 af 7b 3e ed 0e 2a 3c 28 55 03 3e
       -0.1772445 0.24578512 0.010379535 0.12825453
000100 15 73 01 be 9d 52 f0 3d aa d9 b3 b9 9e 07 26 3e
       -0.12641557 0.11734507 -0.00034303713 0.16213843
000110 80 8e 33 3d 3c 1a 7c 3d 1a b0 ef 3c 1b 79 fe 3c
       0.04383707 0.061548457 0.029258776 0.031063607
000120 0a ed e0 3c 72 4c df 3d ed 91 8b 3d 61 1c 41 3e
       0.027456779 0.10903253 0.068149425 0.18858482
000130 71 fc 15 bd b1 91 d6 3d 6a d4 60 3e 75 58 10 bd
       -0.0366177 0.10477007 0.2195603 -0.03524061
000140 ee 1d f6 3c b7 96 e5 3d 58 7d fd bd cf a9 d6 bc
       0.030043568 0.11210387 -0.12377423 -0.026204018
000150 b4 f7 51 3d 94 7a 8c be c2 19 94 bd 04 6d 00 3e
       0.05126162 -0.2743727 -0.072314754 0.12541586
000160 a2 3f 7c bb c5 6b c4 3d 68 f7 70 be e3 c1 a8 bd
       -0.0038490077 0.09590868 -0.23531878 -0.08240106
000170 8d 01 b3 bd 32 7d 4e 3e 88 4e 5b bd 05 3c 12 bf
       -0.0874053 0.20164946 -0.05354169 -0.5712283
000180 62 4c 60 bd 0f e9 de bd 0d e4 3a 3e 4a 01 af bb
       -0.054760344 -0.10884296 0.18251057 -0.00534073
000190 09 05 db bb 71 ff 91 3d 65 e8 19 3e 39 9b 9b 3d
       -0.00668395 0.071288 0.15030058 0.07597966
0001a0 ea b0 0f bd 94 ad 99 3d eb ad 9c 3e db 95 7c bd
       -0.035080828 0.075038105 0.3060144 -0.06166635
0001b0 cb 0f a2 bd 2a 05 7c 3e d4 13 80 3c 87 80 a3 bc
       -0.079131685 0.24611345 0.015634455 -0.019958748
0001c0 b8 96 80 3d c0 6b b7 3d 54 c0 8a bb 16 d3 3b bc
       0.06278747 0.089560986 -0.004234353 -0.011463901
0001d0 d7 ac 89 3e c4 02 c1 bc c9 fc ba 3d d7 4b 96 3c
       0.2688968 -0.023560889 0.09130246 0.01834671
0001e0 21 a9 63 3e 6a e0 0e 3e cb 8f 42 bd 62 7e 8d bd
       0.22232486 0.13952795 -0.047500413 -0.06908871
0001f0 7b ba 43 3d 0f f2 9d bc 0f 1a 0d 3e f4 af a9 bd
       0.047785264 -0.019280462 0.13779472 -0.082855135

fc3.weight f4 [34, 128]
000000 09 1e a4 3d 5a a7 57 be 1a f1 d5 bd 55 14 a7 bd
       0.08013541 -0.21059933 -0.10446377 -0.08158175
000010 3f b5 43 be 80 2f 65 3a da 46 0b be 94 34 01 3d
       -0.19112109 0.0008742735 -0.13601246 0.031544283
000020 8e 3d 10 be b2 9e a6 bd 60 83 b5 bb 3d 4c 06 be
       -0.14085981 -0.081357375 -0.0055393428 -0.1311502
000030 4a 93 4a be 1a 72 c8 bd 30 27 c4 3b 34 78 97 bd
       -0.19782749 -0.09787388 0.005986117 -0.07395974
000040 c2 51 22 be b0 54 67 bc 9c 16 2f be aa 47 a7 bd
       -0.158515 -0.014119312 -0.17098469 -0.08167966
000050 3a 79 12 be 5a 84 3b 3d 14 28 ad 3c a9 26 8a 3d
       -0.14304057 0.045780517 0.021137275 0.06745655
000060 da a4 ff bc f0 35 ba bc cc 04 dc bd 31 be c9 bd
       -0.031206537 -0.022730798 -0.107431024 -0.09850729
000070 99 a5 54 bd 61 07 a8 3d 14 89 c7 bc a6 62 fb bc
       -0.05191574 0.082045324 -0.024357356 -0.030686688
000080 d7 99 fc bd 6d 61 d7 bd c2 dd de bc 03 1b af 3d
       -0.1233403 -0.10516629 -0.027205352 0.08550074
000090 f0 b1 2f 3c e7 5d af 3d 10 01 4f bc ba bb 33 be
       0.010723576 0.08562832 -0.012634531 -0.17552081
0000a0 b4 39 cd bc 00 b8 66 b9 8f 29 41 be 16 d1 47 3c
       -0.025051929 -0.00022003055 -0.1886351 0.012195846
0000b0 43 83 cf bd b4 3b 35 be 09 46 46 be 11 cb b0 3d
       -0.10132458 -0.17698556 -0.19362654 0.08632482
0000c0 75 61 1c bd 5b e3 2d be 90 22 69 bc f7 18 21 bd
       -0.03817888 -0.1698126 -0.014229432 -0.03933045
0000d0 4b fb 5f be bf 05 0e bb 2d e8 63 bd 13 e0 62 be
       -0.21873204 -0.0021670905 -0.055641342 -0.2215579
0000e0 0d b7 32 3e e8 21 5f bc 9f 16 4f be d3 b5 ee bc
       0.17452641 -0.013618924 -0.20223473 -0.029139435
0000f0 9b 3c 9e be 13 10 6e be fa 59 a6 3d 48 25 53 be
       -0.30905613 -0.2324832 0.081226304 -0.2061969
000100 86 60 06 3d 8c 96 cf bc 1a e5 af bd 07 ff ed bd
       0.032806896 -0.025340341 -0.085886195 -0.11620908
000110 90 5b c2 bb f9 99 88 bd 02 64 c4 bc 4c 98 6e 3d
       -0.0059313253 -0.06669993 -0.023973469 0.05825071
000120 63 75 66 bd 46 dd ab bc a9 07 fc bd c0 bd 16 be
       -0.056264292 -0.020979535 -0.123061486 -0.14720821
000130 46 9b 02 bd ef 8d 30 be 55 fb 08 be 3a 83 83 bd
       -0.03188636 -0.17241643 -0.13377126 -0.06421514
000140 2d 5c b4 bc 84 a8 83 be 1b 28 a0 bc 4b a7 e2 3c
       -0.02201661 -0.25714505 -0.019550374 0.027667662
000150 4e 9c 40 3d 92 80 08 bc aa 08 80 bd 4f bf 47 3c
       0.047024064 -0.008331435 -0.062516525 0.012191608
000160 7c f7 41 be 4f 67 4c bd 25 2e 7b bc 40 cc f6 3c
       -0.18942064 -0.04990321 -0.015330826 0.03012669
000170 35 eb 79 3b 94 3c 4c be 8f 23 81 3d e2 a1 80 bd
       0.003813458 -0.19944984 0.063056104 -0.06280877
000180 9a c2 31 3d a6 11 4e be 60 d4 fb bd 04 eb ec bd
       0.043398477 -0.2012392 -0.12296367 -0.11568263
000190 ac 0f db 3c 34 f4 00 be 17 b9 07 be 3a 52 61 bd
       0.026740871 -0.12593156 -0.132542 -0.055010058
0001a0 d5 7c ea bd 7e 25 37 3d 98 ad 28 be 00 1b 4d be
       -0.11449591 0.04471349 -0.16472471 -0.20029831
0001b0 3b d2 b1 bd ac 8c 3b be f7 84 9a bc 90 79 95 bc
       -0.086826764 -0.18315381 -0.01886223 -0.018246442
0001c0 98 a8 e5 bd d7 97 ed bd 20 ff 95 3c bd d2 15 be
       -0.11213797 -0.11601227 0.01831013 -0.14631172
0001d0 54 89 ba bd 4b da 00 3c 64 15 20 be f3 03 aa bd
       -0.091082245 0.007864545 -0.1563316 -0.083015345
0001e0 28 d1 98 bd 22 1d a6 bd 51 13 4a bb d9 3f 42 bd
       -0.074617684 -0.081110254 -0.0030834267 -0.04742417
0001f0 64 ff 8e 3d 06 d8 06 be 39 c6 25 be f0 e7 5d 3c
       0.06982306 -0.13168344 -0.16188897 0.013544068
000200 de 03 e1 bc 66 f0 d4 bc 1d 02 23 be 5a 62 73 3d
       -0.027467664 -0.025993537 -0.15918775 0.059419967
000210 52 ff 42 be f6 04 4a 3d 0d 22 28 be d1 5a bb bd
       -0.1904271 0.049321137 -0.1641924 -0.09148181
000220 70 4f be bd 2c fd fc bc 19 44 13 3d 65 01 05 bd
       -0.09292495 -0.03088244 0.035953615 -0.032472033
000230 bd 0d c3 bc 64 14 0e be 37 42 17 bd b0 d0 b4 bb
       -0.023810262 -0.13874966 -0.03692838 -0.0055180416
000240 62 55 2f be ed be 42 bd d4 83 fb bd b5 51 40 be
       -0.17122415 -0.047545362 -0.122810036 -0.18781169
000250 0d 95 0b be 4e 9d 53 3d c8 97 0a 3c 32 a4 bd 3d
       -0.13631077 0.05166369 0.008459039 0.092598334
000260 05 f5 be bd d8 09 35 bd 12 b2 4f bd b6 e2 21 bc
       -0.093240775 -0.04419884 -0.05070693 -0.009880712
000270 60 79 d0 bd 10 35 81 bd 74 98 92 bd b0 7d d8 3b
       -0.101794004 -0.06308949 -0.071579844 0.00660678
000280 f0 33 bf bd a3 33 a3 bd 2a ad 46 be 18 cb bd 3c
       -0.09336078 -0.07968833 -0.19401994 0.023168132
000290 6d 4c df bc 92 65 4c 3d c0 b4 8b bb 4b 67 13 be
       -0.027258122 0.049901552 -0.0042634904 -0.14394872
0002a0 d3 12 a2 3d 7a ab 8e bd e4 0d 7e bd a8 b7 bd 3a
       0.07913747 -0.069663 -0.062024966 0.001447429
0002b0 af ed 2c be f1 98 c5 bd 69 72 9a be 80 8e 60 3c
       -0.16887544 -0.09648312 -0.30165413 0.01370585
0002c0 7d c8 98 3d 31 b0 1d be 20 87 7e bc 3e 95 b7 bd
       0.07460115 -0.15399243 -0.015535146 -0.089640126
0002d0 7f 10 50 bc 2d 9b fe bc 55 21 8a 3d dc 79 0a be
       -0.0126992455 -0.031079853 0.06744639 -0.13523048
0002e0 54 fc 17 3d 45 ed a7 bd f2 10 67 3d 74 6a 46 be
       0.037105873 -0.081995524 0.056412645 -0.19376546
0002f0 ce bc 4f be 61 be 1c be ed 6a ec 3d ba 29 3c be
       -0.20286867 -0.15306999 0.11543832 -0.18375292
000300 af c0 26 3d 39 61 ac 3d a6 ff 0b 3d fb 03 c6 bd
       0.0407111 0.08416981 0.034179352 -0.09668728
000310 f6 28 5d 3d 60 56 04 be 69 b1 48 3d 61 6e 87 3d
       0.05399414 -0.12923574 0.048997317 0.0661285
000320 f6 45 0d bd 07 81 06 be 5a d0 52 bd 9a 23 fd bc
       -0.034490548 -0.13135158 -0.05146823 -0.030900765
000330 5e 24 ae bd 58 9e 3a bc 3f 7f e1 bd 90 44 30 bc
       -0.0850303 -0.011390291 -0.110105984 -0.010758534
000340 36 45 5b bb 0e 4e 4d be 6a c2 8f bd 30 21 8f bd
       -0.0033458 -0.20049307 -0.070195034 -0.06988752
000350 b8 63 c4 bc f8 dc d7 bd ec 12 75 bd 7a 64 17 bd
       -0.02397333 -0.10540193 -0.0598325 -0.036961056
000360 ca 61 5e be 06 e3 91 bc af a0 15 bd 11 6b 1f 3d
       -0.21716991 -0.017808449 -0.036530193 0.038920466
000370 9c a8 a8 bd ba a4 c7 3c 20 2c 30 bb 0f 31 00 be
       -0.08235285 0.02437054 -0.002688177 -0.12518714
000380 34 13 a6 bd b3 30 5e bd 77 79 2a be aa 7f cc bd
       -0.081091315 -0.054245662 -0.16647898 -0.099852875
000390 b8 d0 7c bd 33 12 bd 3b 98 22 81 bd a8 fa 0a bd
       -0.061722487 0.005769992 -0.06305426 -0.03393045
0003a0 d1 0c fe bd 4f 74 12 be ba f4 03 be d3 77 3c be
       -0.12404788 -0.1430218 -0.12886325 -0.18405084
0003b0 51 37 0d bb ef b9 82 bd 9b 88 af bd b0 db 8f bb
       -0.0021547864 -0.0638312 -0.08570977 -0.0043902025
0003c0 2b 04 be bd 2c c6 91 3d ff f5 a8 bd 42 d7 b7 bd
       -0.09278139 0.071178764 -0.08250045 -0.08976604
0003d0 68 ce a6 3c af e2 e6 bd 6d 54 68 bd 12 4a 29 be
       0.020362094 -0.11273705 -0.05672114 -0.16532162
0003e0 57 50 b9 bd b9 c5 44 3c 88 bc 00 3c a0 2e 0e 3e
       -0.09048527 0.012010031 0.007857449 0.13884974
0003f0 7a db 22 3d f8 a7 ae bc 60 4b 0d be ef 29 b3 3d
       0.03976009 -0.021320328 -0.13798285 0.087482326

fc3.bias f4 [34]
000000 d8 13 76 be 4d 2f 2c be f5 b0 9d be be 7c 18 be
       -0.24031007 -0.16814919 -0.3079907 -0.14891335
000010 59 aa 8f be 0e 2a 35 be b6 a0 4f be 16 74 d5 bd
       -0.28059652 -0.17691824 -0.2027615 -0.10422532
000020 13 f2 a4 bd 41 9d 84 be 6a eb 36 bd 65 b2 05 be
       -0.080539845 -0.25901225 -0.044658102 -0.13056333
000030 be 2f ab 3d 9e c4 6c be 15 4b f2 bd 8a 70 19 be
       0.083587155 -0.23121879 -0.11830727 -0.14984336
000040 1a 96 a6 bc 8e 12 75 be 9a 6a 80 be a0 64 6d bc
       -0.020335246 -0.2393286 -0.2508133 -0.014489323
000050 86 0e 96 be 1c aa 88 be 1f a5 b9 bd 28 aa 58 be
       -0.29307956 -0.26692283 -0.090646975 -0.2115866
000060 37 60 1c be e2 dd 4e be 9e e7 42 3e e1 7c 6d be
       -0.15271078 -0.20201829 0.19033667 -0.23192169
000070 dd b3 f3 bd a3 75 8b be 8f 12 46 be db f6 f4 3c
       -0.118995406 -0.27238187 -0.19343017 0.029902866
000080 76 50 24 be 63 ab 8c be
       -0.16046318 -0.27474508
