DQN/checkpoint.pth (torch, 125739 bytes, 10 tensors)

ip_bn.weight f4 [8]
000000 01 2f 88 3f 00 00 80 3f 00 00 80 3f 00 00 80 3f
       1.0639344 1.0 1.0 1.0
000010 00 00 80 3f 00 00 80 3f 00 00 80 3f 00 00 80 3f
       1.0 1.0 1.0 1.0

ip_bn.bias f4 [8]
000000 79 2a 56 3d 4c d2 81 bb da aa 26 3a fb 07 3d ba
       0.0522866 -0.003961837 0.00063578563 -0.0007210967
000010 36 33 b2 bb b1 9f 8d 3a 8e e4 0a 3b cb 63 b9 3b
       -0.0054382337 0.0010805038 0.0021193358 0.005657648

ip_bn.running_mean f4 [8]
000000 10 b6 62 42 fc ff ff 41 fb ff 07 42 f7 ff 17 42
       56.677795 31.999992 33.99998 37.999966
000010 fa ff 4f 42 f5 ff 8f 42 f7 ff 97 42 f5 ff b7 42
       51.999977 71.999916 75.99993 91.999916

ip_bn.running_var f4 [8]
000000 65 38 f0 43 04 00 00 00 04 00 00 00 04 00 00 00
       480.44058 6e-45 6e-45 6e-45
000010 04 00 00 00 04 00 00 00 04 00 00 00 04 00 00 00
       6e-45 6e-45 6e-45 6e-45

fc1.weight f4 [128, 8]
000000 a5 12 b2 3e a9 ac 4d 3e 18 50 88 3d 9b 3f e6 bc
       0.3477985 0.20085396 0.06655902 -0.028106501
000010 4f 33 2a 3e cf 55 25 3e 11 df 75 3a 05 4f 86 be
       0.16621135 0.16146015 0.0009379248 -0.26232162
000020 af 80 a6 3e 82 92 2e be f1 dc 92 bc 1b 82 0f bd
       0.32520053 -0.17048076 -0.017927619 -0.035036188
000030 8a ea b3 bd cb 54 79 3e 7f 44 b9 bd c7 01 73 3d
       -0.08784969 0.24348752 -0.09046268 0.059327867
000040 cd 32 92 3b d0 c7 7e be ef 58 f0 bd 11 77 3e 3e
       0.0044616223 -0.2488091 -0.11735713 0.18600108
000050 52 16 76 be b4 76 c8 bc 02 53 42 be 84 96 72 3e
       -0.24031952 -0.024470665 -0.18976977 0.2369023
000060 14 71 c8 bb 0e ce f9 ba 12 b7 22 bd db 22 d5 be
       -0.0061169956 -0.0019058601 -0.03972537 -0.41628155
000070 49 e1 8a bc 16 32 ea bd 1a 47 13 bf bb fd 87 be
       -0.016953127 -0.114353344 -0.5753037 -0.26560768
000080 0b 8f 71 3e 97 fb ad 3d d1 4f 49 be 7c f2 8b be
       0.23589723 0.084952526 -0.19659354 -0.27333438
000090 ad 1d be 3c 1e 07 60 be 16 97 50 bd df b6 aa be
       0.02320751 -0.21877715 -0.050925337 -0.33342645
0000a0 e0 bf 78 ba 25 9f f2 bd 32 fa d2 3d a5 1e 2e 3e
       -0.0009489041 -0.11846761 0.10301627 0.17003877
0000b0 6a fc f4 3d 12 bd 6f 3e e2 ad 2e 3c 95 df 19 bd
       0.11962207 0.23411968 0.010661574 -0.03756674
0000c0 b0 c6 c9 3a f8 64 67 bb 73 85 eb 3d 7a b4 12 3e
       0.0015394296 -0.0035307985 0.11500063 0.14326659
0000d0 d0 76 90 3e 85 f6 3a 3e 44 2a 80 be ae ac 7b 3d
       0.28215647 0.18258102 -0.25032246 0.061443977
0000e0 74 2b d8 bb 50 81 de 3e ac 6f 41 3e 75 dc 9e 3e
       -0.006596977 0.43458033 0.18890256 0.3102757
0000f0 41 82 5b 3e b6 5d 51 3c ce f9 53 be fa fa 01 3f
       0.21436407 0.01277869 -0.20700762 0.50773585
000100 75 73 f4 3e a0 dc 0d 3e e1 de e4 3d a4 1b bc be
       0.47744337 0.13853693 0.11175323 -0.36739838
000110 4a 78 30 be f1 2e 1c 3e 45 97 b8 be 6e fc 65 3e
       -0.17233387 0.15252282 -0.3605291 0.22459576
000120 d6 11 c7 bd 07 8c fb 3d 8a c5 4a bc 21 45 2d 3d
       -0.09720199 0.122825675 -0.012376199 0.042302255
000130 8f 1d 6f bd 26 ab 71 be 93 8d 1e be 07 f1 8c be
       -0.0583778 -0.23600444 -0.15483694 -0.2752764
000140 0f a9 c9 3e 1f 82 3a bd 2e c2 e3 be 48 5e b1 3c
       0.39386794 -0.04553425 -0.44484085 0.021651402
000150 c1 06 a4 3d 86 cd bd bd 46 44 9a 3d d0 42 8f 3d
       0.08009101 -0.09267716 0.075325534 0.06995165
000160 2f 74 ee bd d5 36 94 bd 36 65 0b be de 55 be be
       -0.11643254 -0.07237021 -0.13612828 -0.37174886
000170 4b 2e 5c 3d f9 13 b1 3d 6b d2 15 3d b3 db d7 3d
       0.053755086 0.086463876 0.036577623 0.10539951
000180 8c ef 88 be 97 95 3d be ff d1 90 be d9 ee f4 bd
       -0.2674526 -0.18514095 -0.28285214 -0.11959619
000190 d2 a0 f9 bd fa b2 f2 bc 52 31 76 be 18 02 88 3d
       -0.12188877 -0.029626358 -0.24042252 0.06641024
0001a0 42 9f 9e 3e aa 6e 16 3d de 81 88 3e 32 97 eb 3d
       0.3098088 0.03672663 0.2666158 0.115034476
0001b0 26 05 bf be 62 c3 b9 3d 4e 78 99 3e 1d 61 3c be
       -0.37308615 0.090704694 0.29974598 -0.18396421
0001c0 72 90 45 bc 26 c1 f2 ba a4 ef 57 be 72 92 4b be
       -0.012058364 -0.0018520697 -0.2108751 -0.19880083
0001d0 02 e8 21 be 8a 71 aa 3e cf f0 4e be 71 da 46 3e
       -0.1581116 0.33289748 -0.20209049 0.19419266
0001e0 a8 97 05 3c 33 bc 1e bd 77 f9 a9 be 1d 18 a2 bd
       0.008153833 -0.0387537 -0.3319814 -0.079147555
0001f0 76 1a 44 3e f4 80 a8 be d5 ac a1 be 67 8b 64 3e
       0.19150719 -0.32910883 -0.31577173 0.22318803
000200 35 ee ae be a2 14 91 be 92 bf 7c be 70 ca c0 3d
       -0.34166113 -0.28336054 -0.24682453 0.09413612
000210 62 a0 2e be f4 c0 8b be a2 96 35 3e ad 37 fd 3c
       -0.17053369 -0.2729565 0.17733243 0.030910337
000220 62 18 82 3e 16 9a a1 be a3 36 ab 3e 1c 4b 4f be
       0.25409228 -0.3156287 0.33440122 -0.20243496
000230 ea 5f b5 be a5 de 51 3d 16 51 4e 3e ad 9c 33 3e
       -0.3542474 0.05123772 0.2014812 0.17540236
000240 c6 99 63 3b de 64 b6 3e 3a f3 82 be e2 0d 7d 3e
       0.0034729107 0.3562383 -0.25576192 0.24712327
000250 17 50 aa 3e f6 2d a5 bd 09 49 f6 bd fc 09 8c 3d
       0.3326423 -0.08065407 -0.12025649 0.06837842
000260 d8 59 db bd e3 f3 2f 3e da 33 9a bc ac 4c 3a be
       -0.10710496 0.17182879 -0.018823553 -0.1819331
000270 40 af 2a be ea 05 0d 3e 73 8a 56 3e aa 1c 2d 3e
       -0.16668415 0.13771787 0.20951252 0.16905466
000280 08 80 cc be 8d 1e 44 3e 08 ce c0 3b 16 51 81 be
       -0.3994143 0.19152279 0.005883936 -0.25257176
000290 70 f7 b6 3c 46 68 36 3e f7 9b 07 be 9b 3b bd bd
       0.022334784 0.17813215 -0.1324309 -0.092398845
0002a0 91 b4 a1 bd 7a ae 7a bc 30 f5 3a be a6 cb b0 bd
       -0.078957684 -0.0153003875 -0.18257594 -0.08632593
0002b0 f9 aa 27 3e 53 20 58 3e af d5 b2 be 7d 24 75 3d
       0.16373815 0.2110608 -0.34928653 0.05984925
0002c0 4f 0a 44 be 55 bb 7e 3e 2c 6a 2e 3e 0d b6 97 3d
       -0.19144557 0.24876149 0.17032689 0.0740777
0002d0 fe 66 0c be 98 c1 e3 3c ad 21 1c 3d 38 2f bd 3c
       -0.13711163 0.027802274 0.038118053 0.023093805
0002e0 36 d7 ce bd 34 fb f4 bd e8 df ad bd 22 c4 6c 3d
       -0.10099642 -0.11961976 -0.08489972 0.057804234
0002f0 9a a8 5e 3e 68 e1 73 3e 29 74 36 3d 25 c4 ba be
       0.21744004 0.23816454 0.044544373 -0.3647777
000300 44 93 43 3e 76 99 14 3e 81 62 71 be ee 98 ac be
       0.19099146 0.14511666 -0.23572733 -0.33710426
000310 a1 64 d4 3d 88 83 e9 bd fc b0 21 3b a4 0a 6b 3e
       0.10370756 -0.11402041 0.0024672141 0.22953278
000320 91 c4 b8 be 88 3d 1c be 42 d0 f4 bc 67 01 03 be
       -0.36087468 -0.15257847 -0.029884461 -0.12793504
000330 d5 ea 5e 3d 51 e2 8b 3e ab 93 86 3e 3f f7 ba bd
       0.054423172 0.27321103 0.26284537 -0.0912919
000340 52 9d 03 bd d7 d6 0e be 29 2a 8b be ea a8 aa bd
       -0.032132454 -0.13949142 -0.27180603 -0.08332999
000350 e2 90 19 3d a3 05 2a be 3d 01 80 be e0 90 ef 3d
       0.037491687 -0.16603713 -0.25000945 0.116975546
000360 a1 5a ae 3e 8d 5a 72 3d 90 c3 93 3d d3 9d 99 3e
       0.3405352 0.059168387 0.07215035 0.30003223
000370 e3 0c a4 bc 06 24 83 be 0b 29 8c 3e 11 03 4a 3e
       -0.020025676 -0.2561342 0.27375063 0.19727732
000380 e0 37 0a bd c7 88 23 be d7 c2 18 be a3 d8 9d 3e
       -0.033744693 -0.15970145 -0.14918076 0.30829343
000390 f2 1f 3d 3e 73 2d 3a be e0 30 67 3c a4 84 94 3d
       0.18469217 -0.181814 0.014110774 0.07251862
0003a0 6b 24 88 3d d0 31 15 bc dd 5c e1 be 94 1e 09 be
       0.06647571 -0.0091061145 -0.44016162 -0.13390571
0003b0 08 31 8c bd ec be cd bb 73 9f 7f be cb 3a 69 be
       -0.068452895 -0.006278863 -0.24963169 -0.22776334
0003c0 30 88 85 bb 09 0b 43 3e e5 0b 89 be 65 1f ad be
       -0.0040750727 0.19047178 -0.26766887 -0.33813015
0003d0 6f 58 97 3e 16 c4 93 3e a5 96 ec 3d ac fe 4d 3e
       0.29559657 0.2886054 0.11552171 0.20116681
0003e0 51 29 19 3c bd fa 30 be 61 92 27 be e4 73 1f be
       0.0093482295 -0.17283149 -0.16364433 -0.15571553
0003f0 95 92 c5 3d c3 45 12 be 56 6c e7 be 3b 08 70 3e
       0.09647099 -0.14284424 -0.4519984 0.2344064

fc1.bias f4 [128]
000000 05 c6 ed bd 8f 09 0b be 8f da 21 bd d0 48 2b bd
       -0.11610035 -0.13577865 -0.039515074 -0.041817486
000010 4e ac 00 3e a8 b5 8c bc 63 66 f8 bc 23 de 1b bd
       0.12565729 -0.017176464 -0.03032226 -0.038053643
000020 41 03 2a be 3c 37 31 3e cc e3 e3 be fc 70 12 3e
       -0.16602804 0.17306226 -0.44509733 0.14300913
000030 ac 9a 9b be 03 ab cc be 5b 26 4a bd 2d 46 11 bd
       -0.30391443 -0.39974222 -0.049352985 -0.035467315
000040 fe ed a9 be 34 6c 85 be 5d bc ee bc 6d f9 4a 3e
       -0.33189386 -0.26059115 -0.029142553 0.19821711
000050 5f 8f aa be a3 43 31 be 16 35 8f be 75 ea d5 3d
       -0.33312508 -0.17310958 -0.2797019 0.1044511
000060 b9 ac 5c 3e 24 09 9b be 00 b5 db bd d4 a5 1d be
       0.21550263 -0.3028041 -0.107278824 -0.1539529
000070 17 61 b3 be 8a 5e 1b bd 63 a8 ce 3c a0 11 13 bd
       -0.3503501 -0.037931956 0.025226777 -0.03590548
000080 a2 84 10 bd bd cc 00 be 5b f7 32 bd 72 b0 03 bd
       -0.03528274 -0.12578101 -0.043692928 -0.032150693
000090 92 3f 3f be ae 5d 4c 3e 40 98 18 bd 46 b0 91 3d
       -0.18676594 0.19957611 -0.037254572 0.071136996
0000a0 65 6c b0 be d0 88 a4 be c9 51 31 be bf 21 ad be
       -0.34457698 -0.3213563 -0.17316355 -0.3381481
0000b0 b5 ec 9f be 3e 10 44 be 38 ab a9 be a0 51 40 3e
       -0.3123528 -0.19146821 -0.33138442 0.18781137
0000c0 78 a0 ce bd c7 ad 73 be 1c 53 6c be 91 c3 e3 be
       -0.10089201 -0.2379676 -0.23078579 -0.44485143
0000d0 ef 57 8b be 39 61 91 be 27 79 b1 be 2d e9 6d be
       -0.27215526 -0.28394488 -0.34662744 -0.23233481
0000e0 58 32 69 3e cf 4e ee bc c9 ea 26 3e a4 2d 93 3e
       0.22773111 -0.029090313 0.16300501 0.2874576
0000f0 e0 8a 27 bd 48 3f 99 bc b9 0b 90 be bf 2e d0 3c
       -0.040903926 -0.018706933 -0.28133944 0.025412915
000100 ea 53 46 3e 68 56 ab be d6 f3 80 3e 7a f2 b6 be
       0.19367948 -0.3346436 0.25186032 -0.3573187
000110 30 ae 90 bc ce d4 a4 3e 75 2c bf bc 94 f2 9f be
       -0.017661184 0.32193607 -0.023336628 -0.3123976
000120 f2 57 2c bd 20 9a ea bc 50 f0 22 be 8b 5b 21 bd
       -0.04207606 -0.028637946 -0.15911984 -0.039393943
000130 c4 73 a6 be a4 f8 82 be 0a ab 82 be 31 02 ab bc
       -0.32510197 -0.25580323 -0.25521117 -0.020875068
000140 98 5c 31 3e 90 fc b6 bd 48 92 8e be 0c f6 fd 3d
       0.17320478 -0.08934891 -0.2784598 0.12400445
000150 da ec ea be 86 78 68 3e 6b 9a 34 be 7b 3c b4 be
       -0.45883828 0.22702226 -0.17637031 -0.35202393
000160 33 d3 c9 be 1a a4 18 bd 57 11 98 3e ca 7b 56 bd
       -0.39418945 -0.037265874 0.2970073 -0.05236415
000170 77 3b 40 be 07 c0 ff 3c e7 13 9e be 3d 50 65 be
       -0.18772684 0.031219495 -0.3087456 -0.2239389
000180 03 d3 7b be ac ef 8d 3d 0c 88 93 be 71 d2 9e be
       -0.24592213 0.069304794 -0.28814733 -0.3101993
000190 f3 38 dd bc 89 d5 a1 3e e3 59 98 be 64 89 69 be
       -0.027004695 0.31608227 -0.29756078 -0.22806317
0001a0 17 11 79 be 8f 54 ff bd e1 32 12 bd 78 7f 8a be
       -0.24322926 -0.124673 -0.035693053 -0.27050376
0001b0 ce 43 82 be 9b 6c 25 be 4b 86 97 3e af 2c 5d bd
       -0.25442356 -0.16154711 0.29594645 -0.05399769
0001c0 3f 15 5b bd f7 bd 81 be 2d a1 c6 3e 3e 30 be be
       -0.05348706 -0.25340244 0.38794842 -0.3714618
0001d0 10 d7 c5 be 84 c4 93 3e 95 e2 02 bd da 35 3b be
       -0.38640642 0.28860867 -0.031954367 -0.18282261
0001e0 bd 02 ae be 5c 78 6d bc 80 ef 84 bc 01 a5 24 be
       -0.33986464 -0.014494028 -0.016227484 -0.16078569
0001f0 99 22 18 3e ef fc c4 bc fb 02 bf 3c ad e8 55 be
       0.14856948 -0.02404639 0.02331685 -0.2088954

fc2.weight f4 [128, 128]
000000 7e 58 3e be b1 9b 68 bd 3f 06 a6 bd c1 b8 4d bd
       -0.18588445 -0.056789104 -0.0810666 -0.050225023
000010 44 35 6c 3d 23 15 ac bb 2f a0 5e bd 59 2b 48 3d
       0.057667986 -0.005251543 -0.05435198 0.048869465
000020 3c 10 3b bd 5c 34 a5 bd 53 32 ad bb c3 ac d7 bc
       -0.04566978 -0.080666274 -0.00528554 -0.026327496
000030 27 36 c0 bd 8b 65 26 be 59 72 b3 bd 87 ca 7e 3d
       -0.09385329 -0.16249673 -0.087620445 0.062204864
000040 4a 1b c8 bd ed 4a 26 bd 6f 3b ab bc d8 8c 00 3d
       -0.0977083 -0.0405988 -0.020902364 0.03138432
000050 3c 36 56 3d 12 c4 ba bc 47 a4 b1 bd 31 54 58 bc
       0.052297816 -0.022798572 -0.086739115 -0.013203667
000060 22 2a eb 3c 7a af 87 bd 0c 05 cd bc c7 af ad 3c
       0.028706614 -0.066252664 -0.02502682 0.021201981
000070 09 53 ab 3d 5b 2a 5d bd 36 c8 1a bd 42 07 ec 3a
       0.08365447 -0.05399547 -0.037788592 0.0018007534
000080 67 08 02 3e f3 10 3a bc 7c e1 50 3d 3c 77 b5 bd
       0.12698518 -0.01135658 0.05099629 -0.08860633
000090 4d b8 f0 bd 76 b8 6a bc 2e f9 5f bd f1 7c 56 3b
       -0.117539026 -0.0143262055 -0.054680996 0.003272828
0000a0 4c 63 9e 3c 10 d8 c8 3b d9 48 ab bd 1e 84 9f bd
       0.019334458 0.0061292723 -0.08363504 -0.07788871
0000b0 ce ae 28 bd d0 94 a2 bc 70 5f b4 bd 35 65 fd bb
       -0.04118233 -0.01984635 -0.08807266 -0.007733012
0000c0 64 d8 d8 bc d8 7e 03 3d 3b 7e 48 3c d0 7b d7 3a
       -0.02647037 0.03210339 0.012237127 0.0016440097
0000d0 a2 4e ab bd 86 7c 8e bd 08 e5 9f bd a2 65 a1 bc
       -0.083646074 -0.06957345 -0.07807356 -0.019701783
0000e0 ea 26 3f 3c 7f b7 5e 3d 65 fc 36 bd a8 44 a8 bb
       0.011666993 0.054374214 -0.044674296 -0.0051351376
0000f0 6d ae 47 bd 4a 00 1f bd 7a 38 96 bd 76 5d 5f 3d
       -0.04875033 -0.038818635 -0.07334991 0.05453249
000100 df 0e 8e bd 48 bb 49 bc 4f 0d 7f 3d 10 8e 7b bd
       -0.0693643 -0.012312718 0.06226855 -0.06141478
000110 d1 a3 17 be e5 eb d0 bd cb 76 8b 3d 41 8e 00 be
       -0.14808585 -0.10201243 0.06809767 -0.12554266
000120 07 7a 45 3c 0c f3 f5 bc 8d a6 8a bd 28 75 48 3c
       0.012053019 -0.03002312 -0.06770048 0.0122349635
000130 9f 6f 9f bd de 50 f3 bd aa 3e 80 be d8 0e 9c bb
       -0.07784962 -0.118806586 -0.2504781 -0.0047625117
000140 65 f0 ff bd d5 97 94 3d 58 d2 ed bd 9f fd 5c bb
       -0.124970235 0.07255522 -0.116123855 -0.0033720506
000150 3c 73 ff bd 04 77 43 3d ef 68 64 bd 63 d0 9c bc
       -0.12473151 0.047720924 -0.055764135 -0.019142335
000160 62 21 1c 3b ff a8 93 bd 18 03 3c bc ba 7f ca 3c
       0.0023823609 -0.07209968 -0.011475347 0.024719108
000170 08 a0 aa bc 41 4c eb bd 7c 42 bc 3c 61 9a c1 bd
       -0.020828262 -0.11489154 0.022980921 -0.094532736
000180 00 c0 03 be 7f 63 97 3c ca 22 0a 3d 2b 6b bf bd
       -0.12866211 0.01848006 0.033724584 -0.093466125
000190 56 38 13 be 88 ad 89 3d 02 f2 36 3d 01 65 22 bd
       -0.14376959 0.067225516 0.04466439 -0.039647106
0001a0 f1 db 23 bd 60 1d b1 bc 30 14 3a bc 04 9d 98 bc
       -0.040004674 -0.021620452 -0.011357352 -0.018629558
0001b0 7d 5c b5 bd 00 7b 16 be fe e3 df bc da 9a 96 bd
       -0.08855531 -0.14695358 -0.027330395 -0.07353754
0001c0 72 0e ba bd 0e 20 63 bd 2e 16 85 bd ee fc 19 bd
       -0.090847865 -0.05545049 -0.06498371 -0.03759473
0001d0 84 59 1f be 71 79 87 bd 64 4a aa bd d0 4c 8f 3b
       -0.15561491 -0.0661496 -0.0831497 0.0043731704
0001e0 7a 80 3b 3d 26 77 05 39 68 61 e4 3c a3 1b ef bd
       0.04577682 0.00012728255 0.027878478 -0.11675193
0001f0 6e 3c c9 bd 0a b3 ca bd 8c 18 12 bd 93 d4 fa bd
       -0.09825979 -0.0989743 -0.03566794 -0.122475766
000200 d9 6b 67 be 48 5a a4 3c d2 55 2c bd 61 0c e2 bd
       -0.22599734 0.02006258 -0.042074032 -0.11037517
000210 ec 25 6f be 22 69 4a bd 59 a5 ec 3d aa 67 16 be
       -0.2335431 -0.04941667 0.11554975 -0.14687982
000220 9b 11 f6 3b 1f 9e de 3c 0d e8 86 3d 7c 5c a4 bc
       0.007509423 0.027175007 0.06587229 -0.020063631
000230 ed db 44 3e 65 50 19 3e 8e 12 98 3d 09 ce 4a be
       0.1922452 0.14972074 0.07425414 -0.19805159
000240 24 6d 02 3e 3f 8e fe 3c 7b 1e 43 bd e3 83 4b 3d
       0.12736946 0.031073688 -0.04763649 0.049686324
000250 ec ee 1d bf 4f f3 cf 3d e3 f1 e9 3d a3 90 88 bd
       -0.6169269 0.10153829 0.11423089 -0.06668212
000260 bc 68 25 be 7e 43 bf be be 7a 8e 3d 5e 73 d2 bd
       -0.16153234 -0.3735618 0.06957005 -0.10275911
000270 d7 15 8a 3d ea 87 fe bd d6 45 a0 3b 94 f0 81 bd
       0.06742447 -0.12428267 0.0048911376 -0.06344715
000280 74 0d b5 bb 85 fc 75 3c e9 ec 9c bc 63 cc 13 be
       -0.0055252854 0.015013819 -0.019155936 -0.14433436
000290 7f 07 2d bd 9f 33 e9 bd 3a 7b 95 3d a1 74 39 3c
       -0.042243477 -0.11386799 0.07298894 0.01131931
0002a0 c6 23 ae bd f2 0c 7a 3d d6 f2 d4 bd 4a 9a 29 3e
       -0.08502917 0.0610475 -0.1039788 0.16562763
0002b0 f8 ff c9 3c 80 db 06 be 7c 15 35 3e fc 22 b4 3c
       0.024658188 -0.1316967 0.17683977 0.021989338
0002c0 36 84 ad bd 57 30 e3 3d 1d 4a 94 3d cf eb 12 3e
       -0.08472483 0.110932045 0.072406985 0.14347766
0002d0 6d ff 48 3e e0 02 1e 3c 1f 66 25 3e 35 1d ad bd
       0.19628687 0.00964424 0.16152237 -0.084528364
0002e0 c2 0e c7 3d ff 2b 6a bd 3d 3b f9 bc fc 8b 81 bd
       0.09719612 -0.057170864 -0.030423755 -0.06325528
0002f0 4a 40 d4 3d bb 73 d8 bc d8 bb c7 3c cd 8c 15 bd
       0.10363825 -0.026422372 0.024381563 -0.03651123
000300 80 8a da 3d 58 c7 a2 bd a4 c0 a0 bd 5f b7 27 bf
       0.10670948 -0.07948178 -0.07849243 -0.6551418
000310 45 ab 89 bd 9c 4d da bd 65 14 81 be 34 62 11 be
       -0.0672212 -0.10659334 -0.25210872 -0.14197618
000320 cc fe 1a 3d df aa 30 be cc c6 66 3d 66 09 d3 3d
       0.03784065 -0.17252682 0.05634193 0.10304527
000330 6e 93 9b 3d 90 ec 12 bd 3b 95 cd be b1 72 41 bd
       0.07596479 -0.035870135 -0.40152916 -0.04722852
000340 44 82 97 bc 30 01 95 3c 04 b5 a9 3d 1a f1 db 3d
       -0.018494733 0.018189043 0.08286479 0.10739346
000350 81 ca 25 bf ae 43 fa bd 90 75 e1 3b 5f dd b3 3d
       -0.6476212 -0.1221994 0.0068804696 0.087824576
000360 75 d4 07 bf 7e 19 fe bd 85 4c 9e bd 5f 1d a0 3c
       -0.5305856 -0.12407206 -0.07729439 0.019545255
000370 ad eb 55 bd 04 89 d4 bc 96 34 09 3c 36 15 95 3d
       -0.05222671 -0.02594424 0.008374354 0.07279436
000380 ab 63 ee 3d ca 1a 8e bd 4a 20 14 bd 80 3a ad bd
       0.11640104 -0.06938703 -0.036163606 -0.084584236
000390 eb 35 99 3d 78 f7 67 be 93 10 9e 3d 40 fc 00 bc
       0.07480987 -0.22652996 0.07718005 -0.007872641
0003a0 83 61 9c be 0c 30 a9 3d a1 91 16 be 68 76 ea be
       -0.30543146 0.08261117 -0.1470399 -0.45793462
0003b0 8f ee 20 bf a7 44 36 bd 6b d6 85 bd 0b b4 f3 3c
       -0.6286401 -0.044499066 -0.065350376 0.029748937
0003c0 28 f1 b8 3d a7 fe fa 3d df ff 68 bd ce a3 57 3e
       0.09030372 0.12255602 -0.056884643 0.2105858
0003d0 a2 0c 33 3e 30 3d 24 be 68 67 cf bc be 99 89 bd
       0.17485288 -0.16038966 -0.025317863 -0.06718777
0003e0 1e 35 96 bd d2 4b c7 3c 42 b6 da bd 73 e0 2a bd
       -0.0733435 0.024328146 -0.10679294 -0.041717958
0003f0 e3 c0 18 3d 45 2f 72 3d d8 98 a3 bb aa fc 51 3d
       0.037293326 0.05912711 -0.0049925856 0.05126635

fc2.bias f4 [128]
000000 98 5a 12 3d 28 ef cb bc 67 58 4c 3d a7 b8 15 be
       0.03573093 -0.024894312 0.049888995 -0.1462122
000010 30 48 19 3c 05 d6 4e 3e 01 9b b3 bd 7e 96 52 3d
       0.00935559 0.2019883 -0.08769799 0.05141305
000020 ce 60 e0 bc 56 9f 60 3e f1 21 05 bd 6a 04 94 bd
       -0.02738991 0.21935782 -0.032503072 -0.072274044
000030 fe 4c 4b bd 03 d9 50 3b 43 7f ee bc 80 1a 7b bc
       -0.049633972 0.003186763 -0.029113417 -0.015326142
000040 92 f7 ad bd 30 ff ac bc 9e 57 e0 3c cb f4 55 3d
       -0.08494486 -0.021117777 0.02738553 0.052235406
000050 88 6f d2 bd 5d b2 07 bd 20 cb 2b 3c 03 9b 67 bd
       -0.10275179 -0.033129085 0.0104854405 -0.056544315
000060 90 b9 7e 3e 24 9a 53 3d d9 44 b0 bd 09 91 79 3c
       0.24875474 0.05166067 -0.08606882 0.015232333
000070 bd 9f fd bc 09 69 fd bc 59 43 03 bd 9b 6d c7 ba
       -0.030959958 -0.030933874 -0.03204665 -0.001521516
000080 2f 62 48 bb 31 04 5e bd a2 39 87 bd 2e 9a b8 3d
       -0.00305761 -0.054203216 -0.066027895 0.090137824
000090 fe 04 ce bd 52 c5 af bd ef 1d b4 bd fb 47 2a bd
       -0.10059546 -0.08582558 -0.08794772 -0.041572552
0000a0 be 54 40 be 8f 2b 0c 3b 04 ac 40 3d 20 0a ea 3b
       -0.18782327 0.0021388268 0.047039047 0.0071423203
0000b0 80 96 9f bc aa 35 35 3d 87 39 cf 3c 12 18 f7 bb
       -0.019480944 0.04424063 0.025295986 -0.007540711
0000c0 1a 6f 34 3d ea 82 99 3c aa e6 0e bd 16 1e 4d 3e
       0.044051267 0.018739183 -0.034887947 0.20031008
0000d0 8c d2 ae bb 08 39 29 bd a3 1c 42 bb 2f d8 87 3d
       -0.0053351577 -0.041314155 -0.002961912 0.066330306
0000e0 a2 2e 7b bd 2d 38 bf 3c ea 4f 79 bd 92 dc 93 bc
       -0.06132377 0.023342216 -0.060867228 -0.018049512
0000f0 c1 2d 26 3e 7b 0c 5e bd 64 c4 93 bd 67 40 44 bd
       0.16228391 -0.05421112 -0.07215193 -0.04791298
000100 4f b4 12 3d 74 03 b4 3c 75 f3 d1 bb d2 54 3b 3d
       0.035816487 0.021974303 -0.006407196 0.045735188
000110 cb 4c 84 38 de 87 45 bd 50 4e 05 bd 8d 0c 17 bd
       6.308554e-05 -0.048225276 -0.032545388 -0.036877204
000120 ff 6e 31 bd de 74 ac bd a2 f5 21 3d f7 fb 07 3d
       -0.043318745 -0.08420728 0.039540894 0.033199277
000130 6f 0e 85 3d 17 23 83 bd 7a c7 fe 3b 75 28 a7 3b
       0.064968936 -0.06403177 0.0077752443 0.0051012584
000140 4d a2 51 bd a2 79 f8 bd a2 d9 f5 bc de c9 fd bd
       -0.051180173 -0.121325746 -0.030011002 -0.12392019
000150 d5 11 c8 bd 05 f6 de bc b5 7c ac 3d 2e 11 64 3e
       -0.09769026 -0.02721692 0.084222235 0.22272179
000160 bc 2f 10 bd fc 51 d5 3c a4 08 26 bd d3 b6 3d bd
       -0.035201773 0.02604007 -0.040535584 -0.046316933
000170 7a 48 0f 3e 99 3d 96 bd 13 43 42 3e 2a af 9c bd
       0.13992491 -0.073359676 0.189709 -0.076505974
000180 1c 45 9d bc d6 58 81 bd 88 16 ed 3d 79 33 9b 3c
       -0.019197993 -0.06315772 0.11576563 0.018945443
000190 42 61 34 3d 71 e1 d7 3c 5f 2b d8 3c fa ba 33 bd
       0.044038065 0.026352616 0.026387868 -0.043879487
0001a0 8b 33 e4 3c 2b df a9 3c a6 a3 3c 3e b8 5d 5d bd
       0.027856609 0.020736298 0.18421802 -0.054044455
0001b0 a2 28 42 bd da 21 47 bd c7 2b 2c bd e9 64 55 bd
       -0.04740203 -0.048616268 -0.042033937 -0.05209819
0001c0 85 bc 1e 3d eb 00 6a bd 79 8a 1b 3e c4 cd 19 bb
       0.038754005 -0.05712978 0.15189542 -0.0023468593
0001d0 88 d0 91 bd 98 48 6a bd d9 e2 24 3e c8 85 25 3d
       -0.07119852 -0.057198137 0.1610216 0.040410787
0001e0 11 d9 d7 3c b8 17 47 3d 73 89 c8 bd 5c 97 a3 bd
       0.026348623 0.048606604 -0.09791841 -0.07987854
0001f0 e9 f4 4c 3d b5 75 dd bc 6b f0 2a be 84 dc fd bd
       0.050038252 -0.027033666 -0.16693275 -0.12395576

fc3.weight f4 [100, 128]
000000 40 e9 42 bd fb 48 1c be a5 b0 f0 bd ba b1 3e bd
       -0.047585726 -0.15262215 -0.11752442 -0.046556212
000010 ce eb 32 3d f1 34 70 bb fa 36 21 3d 00 ac fa 3b
       0.043681912 -0.003665265 0.03935907 0.0076498985
000020 00 44 64 bc 84 88 a5 bd 86 89 2a bd 57 bb a1 bd
       -0.013932228 -0.08082679 -0.04163506 -0.0789706
000030 50 b4 10 3c d1 14 e6 bd 86 5f 03 3d 68 b0 47 bd
       0.008832052 -0.11234439 0.03207352 -0.04875222
000040 0d 04 22 be 7c d4 b6 3c 8f 8f 52 bd 5e b5 e4 bd
       -0.15821858 0.022318117 -0.05140644 -0.111674055
000050 39 30 31 be 84 2c 00 bc 6a 66 45 3d 50 50 a9 bd
       -0.17303552 -0.007823113 0.048193373 -0.082672715
000060 da dd 42 bd 9b 51 20 3c e8 e3 30 3c e4 ca 57 be
       -0.047574855 0.009785081 0.010796525 -0.2107349
000070 c1 eb ac bd 49 8f 53 bd c8 c2 14 3d b7 d5 9f bd
       -0.08443404 -0.05165032 0.03631857 -0.07804435
000080 80 d4 f9 3a 27 de 8b bd 40 4e 81 bb 87 16 5f be
       0.0019060522 -0.068294816 -0.0039460957 -0.21785937
000090 38 67 ca bc 9c 51 14 3d c8 4d 83 bc 2d ae 8f bd
       -0.024707422 0.03621064 -0.0160283 -0.07015643
0000a0 78 13 d1 bd 4c d5 43 bd e4 08 8a bd 58 32 14 bd
       -0.102087915 -0.047810838 -0.06739977 -0.036180824
0000b0 0d e5 0b be de c5 cb bc 1a e7 d1 3c ef 50 20 be
       -0.13661595 -0.024874624 0.025622893 -0.15655874
0000c0 d2 bd b4 bd ab fb 09 be 88 6f da 3c c7 06 27 be
       -0.08825268 -0.1347491 0.02666451 -0.16311179
0000d0 51 3a ca bc 30 aa d5 bd 33 03 79 be fa 53 3d bd
       -0.02468601 -0.10432851 -0.24317627 -0.046222664
0000e0 9c c3 09 3d 95 d2 49 be fa 34 16 bc f0 c8 7b 3c
       0.033633813 -0.19709237 -0.009167904 0.015367731
0000f0 40 30 57 be dd 91 a3 3d ae e3 71 be 66 d2 d8 bc
       -0.210145 0.079868056 -0.23622009 -0.026467513
000100 7c d3 8d 3c 9c 16 12 3d 38 ac 32 3c 6c 79 b9 bc
       0.017312758 0.035666093 0.010905318 -0.022640906
000110 9a 98 75 3d c0 40 5f bb c0 61 a3 ba 99 e6 8f 3d
       0.059959985 -0.0034065694 -0.0012465045 0.07026405
000120 44 88 36 bd 5b b1 df bc 1d 44 89 3d a0 46 68 3b
       -0.044563547 -0.02730625 0.06702445 0.0035442486
000130 3b b5 38 be 43 bb b2 bd 32 96 94 bd 50 a4 47 bc
       -0.18037884 -0.087271236 -0.0725521 -0.012185171
000140 58 ae 94 3c 69 c3 5e bd 66 d3 b4 bd c2 3f 41 bd
       0.01814954 -0.054385576 -0.088293836 -0.047179945
000150 01 de ad 3d cf f5 16 be 19 d7 79 be f1 24 89 bd
       0.084896095 -0.14742206 -0.2439846 -0.06696499
000160 2a 44 d4 bc d0 80 39 3c 1b ec 46 bd 1c e9 81 bc
       -0.02591141 0.011322215 -0.04856501 -0.015858226
000170 29 58 15 be 06 d1 3d 3d e4 3d 22 be df 89 9a bd
       -0.14584412 0.04634192 -0.15843922 -0.07545828
000180 69 98 25 be 02 89 34 bd 5c 75 95 bd 71 a3 ff bd
       -0.16171421 -0.044075973 -0.07297775 -0.12482346
000190 18 eb 1d 3c d8 cf 43 be 34 dc 3f be 10 d8 80 bd
       0.00963857 -0.19122255 -0.18736345 -0.06291211
0001a0 59 29 47 bd f4 a7 b6 bd d5 25 90 bd d8 44 2b be
       -0.048623417 -0.08918753 -0.07038466 -0.1672548
0001b0 10 24 f6 3b 1a 98 7e 3d 3a 7e 4e 3d 6d 7c e1 bd
       0.007511623 0.062156774 0.050413348 -0.110100605
0001c0 36 64 5f 3d 8b 2c ea bd 25 81 2b bd 00 2e 71 bc
       0.054538928 -0.11434277 -0.04187121 -0.01472044
0001d0 1e f8 40 3d cc b1 00 3d 87 d8 97 bd 62 48 47 be
       0.047111623 0.03141956 -0.07414346 -0.19461206
0001e0 96 54 5b be de 78 65 3d 8e 66 60 be ac ef 0f be
       -0.21418986 0.05602347 -0.21914122 -0.14056271
0001f0 3d a6 88 3d d2 35 3b be 1f ff 36 3d cc 7e 43 be
       0.066723324 -0.1828225 0.044676896 -0.19091338
000200 1c 0d 7f 3c 04 fd b1 bd 01 32 b3 bd ce e4 6d be
       0.01556709 -0.08690837 -0.08749772 -0.23231813
000210 37 4b 80 bd 86 fc 34 bd 59 99 a6 bd 83 90 b3 3d
       -0.06264346 -0.044186138 -0.081347175 0.08767798
000220 68 eb 60 bd 09 da 92 be 60 83 b5 bb 60 7a 90 3b
       -0.054912 -0.28681973 -0.0055393428 0.0044091195
000230 d4 4e c7 bc 89 7c a5 bd 30 27 c4 3b 34 78 97 bd
       -0.02432958 -0.08080394 0.005986117 -0.07395974
000240 d7 60 7a be b0 54 67 bc 07 60 5d be 4e 6d 07 be
       -0.24451004 -0.014119312 -0.21618663 -0.1322529
000250 5e 9d 60 be 1c 70 bb bc 14 28 ad 3c 62 c6 a6 bc
       -0.21935031 -0.022880606 0.021137275 -0.020358268
000260 fc 0e c9 bd c2 28 15 bd 3d 11 65 bd ae 63 ef bd
       -0.09817311 -0.036415823 -0.055924643 -0.11688934
000270 b8 61 00 be 61 07 a8 3d 14 89 c7 bc a6 62 fb bc
       -0.12537277 0.082045324 -0.024357356 -0.030686688
000280 00 52 29 b9 d8 ae 2e 3c 13 5a 92 3d 80 b0 df bd
       -0.00016147643 0.010661803 0.071460865 -0.109223366
000290 80 1a ab 3b e7 5d af 3d 10 01 4f bc cb f6 af 3d
       0.005221665 0.08562832 -0.012634531 0.08591994
0002a0 64 ae 22 be 00 b8 66 b9 ee 4f 7a bd 66 a8 1f 3d
       -0.15886837 -0.00022003055 -0.061111383 0.038978957
0002b0 32 06 26 be 2f e4 9c bd 16 23 74 3d 35 b2 b1 bc
       -0.16213301 -0.0766071 0.059603773 -0.021691421
0002c0 75 61 1c bd 18 cd ab bd 90 22 69 bc 6c d1 12 3d
       -0.03817888 -0.08388728 -0.014229432 0.03584425
0002d0 2b c1 8c bd f0 52 27 bd 39 e2 25 be 74 59 1d be
       -0.06872781 -0.04085058 -0.16199578 -0.15366155
0002e0 b7 b4 ad 3d e9 b5 e8 bd 9a 1b 29 be 73 a9 8c 3d
       0.08481734 -0.113628216 -0.16514435 0.068682574
0002f0 23 7e 78 be a0 c1 96 bc e9 82 02 be c0 16 9e 3c
       -0.24266867 -0.018402874 -0.12745251 0.019297957
000300 c0 73 3f 3c 68 4e 1b bc 1a e5 af bd c0 09 93 3c
       0.011685312 -0.009479143 -0.085886195 0.017948985
000310 90 5b c2 bb eb 67 89 3d 00 61 63 bb 56 99 2d 3d
       -0.0059313253 0.06709274 -0.0034695268 0.04238256
000320 94 78 47 bd 8e 9f 21 bd 14 d3 3e bd 14 36 d4 bd
       -0.048698977 -0.039458804 -0.04658802 -0.10361877
000330 3f b0 3f be a2 65 08 be 32 be f2 bd 3a 83 83 bd
       -0.18719576 -0.1332002 -0.11852683 -0.06421514
000340 7c 18 00 3d 6f 87 5a be c0 7d c3 bb 1e 20 ed bc
       0.03127335 -0.21340726 -0.0059659183 -0.028945979
000350 4e 9c 40 3d 9f 50 3c bd 78 24 a8 bd 2b e1 85 be
       0.047024064 -0.045975324 -0.08210081 -0.26148352
000360 6b 17 96 bd 67 f7 2e bd 66 37 7a 3d d0 91 e8 3c
       -0.073286854 -0.04271641 0.06108799 0.028389841
000370 8a f8 5b be b6 58 2e bd 6c df 8d bc 71 21 b2 bc
       -0.21481529 -0.04256507 -0.01731845 -0.021744462
000380 4e 8a aa 3d d7 fa 8b bd 8c c6 c4 bd 24 5f 6d bd
       0.08327161 -0.06834953 -0.09608182 -0.05795206
000390 07 3b 2e 3d c7 8c f8 bd 6d 43 0c be 85 86 9a bb
       0.04253676 -0.12136226 -0.13697596 -0.004715743
0003a0 24 e5 5c bd 58 41 c6 bd 22 35 c3 bd 58 30 bb bc
       -0.053929463 -0.09680432 -0.09531619 -0.0228502
0003b0 df 4a a0 bd da 3d 9d bd c0 e4 f8 3c 2b 3f fd bd
       -0.078267805 -0.07677813 0.030382514 -0.12365564
0003c0 60 75 a4 3b bb 67 17 be e4 e4 8c bc 18 68 70 3c
       0.005018875 -0.14785664 -0.017198987 0.014673255
0003d0 ea 1d 54 3d b0 f8 c3 3b 2b 7e 27 be 2c 82 bd bd
       0.05178634 0.0059805736 -0.16356723 -0.09253344
0003e0 33 33 e5 bd 20 3c 93 bb 76 80 9e bd b7 b0 14 be
       -0.11191406 -0.0044932514 -0.07739346 -0.14520536
0003f0 c7 16 ac 3d 3f 5b 41 be 4e 73 d3 bd 5b ad 31 be
       0.08402782 -0.18882464 -0.10324727 -0.17351286

fc3.bias f4 [100]
000000 eb 88 38 be 41 c0 90 be ab 09 92 be 9a 0d 3a be
       -0.1802098 -0.28271678 -0.28523 -0.18169251
000010 2e a1 50 be 95 c1 71 be 60 7d 5d be 06 3d 8d be
       -0.20373985 -0.23609002 -0.21629858 -0.2758562
000020 66 30 98 be a7 73 75 be c4 dd 7a be 46 87 7f be
       -0.29724425 -0.23969899 -0.2449866 -0.24953946
000030 0e a4 93 be cf fd 94 be 74 df aa be df 62 a6 be
       -0.288361 -0.2909989 -0.33373606 -0.32497308
000040 00 c4 b1 be 66 0d 49 be 50 5c 23 be 7d 61 93 be
       -0.3471985 -0.19634017 -0.15953183 -0.28785315
000050 1e 93 75 be 2f 2d 66 be 87 91 b8 be c0 35 99 be
       -0.23981902 -0.22478174 -0.3604853 -0.2992382
000060 4a 75 99 be 80 e2 4f be 74 ee 81 be 8d 44 a4 be
       -0.29972297 -0.20301247 -0.25377238 -0.3208355
000070 0c 04 98 be 77 87 6d be 55 0d b1 be 4d d4 63 be
       -0.29690588 -0.23196207 -0.34580484 -0.22248955
000080 2f e7 b0 be 0f 36 c3 be 4c ba 11 be 8f 1c af be
       -0.3455138 -0.3812718 -0.14231223 -0.34201476
000090 51 c8 3a be 8d d0 77 be 79 f8 2d be 03 86 79 be
       -0.18240477 -0.2420065 -0.16989316 -0.24367528
0000a0 97 12 6c be 78 59 95 be 2e 38 2f be d5 5f 91 be
       -0.23053966 -0.29169822 -0.17111275 -0.28393427
0000b0 47 bd a7 be 68 bf a0 be 6f 16 97 be d7 94 96 be
       -0.32761595 -0.3139603 -0.29509303 -0.2941043
0000c0 1d 1f 40 be ad 18 96 be c0 57 ae be 82 33 9b be
       -0.18761869 -0.293157 -0.34051323 -0.30312735
0000d0 99 da 84 be 48 23 98 be 53 9d a0 be d1 f6 a5 be
       -0.25948027 -0.29714417 -0.3137003 -0.32414868
0000e0 44 84 84 be 46 ac 32 be 9a c4 9a be 25 32 7b be
       -0.2588216 -0.1744853 -0.3022812 -0.24530847
0000f0 19 93 4e be 38 dd 8f be 5d 20 78 be b1 27 7f be
       -0.20173301 -0.28098464 -0.24231096 -0.24917485
000100 f9 78 9b be 10 31 66 be 2f 7e 9e be 47 08 ba be
       -0.30365732 -0.22479653 -0.30955645 -0.3633444
000110 68 d2 94 be 3c 7c 8c be e0 ed ae be 7e 58 c5 be
       -0.29066777 -0.27438533 -0.3416586 -0.38544077
000120 da 1e 90 3c 11 36 8d be f1 be a8 be 28 f4 56 be
       0.017592836 -0.27580312 -0.32958177 -0.20991576
000130 96 f2 2e be c4 09 21 be 52 ec 6d be b1 8e 88 be
       -0.17084727 -0.15726382 -0.2323468 -0.26671365
000140 99 30 8a be eb a8 b5 be c8 18 b5 be ab 90 5c be
       -0.26990202 -0.35480437 -0.3537047 -0.21539561
000150 4d 2e 90 be ea 78 af be f8 23 8c be e3 89 61 be
       -0.28160325 -0.34271938 -0.27371192 -0.22025256
000160 c3 a7 6b be 80 35 76 be 93 5b 1e be f6 bd 9b be
       -0.23013215 -0.24043846 -0.1546462 -0.30418366
000170 73 e4 04 be 55 f2 9a be fc 12 9d be f8 1f 86 be
       -0.12977771 -0.3026301 -0.30678546 -0.26196265
000180 75 a8 85 be 43 f3 71 be 90 08 7e be 4e 0d 71 be
       -0.26105085 -0.23627953 -0.24807954 -0.23540232
