DQN/checkpoint.pth (torch, 125739 bytes, 10 tensors)

ip_bn.weight f4 [8]
000000 30 35 9d 3f 00 00 80 3f 00 00 80 3f 00 00 80 3f
       1.2281857 1.0 1.0 1.0
000010 00 00 80 3f 00 00 80 3f 00 00 80 3f 00 00 80 3f
       1.0 1.0 1.0 1.0

ip_bn.bias f4 [8]
000000 bb ee 9a 3d 52 05 16 bc ef 76 2d 3c 79 c4 eb 3a
       0.075650655 -0.009156542 0.010587438 0.001798763
000010 d0 15 31 3b 29 30 b2 3b 4d a5 d2 bb a0 95 72 bc
       0.0027021058 0.00543787 -0.006428397 -0.014806181

ip_bn.running_mean f4 [8]
000000 9c 74 4e 42 fb ff 27 42 fd ff 2f 42 f7 ff 3f 42
       51.613876 41.99998 43.99999 47.999966
000010 f8 ff 5b 42 fd ff 91 42 f5 ff 99 42 f5 ff b7 42
       54.99997 72.99998 76.999916 91.999916

ip_bn.running_var f4 [8]
000000 06 71 99 43 04 00 00 00 04 00 00 00 04 00 00 00
       306.883 6e-45 6e-45 6e-45
000010 04 00 00 00 04 00 00 00 04 00 00 00 04 00 00 00
       6e-45 6e-45 6e-45 6e-45

fc1.weight f4 [128, 8]
000000 58 bf 27 3e 2f 20 2b be 2a d6 7d 3d 20 f3 ac bd
       0.16381586 -0.16711496 0.06197182 -0.0844481
000010 22 b8 c1 3c cc b2 89 3d 72 54 38 bd d7 f3 88 be
       0.023647372 0.06723556 -0.04500241 -0.26748535
000020 a3 5c 12 ba 09 f6 a7 be f0 31 25 be 24 f9 f6 bd
       -0.0005583262 -0.32804897 -0.16132331 -0.120592386
000030 39 77 0c be 75 ff 81 3e bb 41 4e 3d 83 85 f5 3d
       -0.13717355 0.2539021 0.050355654 0.11988356
000040 8b 2a 0c bc 24 ff 67 be b9 a9 8b be f3 50 95 3e
       -0.008555065 -0.22655922 -0.27277926 0.29163322
000050 b7 6d 9f be f7 e6 28 bb a1 24 97 3c 33 f4 0e 3e
       -0.31138393 -0.0025772431 0.018450083 0.13960342
000060 39 03 a8 bb e2 d3 28 3e 56 e0 89 be 78 b8 57 be
       -0.0051273373 0.16487077 -0.26928967 -0.21066463
000070 56 55 5d be c9 c1 18 be 49 b1 d8 be cd ec d5 bd
       -0.21614584 -0.14917673 -0.42322758 -0.10445557
000080 cf 90 19 3d a1 0b 61 3e ef 44 d8 bd 78 a3 c9 bd
       0.037491616 0.21977092 -0.10560023 -0.09845632
000090 3d e1 17 3e 94 08 0c be 36 b5 99 bd b0 76 83 bd
       0.14832015 -0.13675147 -0.07505266 -0.06419122
0000a0 e9 61 5e 3b de 7e 8f be f1 31 8d bd fe 72 09 bd
       0.003393287 -0.2802648 -0.06894291 -0.03355693
0000b0 69 29 29 3d 95 93 39 3e a5 fa fd 3d 4c 2d 8f 3d
       0.041299257 0.18122704 0.12401322 0.069910616
0000c0 25 56 d6 3b 0b eb 9e 3d b6 9c 0c 3c 0b b5 33 3e
       0.006541031 0.07759675 0.008582285 0.17549531
0000d0 f6 81 a1 3e 84 cb 67 3e 57 dd 0d be cf e6 68 3d
       0.31544465 0.22636229 -0.13853966 0.05686074
0000e0 d2 60 b3 3b b0 2d 7d 3e da 78 84 be d2 f8 90 3e
       0.0054741884 0.2472446 -0.25873452 0.28314835
0000f0 8a 2f 01 3e 21 2b 3f be df bc 93 bd 8f 88 cb 3e
       0.12615791 -0.18668796 -0.07213759 0.39752623
000100 aa 91 ff 3e 25 fc 14 3e 0e 94 19 3e 8a 41 82 bd
       0.4991582 0.1454931 0.14997885 -0.06360157
000110 10 e9 e7 bc b7 6a 84 3d 72 5a 6a be 60 19 f6 3d
       -0.028309375 0.06465667 -0.22886065 0.12016559
000120 fa 69 97 bb f0 62 94 3d d5 e4 a5 be 14 d4 ad 3c
       -0.0046207877 0.07245433 -0.32401147 0.02121929
000130 dd b6 ed 3c 5d 97 53 be 47 6d 22 be 89 67 6d bd
       0.02901786 -0.2066321 -0.15861998 -0.057960067
000140 6f 47 f6 3e 89 02 30 be fd c3 bf be fc 21 ef bc
       0.48101375 -0.17188467 -0.37454215 -0.02919101
000150 56 96 27 be 56 a0 bc 3d a7 98 2c be 78 95 86 3d
       -0.16365942 0.09210269 -0.16855107 0.06571478
000160 a1 5c 8c bb 29 be e7 bd 35 cc 9f be 2a f7 a2 be
       -0.004283503 -0.11315567 -0.31210485 -0.31829196
000170 1e de 47 3e dc c6 03 3d 3c c8 f1 3d af 91 96 3e
       0.19518325 0.03217207 0.1180577 0.29408023
000180 53 8d 8f be 55 48 ab be 99 0e a8 be 8f 98 a7 bb
       -0.2803751 -0.33453622 -0.32823637 -0.005114622
000190 bf ca 23 bc 3d b6 fc bd 61 f7 3c be 34 67 12 3c
       -0.009997069 -0.12339447 -0.18453743 0.008935738
0001a0 d8 3b c1 3e 96 00 25 bd 9f 3f 07 3e c0 12 2e 3e
       0.3774097 -0.040283762 0.13207863 0.1699934
0001b0 17 5b 30 be 0c 8c 58 3d 04 78 62 3e 65 0d 3e be
       -0.17222248 0.052867934 0.22116095 -0.18559797
0001c0 b4 57 c2 39 83 52 01 3d a4 52 a0 be 4f e0 19 bd
       0.00037067907 0.03157283 -0.3131305 -0.037567433
0001d0 1a 8f cf bd 1c 00 90 3e b8 3b 47 bb cf 5e 1e 3e
       -0.10134716 0.28125083 -0.0030400585 0.15465854
0001e0 68 26 fb bb 5c 9c 02 3e eb e5 1d bf 5e a3 60 3e
       -0.0076644905 0.12754959 -0.6167895 0.2193732
0001f0 44 73 b3 3d 46 b7 c3 be e1 9b 40 be 3b 74 95 3e
       0.087622195 -0.38225764 -0.18809463 0.2919024
000200 36 13 bc be 3c 13 9c bd 8d d5 bb bd 78 b2 70 bc
       -0.36733407 -0.07620856 -0.09171591 -0.014690988
000210 28 f7 98 be 76 72 37 be 49 1f 95 bc ee c2 07 3e
       -0.29876065 -0.17914757 -0.018203394 0.13257954
000220 c9 64 5f 3e 18 1b d4 be 81 e6 ec 3e 6a 07 52 3a
       0.2181579 -0.4142692 0.4626961 0.0008011969
000230 ad 71 96 be 6e 1f 2d 3e 72 03 2b 3e 0b f5 56 3e
       -0.29383603 0.1690652 0.16700533 0.20991914
000240 a6 3d 5d bb c8 fc ac 3e 03 35 14 bf 5d cc c8 3d
       -0.003375867 0.33786607 -0.5789339 0.09804604
000250 bb 6c 9c 3e 22 26 98 bd d7 bf a9 bd 24 05 ab 3d
       0.30551705 -0.07429148 -0.08288544 0.0835059
000260 51 e8 71 bb 1a c7 42 3e e9 e6 8f be 66 c4 2e be
       -0.0036912153 0.19021264 -0.28105858 -0.17067108
000270 7a 7b 6d be 54 3a 6c 3d 81 78 f9 3d d0 c7 9a 3e
       -0.23191634 0.057672814 0.121811874 0.3023057
000280 ed 2d e5 be a5 60 aa 3d 90 0f 27 3e b2 fd 16 be
       -0.447616 0.08319215 0.1631453 -0.14745215
000290 1e b4 bb 3c 1b 0a b8 3d d3 51 b9 bc 4c 38 81 3c
       0.022913035 0.089863025 -0.022622025 0.015773915
0002a0 77 85 ae 3a 0c fd 8f be f9 ff 95 be f8 52 d0 bb
       0.0013314922 -0.28122747 -0.29296854 -0.006357547
0002b0 9f ae df 3d 67 e5 d4 bd fe dc 95 be df 4c fa bc
       0.10921978 -0.103953175 -0.29270166 -0.030554233
0002c0 16 a5 a2 be d6 1a 29 3d b9 92 29 3e bb 3d de 3d
       -0.31766576 0.04128536 0.16559877 0.10851618
0002d0 9f ea 77 be f4 eb cf 3d c9 dc a5 3d 8a d3 d4 3d
       -0.24210595 0.10152426 0.08098752 0.103919104
0002e0 bc 09 e4 bd d0 f3 13 bd f3 e8 b6 be 65 ff 85 bc
       -0.11134669 -0.03612119 -0.357246 -0.016357133
0002f0 30 77 8a 3d 80 89 e2 3d 14 ae 3d bd 00 5d 28 3c
       0.067610145 0.11061382 -0.046308592 0.010276079
000300 40 e7 e5 ba e2 2f a4 3e af 5b f4 be 5a c9 9e be
       -0.0017540231 0.32067782 -0.477262 -0.31012994
000310 d7 06 54 3e d9 49 9d be a9 57 5e bb 61 33 83 3e
       0.20705734 -0.30720404 -0.0033926761 0.25625136
000320 6e cc ab be 07 5c 22 3c 83 df 10 3e 60 8b 26 be
       -0.33554405 0.009909636 0.14147763 -0.16264105
000330 fa 97 1b bd b0 11 5d 3e d5 49 33 3d 31 6e da bd
       -0.037986733 0.21588778 0.043771584 -0.106655486
000340 db 68 ee bd 3a d7 b3 bd de 94 fd be 00 31 0b 3e
       -0.11641093 -0.087812856 -0.4952764 0.13592911
000350 51 5a 90 bd ff a8 5a be 15 e7 ef 3d ff 85 57 3d
       -0.070484765 -0.2135353 0.11713997 0.052618023
000360 7d 9a 80 bc b9 1c 27 be 15 76 47 bd 19 4e 79 3e
       -0.015698666 -0.1631955 -0.048696596 0.24346198
000370 f7 38 d9 3b f5 d7 9f be b7 a4 ca 3e 7e fa 84 3e
       0.006629105 -0.3121945 0.39578792 0.2597236
000380 e0 37 0a bd c7 88 23 be d7 c2 18 be a3 d8 9d 3e
       -0.033744693 -0.15970145 -0.14918076 0.30829343
000390 f2 1f 3d 3e 73 2d 3a be e0 30 67 3c a4 84 94 3d
       0.18469217 -0.181814 0.014110774 0.07251862
0003a0 94 34 fb bb bf 9b 17 bd 16 55 c6 be dd bc dd bd
       -0.00766618 -0.037013765 -0.3873679 -0.108270384
0003b0 e7 2d 25 be 08 c0 3a be 3a ee ce bd 28 47 41 be
       -0.16130792 -0.18237317 -0.10104032 -0.188748
0003c0 9d 5a 07 bc 58 5c 65 3e a4 47 27 bf e1 6e 92 be
       -0.00826135 0.22398508 -0.6534369 -0.2860022
0003d0 32 24 8d 3e ab a0 28 3e 6e 87 21 3d 36 f1 96 3e
       0.27566677 0.1646754 0.039435796 0.29480904
0003e0 5f f6 ab bb 82 52 3d be eb 6c 07 bf 47 29 d5 bd
       -0.0052478756 -0.18488505 -0.5290057 -0.10408264
0003f0 40 63 62 3d 04 c6 40 be 16 11 c2 be e4 b1 81 3e
       0.055270433 -0.18825537 -0.3790366 0.25331032

fc1.bias f4 [128]
000000 62 ee b3 be 30 1f fc bc d3 e3 36 bd 5e cb 25 bd
       -0.3514281 -0.03077659 -0.044650864 -0.04047715
000010 07 6d 3e be 04 80 3d bd a3 50 13 bd 7a 2c 24 bd
       -0.18596278 -0.046264663 -0.035965573 -0.04008148
000020 a8 d7 a7 bd 22 2f 4b bd 00 c5 22 bf 09 f3 01 bd
       -0.0819543 -0.049605496 -0.6358185 -0.031725917
000030 de f9 14 be 14 ff 5f be 83 0a 78 bd 72 d1 64 bd
       -0.14548442 -0.21874648 -0.0605569 -0.055863805
000040 55 9c 98 be 4b be 98 be f7 95 0c bd e5 11 46 bd
       -0.29806772 -0.29832682 -0.034322705 -0.04835691
000050 87 a3 ab be ab 57 fd bc 53 5a 92 bd ad ce 4d 3e
       -0.335232 -0.030925592 -0.07146134 0.20098372
000060 f8 e8 1c bd 9c 67 ac be 51 6b 8c be 54 79 09 bd
       -0.038308114 -0.33672798 -0.27425626 -0.033562973
000070 17 61 b3 be 88 d4 47 bd a6 70 49 bd d9 15 22 bd
       -0.3503501 -0.04878667 -0.049179696 -0.039571617
000080 f4 c4 da bc 87 36 2f bd 2f b9 44 bd 45 92 31 bd
       -0.026705243 -0.04277661 -0.048028167 -0.043352384
000090 51 fa 53 bd 84 b9 58 3d 2a 7e 73 bd 36 20 f3 bc
       -0.051752392 0.052911296 -0.05944649 -0.029678445
0000a0 65 6c b0 be d0 88 a4 be 3c 14 8f be 28 b4 91 be
       -0.34457698 -0.3213563 -0.27945125 -0.2845776
0000b0 62 22 31 be 0b 9d f1 bd aa 1c 6d be 66 0a 4d bd
       -0.17298272 -0.11797532 -0.23155466 -0.050058745
0000c0 78 a0 ce bd 45 a2 d5 bc a2 75 98 be bd 38 7e be
       -0.10089201 -0.026078353 -0.29777247 -0.24826331
0000d0 c9 6e 08 bf 08 25 0c bf dd 51 46 be db a2 85 be
       -0.53294045 -0.54744005 -0.19367166 -0.2610081
0000e0 75 64 13 bd 45 fa f2 bc 5a f5 5f bd 15 e7 b1 3c
       -0.035984475 -0.029660353 -0.054677345 0.021716634
0000f0 a4 99 38 bd ae d9 13 bd 46 c0 ad be fd e4 59 bd
       -0.045068398 -0.036096267 -0.33935755 -0.053196896
000100 ea 79 a9 be 68 56 ab be 86 88 78 3d 32 f4 b3 be
       -0.33100826 -0.3346436 0.060677074 -0.35147244
000110 97 cc 3c bd f5 5e 71 3d c5 e7 41 bd 2c 9a c1 be
       -0.04609355 0.05892845 -0.047340173 -0.37812936
000120 4a 64 3c bd 0e eb 39 bd 76 31 3c be 88 f9 2d bd
       -0.04599408 -0.04539018 -0.18378243 -0.0424743
000130 13 62 ae be 2f 68 8f be 4e b0 9e be eb 74 39 bc
       -0.340592 -0.28009173 -0.30993885 -0.011319379
000140 41 c7 fc bc 90 fc b6 bd f6 ab 9a be a1 db 44 bd
       -0.03085673 -0.08934891 -0.3020932 -0.048061017
000150 e6 29 84 be ab 8e ad bc 6b 9a 34 be c7 7b 8a be
       -0.25813216 -0.021186193 -0.17637031 -0.2704756
000160 dd f5 db be e4 49 09 bd 07 1d f0 bc 14 4b 45 bd
       -0.42961016 -0.033517733 -0.029310716 -0.048167303
000170 ae 66 55 be 7f 53 35 bd 8b 3b 34 be f6 54 80 be
       -0.2083995 -0.04426908 -0.17600839 -0.2506482
000180 b0 25 85 be cf 5b 2b bd ee 1c 25 bf ed 36 cb be
       -0.26005316 -0.041835602 -0.6449727 -0.39690343
000190 44 4a 53 bd 25 dc f6 bc e3 59 98 be 64 89 69 be
       -0.051584497 -0.03013427 -0.29756078 -0.22806317
0001a0 28 89 55 be 92 2f 40 bd 30 b0 73 bd fc 96 a3 be
       -0.20853102 -0.046920367 -0.059494197 -0.3195113
0001b0 a3 72 48 be 28 ed 5b bd bd 62 14 3e 32 38 19 bd
       -0.1957498 -0.053692967 0.1449079 -0.037407108
0001c0 f8 9a 26 be f3 87 b1 be 3c c5 11 3e 9f 78 77 be
       -0.16270053 -0.34674034 0.14235395 -0.24167107
0001d0 62 0d a4 be e0 1b d7 3d 99 3d 0f bd da 35 3b be
       -0.3204146 0.105033636 -0.034970853 -0.18282261
0001e0 bd 02 ae be ca 44 34 bd 92 b7 83 bc 86 49 20 be
       -0.33986464 -0.044010915 -0.016078744 -0.15653047
0001f0 01 22 bb bd af 8f 65 bd 03 12 c8 bc d0 6a 2b bd
       -0.09137345 -0.05604523 -0.024422651 -0.04184991

fc2.weight f4 [128, 128]
000000 1d ef 38 be 01 2a 40 bd 4b a6 db bd 47 15 19 bd
       -0.18059964 -0.046915058 -0.10725077 -0.037373807
000010 17 5e f9 bd d2 dc 96 3c 15 68 d2 bd da bf a0 3c
       -0.12176149 0.018415842 -0.10273758 0.019622732
000020 50 3d 49 be fe e0 8e bd 1b da 20 3e 3f 1d d1 bb
       -0.19652295 -0.069765076 0.157082 -0.0063816602
000030 ff eb f1 bd cf 15 85 bd 56 28 3e bd 99 d1 fe bb
       -0.11812591 -0.064983 -0.046425186 -0.007776451
000040 d8 56 ec bd 69 73 71 3d e9 42 85 bd 97 15 48 3d
       -0.11540002 0.058947954 -0.06506903 0.048848715
000050 b7 c7 70 be bb 98 fa 3c 82 f3 d8 bd bf 5d 3d bd
       -0.23513685 0.030590406 -0.105933204 -0.04623198
000060 f3 91 a5 3c fc 3d 46 be 0d 1b 97 bd 99 ab e8 3c
       0.020211196 -0.19359583 -0.073782064 0.028402137
000070 09 53 ab 3d f1 3b b2 bd f7 c8 7d bc 93 e9 58 3c
       0.08365447 -0.08702839 -0.015489808 0.013239282
000080 a8 11 42 3d b9 4f d7 ba 08 21 a1 3d a4 80 ef bd
       0.04738012 -0.0016426957 0.07867628 -0.11694458
000090 a9 b5 03 be d0 21 45 bd 4f 14 5d bd 3a b0 b8 3c
       -0.12862267 -0.04812795 -0.053974446 0.022544969
0000a0 4c 63 9e 3c 10 d8 c8 3b 79 0c 66 be b6 7d 2b 3d
       0.019334458 0.0061292723 -0.22465695 0.041867934
0000b0 c7 69 93 bd ad dc e1 bd ff a0 a7 bd 2c dd 27 3c
       -0.0719791 -0.11028419 -0.081850044 0.010245603
0000c0 64 d8 d8 bc c7 ab 69 3d 55 70 2e bb 80 7b e1 3d
       -0.02647037 0.057048585 -0.0026617248 0.11009884
0000d0 1b 13 cf bc 86 7c 8e bd 7c 78 79 bb 75 44 5f bd
       -0.025277665 -0.06957345 -0.00380662 -0.054508645
0000e0 c0 d1 f4 3c 0b 71 d5 3c 6e 03 5e bd e1 19 18 bd
       0.029885173 0.02605488 -0.05420249 -0.037134055
0000f0 01 70 b2 bc 45 86 90 bd c8 03 66 be e9 dc 37 3d
       -0.021781923 -0.0705686 -0.2246238 0.04488841
000100 1c 58 f9 bd 48 bb 49 bc 6b b6 f1 3c 3c b6 b4 be
       -0.12175009 -0.012312718 0.029505929 -0.35295284
000110 36 55 24 be 04 8a ff bd ed da 2a 3d 58 50 c7 be
       -0.1604813 -0.12477496 0.04171269 -0.38928485
000120 78 9e a5 3d 7b 73 8d bd aa 7b e3 bc 0d 38 32 bc
       0.08086866 -0.06906792 -0.027768929 -0.010877621
000130 9f 6f 9f bd 78 f0 54 be 55 65 11 be 4e 3b 31 ba
       -0.07784962 -0.20794857 -0.14198811 -0.0006760851
000140 3d 1c eb bd d5 97 94 3d 06 b3 1c bc 49 ce f8 3c
       -0.114799954 0.07255522 -0.009564167 0.030371802
000150 ca c5 6d 3d b4 66 83 3c ef 68 64 bd 1d ee 87 3d
       0.058049954 0.016040184 -0.055764135 0.066372134
000160 9d c2 8e be ba 8f cc bd cb be 1d bd d8 43 cf 3a
       -0.27882853 -0.09988351 -0.038512032 0.0015813066
000170 3f c7 26 be 86 c1 d4 bd 7c 39 0c 3c 65 c0 c6 3d
       -0.16286944 -0.10388474 0.008558627 0.09704665
000180 7a df 72 bd 63 3e 20 3d ca 22 0a 3d 40 66 02 3c
       -0.059295155 0.039121997 0.033724584 0.007958949
000190 3b 39 c4 bd a9 76 ab 3c 02 f2 36 3d 01 65 22 bd
       -0.09581228 0.020930605 0.04466439 -0.039647106
0001a0 01 98 1b be 4c ee ff 3c 7a ff e0 bc 53 de 9b be
       -0.15194704 0.031241558 -0.02746557 -0.30443057
0001b0 5e 65 81 bd 76 21 dc bd 52 70 84 bd 9c 7d 6c bd
       -0.063181624 -0.1074857 -0.06466736 -0.057736978
0001c0 fc f0 31 be 40 ef a1 bd 18 d7 dd bd c5 3b d7 3d
       -0.17377084 -0.079069614 -0.108320415 0.10509447
0001d0 85 7d 91 bd 44 97 d5 bd fa a6 c3 bd d0 4c 8f 3b
       -0.07104019 -0.10429242 -0.095533326 0.0043731704
0001e0 7a 80 3b 3d c1 6d 2f 3d 58 01 53 3b 7a a9 88 be
       0.04577682 0.04282928 0.0032196846 -0.266918
0001f0 73 92 89 bd ae b0 87 bd 3d e8 20 bd 23 65 d6 bc
       -0.06717386 -0.06625496 -0.03928398 -0.026171273
000200 07 e1 29 3d 10 7d 39 3d d6 55 59 bd 7a fc 78 bd
       0.04147437 0.045285285 -0.053060375 -0.060787655
000210 63 7f 1e 3d 19 96 5c bd 96 b0 d5 bc 2e 6d c1 bd
       0.038695704 -0.05385408 -0.02608518 -0.094446525
000220 82 1b 58 3d 88 bd fd 3c 1f c5 ae bd 80 43 93 3a
       0.05276061 0.030974165 -0.085336916 0.0011235327
000230 a7 14 8b 3d 42 f5 8d bc 51 01 8a 3d e9 bf 9c bd
       0.067910485 -0.017328862 0.06738532 -0.076537915
000240 54 e6 90 3c 40 d6 94 bd 5a 20 41 bd 82 4d 1a 3d
       0.017687954 -0.072674274 -0.047149993 0.037671573
000250 bc 22 79 bd fc a1 80 bc 62 f9 3c 3d 4e 97 5e bd
       -0.06082414 -0.01570224 0.046136267 -0.054343514
000260 da fa 5e bd 89 13 82 3d 1d 2a 9f 3d e9 72 c2 bd
       -0.05443845 0.06351382 0.07771704 -0.094945736
000270 d7 15 8a 3d bc 99 95 bd 51 1f 7b bb 95 97 8b bd
       0.06742447 -0.07304713 -0.0038318227 -0.06816021
000280 58 bc ab bd 97 89 26 bd 80 9b 09 3a 77 46 c9 bc
       -0.08385533 -0.04065856 0.00052493066 -0.024569733
000290 62 3e 92 bc 65 df 8c bc 51 49 81 3d 94 fd af 3c
       -0.017852012 -0.017196367 0.06312812 0.02148322
0002a0 c6 23 ae bd f2 0c 7a 3d 87 66 88 bd fd 4c 56 3d
       -0.08502917 0.0610475 -0.066601805 0.052319515
0002b0 c0 07 85 bd 8b 06 d1 bd d9 9b 84 3d a4 a3 3d 3c
       -0.06495619 -0.10206326 0.06475038 0.0115746595
0002c0 36 84 ad bd 80 fc 55 3b d6 cc 54 3d 90 47 ae bb
       -0.08472483 0.0032651722 0.05195316 -0.0053185895
0002d0 67 f3 94 3c e0 02 1e 3c 96 5d 24 3d 82 68 65 bd
       0.01818247 0.00964424 0.040128313 -0.05600787
0002e0 2b a8 a9 3d 7f 8f c4 bd 4f e8 6e bc 1c 64 9a 3c
       0.082840286 -0.09597682 -0.014581754 0.018846564
0002f0 9c 07 a2 3d 01 5d 2a bd f8 b3 53 bc 1a 9e 22 bd
       0.079116076 -0.0415926 -0.012921326 -0.03970156
000300 ee 7e 6e bc 58 c7 a2 bd f2 b5 6f 3c 01 b8 ac bd
       -0.01455663 -0.07948178 0.0146307815 -0.084335335
000310 7f 44 60 bd 5d 98 55 bd 3b 90 85 bc cc a1 90 bd
       -0.054752823 -0.052147258 -0.016304126 -0.0706211
000320 0d a4 1a 3d 6e ee 57 bd da fb 31 bd df e1 a3 3d
       0.037754107 -0.05271762 -0.043453075 0.08002066
000330 ba cf 78 3d 4d c1 8f bd 5f 40 85 bd bd 02 0f bd
       0.06074498 -0.07019291 -0.065064184 -0.03491472
000340 54 c3 b4 bc 30 01 95 3c ba fa 07 bd b9 f2 af 3d
       -0.022065796 0.018189043 -0.033198096 0.085912175
000350 2e 4a 56 3d 2b 4a 04 bd 90 75 e1 3b a7 24 53 bd
       0.052316837 -0.032297295 0.0068804696 -0.051548626
000360 b0 b7 16 bc d6 19 cb 3c 05 ba 80 bd eb 77 74 3d
       -0.009199068 0.024792593 -0.062854804 0.059684675
000370 2f 00 4c bd 8a 1e 56 bd bf b7 85 bd bb 5f 8b bd
       -0.049804863 -0.052275218 -0.065291874 -0.068053685
000380 c6 8f 13 3d 3b 28 bd bd 4a 20 14 bd b5 f3 6a bd
       0.036025785 -0.09236189 -0.036163606 -0.057361323
000390 f1 fd 7e 3d e0 fb 6a 3d 93 10 9e 3d 40 fc 00 bc
       0.062253896 0.057369113 0.07718005 -0.007872641
0003a0 73 d1 24 bd 40 f5 2c 3c 61 a4 ed bc 5e ab a2 bd
       -0.04023881 0.010556519 -0.029009046 -0.07942842
0003b0 e8 7d 89 bd db a5 8f bd 14 c0 c0 3c 48 31 82 3c
       -0.06713468 -0.07014056 0.02352909 0.01589264
0003c0 88 8f 66 3c d0 55 dc bb 3a 8d 7b 3c 0b 97 7e 3d
       0.014072306 -0.006724097 0.015353495 0.062155765
0003d0 8d bf e4 3c 3d 07 a3 bd e8 8d 09 bc be 99 89 bd
       0.02792337 -0.07960365 -0.0083956495 -0.06718777
0003e0 1e 35 96 bd db 15 a5 3d de f5 d9 bd 39 ae 43 3c
       -0.0733435 0.08060809 -0.106425986 0.011943393
0003f0 44 a1 b6 3c 85 00 27 3d 78 76 54 bc 9f 01 55 bd
       0.022293694 0.04077198 -0.012967698 -0.0520035

fc2.bias f4 [128]
000000 d4 a8 99 3c 7d a1 96 bd 24 5c 99 3b 49 24 78 bd
       0.018757261 -0.0735502 0.0046801735 -0.06058148
000010 ae dc d5 bb 59 d7 bc 3c 01 9b b3 bd 8b 04 c5 3b
       -0.006526551 0.023051905 -0.08769799 0.0060125045
000020 c1 a0 39 3e 25 44 0d 3d d0 98 44 bd 6a 04 94 bd
       0.18127729 0.034488816 -0.047997296 -0.072274044
000030 e0 4d 62 bd b5 cf 46 bc 79 09 c3 3a e2 65 40 bd
       -0.05525005 -0.012134482 0.0014880142 -0.046972163
000040 ab 46 25 bd ec 52 ab bc 49 5a 8d 3d 37 84 90 be
       -0.040350597 -0.020913564 0.06901986 -0.28225872
000050 d8 32 79 bd c0 d1 29 bd e3 ba b0 bb 4d 44 e9 3c
       -0.060839504 -0.0414598 -0.0053933724 0.028474951
000060 f9 5d 07 3d f4 bc b5 3a 18 2f c8 bd ca 82 a6 bc
       0.033048604 0.0013865517 -0.097746074 -0.020326037
000070 e7 51 27 bd 4b 37 81 bc 59 43 03 bd 40 da c6 ba
       -0.040849593 -0.015773436 -0.03204665 -0.0015171245
000080 45 04 c2 3c e2 6a 1e bd a8 98 78 bd 31 fb 4a bd
       0.023683676 -0.03867615 -0.06069246 -0.04955596
000090 64 3b c3 bd 87 5d 8f bd 5f 15 82 bd 58 d8 55 bd
       -0.09532812 -0.07000261 -0.063517325 -0.052208275
0000a0 f7 09 a7 bd 76 a5 12 bd 4f 92 1d 3d 01 97 e7 bb
       -0.081561975 -0.035802327 0.03846961 -0.0070675616
0000b0 63 03 95 3d 54 a7 58 3c 23 ed 46 bc da c4 c6 ba
       0.072760366 0.013223488 -0.012141499 -0.0015164868
0000c0 45 d9 dd 3c 85 d3 ac 3b 10 99 e4 bc e4 72 7e 3c
       0.027081141 0.0052742385 -0.027905017 0.015530322
0000d0 f2 37 11 bd b9 89 1d 3e af 55 37 3e 48 d4 2a 3c
       -0.035453744 0.15384568 0.1790378 0.010426588
0000e0 22 f3 a1 bd f3 b9 1d bc 36 d5 33 3b c6 a1 9a 3e
       -0.07907702 -0.009626853 0.0027440316 0.30201548
0000f0 67 de 49 3b 80 8b 8f bd 2e 59 54 3d ef a7 9b bd
       0.0030802728 -0.070090294 0.05184286 -0.0760039
000100 7e c2 5a bb b7 3d 5a bc 5c ac fd bc e7 c4 9a 3e
       -0.0033380087 -0.013320378 -0.030965976 0.3022835
000110 37 8b 11 3e a3 3d 8c bd b6 6d 80 bd c4 bd 9c be
       0.14213262 -0.06847694 -0.06270926 -0.3061353
000120 f5 76 4a 3e c6 8d 12 bc 1b 69 41 3b 74 ff 52 bb
       0.19771941 -0.008944934 0.002951211 -0.003219572
000130 69 75 34 bc 4b eb d0 bc 6d 34 56 be 92 b4 e9 3b
       -0.011014321 -0.025502821 -0.20918436 0.0071321214
000140 aa b9 74 bd 44 d0 cc bd 48 f9 3b bd 34 c1 0b be
       -0.059747376 -0.10000661 -0.04589203 -0.1364792
000150 ab af e5 bd 9e d3 34 bd 59 28 b4 bc 7c 9f e4 bc
       -0.11215147 -0.044147126 -0.021991896 -0.02790808
000160 d1 d9 6e bd 0a 81 88 3e a4 08 26 bd 6d ee 5e bd
       -0.058313195 0.2666095 -0.040535584 -0.0544266
000170 e5 ad 7f 3a 99 3d 96 bd ad 15 34 3c 45 e4 a5 bd
       0.00097533903 -0.073359676 0.010991496 -0.081001796
000180 d9 f9 01 bf d6 58 81 bd 77 4b 03 3d aa f8 e3 bc
       -0.5077186 -0.06315772 0.03205439 -0.027828533
000190 7c a7 c8 3c 58 d6 69 3b 64 bd 1d bd 0c 40 e9 bc
       0.024493925 0.0035680737 -0.038510695 -0.028472923
0001a0 7e 68 e3 3d 82 6d 89 3d a7 1f 15 3e f3 e8 aa b8
       0.11103915 0.0671034 0.14562856 -8.149622e-05
0001b0 0c 32 86 bd 60 dd 1c bd d8 c2 6c bd 10 47 6c bd
       -0.065525144 -0.038297057 -0.057803005 -0.057684958
0001c0 10 c1 8e 3c fe 60 b5 be 2b 81 f4 3d 6d ec 93 bc
       0.017426044 -0.35425562 0.11938699 -0.018057073
0001d0 88 d0 91 bd ec 4d 69 bd ee ff 85 3d 5b ed bf be
       -0.07119852 -0.056959078 0.06542955 -0.37485775
0001e0 b6 8e 85 3b f0 61 01 3d ce ac 20 3e 7e a1 94 3e
       0.0040758504 0.03158754 0.1569092 0.2902946
0001f0 b6 eb 8e 3c c1 2f 95 be 6f 38 94 bd 2a 56 aa 3d
       0.01744638 -0.29137996 -0.07237326 0.08317216

fc3.weight f4 [100, 128]
000000 59 16 39 3d 04 5b 1e bd eb 8e 7c bd 58 05 08 be
       0.045187328 -0.038661018 -0.061659735 -0.13283288
000010 ce eb 32 3d a5 7f 49 bb fa 36 21 3d 7d d4 38 3d
       0.043681912 -0.0030746248 0.03935907 0.04512452
000020 3e 4b b9 be 56 28 6a ba 86 89 2a bd 57 bb a1 bd
       -0.36190218 -0.0008932402 -0.04163506 -0.0789706
000030 c0 b4 ee bb 51 56 0e be 33 13 b3 3d 68 b0 47 bd
       -0.0072847307 -0.13900115 0.08743896 -0.04875222
000040 c6 10 80 bd 7c d4 b6 3c 53 05 8d bd 2b 2e 5e 3d
       -0.06253199 0.022318117 -0.06885781 0.054243248
000050 e5 21 01 be 5b d2 00 3d 6a 66 45 3d 41 7b 10 3d
       -0.12610586 0.03145061 0.048193373 0.035273794
000060 af c1 11 3c 4c e8 86 3c e8 e3 30 3c 8e 7d cd bd
       0.008896275 0.01646819 0.010796525 -0.10033713
000070 8a ea 07 bd e6 3d e8 bd c8 c2 14 3d b7 d5 9f bd
       -0.03318266 -0.11339931 0.03631857 -0.07804435
000080 e6 f8 8d bd 27 de 8b bd 40 4e 81 bb a3 ce 00 be
       -0.06932239 -0.068294816 -0.0039460957 -0.12578826
000090 38 67 ca bc 9c 51 14 3d 61 de 8b bd 2d ae 8f bd
       -0.024707422 0.03621064 -0.06829525 -0.07015643
0000a0 d0 71 43 bc 4c d5 43 bd 10 49 4c bd 58 32 14 bd
       -0.0119289905 -0.047810838 -0.049874365 -0.036180824
0000b0 43 5a 94 3d 49 7b aa bd b3 ba ca 3b 9e 2d bc bd
       0.072437786 -0.08324296 0.006186807 -0.09188388
0000c0 f2 81 95 bd b9 98 d8 bc 88 6f da 3c e6 95 24 be
       -0.07300176 -0.026440011 0.02666451 -0.16072807
0000d0 be 39 74 bd 23 00 72 3d a2 3e 6b be 1f 53 8c bc
       -0.05962538 0.05908216 -0.22973111 -0.017129479
0000e0 9c c3 09 3d 51 8f 19 be 65 ce 90 3c 6c 4d 88 be
       0.033633813 -0.14996077 0.017676542 -0.26621568
0000f0 e7 97 a4 bd dd 91 a3 3d d0 42 fb 3d 66 d2 d8 bc
       -0.080367856 0.079868056 0.12268603 -0.026467513
000100 58 ed 60 3c 9c 16 12 3d e1 6b cf ba bc aa e7 bd
       0.013728462 0.035666093 -0.0015824997 -0.11311862
000110 64 d1 44 3e c0 40 5f bb c0 61 a3 ba 82 33 24 bd
       0.19220501 -0.0034065694 -0.0012465045 -0.040088184
000120 22 6e 2a be 29 92 0b bd fe 14 be 3a d1 71 a9 3d
       -0.16643575 -0.034074936 0.0014502106 0.08273662
000130 b7 d3 a9 bd 4b 6c 34 3c ba c9 11 bc 50 a4 47 bc
       -0.082923345 0.011012147 -0.008898193 -0.012185171
000140 58 ae 94 3c 49 19 15 3e 66 d3 b4 bd 69 d0 01 bd
       0.01814954 0.14560427 -0.088293836 -0.031692896
000150 01 de ad 3d 36 7b 5b bd d2 34 ca 3d 5b 5f 8e 3d
       0.084896095 -0.0535843 0.09873356 0.06951781
000160 cc 3b 2f bc ac f8 40 be 1b ec 46 bd 9d d7 b3 bc
       -0.010695409 -0.18844861 -0.04856501 -0.021953398
000170 5b 2c 36 bd 06 d1 3d 3d fa fa 56 b8 7e 00 b1 3e
       -0.044475894 0.04634192 -5.1255316e-05 0.34570688
000180 2b db a8 3d 02 89 34 bd 6a 3c 53 be 58 b4 03 3c
       0.08244928 -0.044075973 -0.20628515 0.008038603
000190 a4 51 c0 3b 72 fe cc bd cc f9 af bd 1b 80 93 bd
       0.0058691073 -0.10009469 -0.08592567 -0.072021686
0001a0 77 6b a1 bd ed cb ec bd 3b 52 ac 3d 39 76 73 be
       -0.078818254 -0.11562333 0.08414122 -0.23775567
0001b0 10 24 f6 3b 8e c2 3d 3d 3a 7e 4e 3d 30 3d 89 bb
       0.007511623 0.04632812 0.050413348 -0.0041882023
0001c0 97 03 e2 3c de dc 95 3d 7c 3d 48 be 00 2e 71 bc
       0.027589602 0.07317518 -0.19554704 -0.01472044
0001d0 1e f8 40 3d cc b1 00 3d a5 49 4d be 55 55 42 bd
       0.047111623 0.03141956 -0.20047624 -0.04744466
0001e0 4a 37 c5 bd e4 96 e1 bd e6 7e e0 bd a5 48 d4 bc
       -0.09629686 -0.11015108 -0.10961704 -0.025913546
0001f0 0c fe b0 3d ae 8f 47 3e 14 ec b6 bc 86 13 89 be
       0.086422056 0.19488403 -0.022329368 -0.26772708
000200 2f 08 8c 3d 20 c4 bc 3b cf a6 84 bb 0d 7b 81 be
       0.068374984 0.0057606846 -0.0040482054 -0.25289193
000210 37 4b 80 bd 63 71 24 bd 59 99 a6 bd fb 3b 73 3d
       -0.06264346 -0.040147197 -0.081347175 0.059383374
000220 c3 ad ba be 2d 9f 02 be 60 83 b5 bb 60 7a 90 3b
       -0.36460695 -0.12756033 -0.0055393428 0.0044091195
000230 be 57 b0 bd 17 ef 0d be 7c 1f d9 3d 34 78 97 bd
       -0.086104855 -0.13860737 0.10601708 -0.07395974
000240 ff d8 92 bd b0 54 67 bc a1 46 17 be b5 fd e3 bd
       -0.07170295 -0.014119312 -0.14773037 -0.11132375
000250 17 4a 18 be e8 72 bd 3d 46 2f 1e 3c 83 7e b6 3d
       -0.14872013 0.09250432 0.009654826 0.08910849
000260 f1 7b 43 bd e0 8b ef 3b 3d 11 65 bd 62 61 25 3d
       -0.04772562 0.0073103756 -0.055924643 0.040376075
000270 da ec 6a bd 94 91 57 ba 14 89 c7 bc a6 62 fb bc
       -0.057354786 -0.0008223292 -0.024357356 -0.030686688
000280 b0 da 22 bd d8 ae 2e 3c 13 5a 92 3d 80 8b 27 3c
       -0.039759338 0.010661803 0.071460865 0.0102261305
000290 80 1a ab 3b e7 5d af 3d 61 2b bd bd cb f6 af 3d
       0.005221665 0.08562832 -0.092367895 0.08591994
0002a0 b4 39 cd bc 00 b8 66 b9 f5 39 49 bd 66 a8 1f 3d
       -0.025051929 -0.00022003055 -0.049127538 0.038978957
0002b0 0b 38 76 3d 36 2c 81 bd 6f 79 2a 3d a7 5a 5e 3d
       0.06011204 -0.06307261 0.041619714 0.05428567
0002c0 75 61 1c bd 71 dd 0c 3c 90 22 69 bc c0 37 12 bd
       -0.03817888 0.008597718 -0.014229432 -0.0356977
0002d0 8f 49 2d bd de 34 e2 3d 83 47 61 be 1f 4e 76 bc
       -0.04230648 0.1104524 -0.21999936 -0.015033274
0002e0 b7 b4 ad 3d 0b fc ba bd 6e c1 90 bd 18 16 7a be
       0.08481734 -0.09130105 -0.07068144 -0.2442249
0002f0 45 22 a7 bd a0 c1 96 bc 55 31 f8 3d bd fc 6d 3c
       -0.08160833 -0.018402874 0.12118784 0.0145255895
000300 37 5d b9 3c 45 07 b8 bc 2a 9d 08 be 0b ae e0 bd
       0.022627456 -0.022464404 -0.13341203 -0.10970696
000310 39 04 50 3e eb 67 89 3d 00 61 63 bb d7 6c 56 bd
       0.20314111 0.06709274 -0.0034695268 -0.05234989
000320 54 a9 31 be 63 15 8c bc ea f7 55 bd 29 0a 7a 3c
       -0.1734975 -0.017100042 -0.052238382 0.015261211
000330 ac 40 fb bc 04 db d3 bd f4 86 1b bd 3a 83 83 bd
       -0.030670486 -0.10344508 -0.0379705 -0.06421514
000340 77 33 2c 3d f3 59 0c 3e c0 7d c3 bb 04 98 1e be
       0.04204127 0.13706188 -0.0059659183 -0.15487677
000350 8e 7f ff 3c c2 f3 33 3d 49 a5 54 3d 2b 32 e4 bc
       0.031188753 0.043933637 0.05191544 -0.027855953
000360 6b 17 96 bd 78 a2 51 be 66 37 7a 3d d0 91 e8 3c
       -0.073286854 -0.20472133 0.06108799 0.028389841
000370 04 4b c5 3c b6 58 2e bd e1 c0 24 3e 04 02 9f 3e
       0.024083622 -0.04256507 0.16089202 0.31056225
000380 b7 73 0e 3e d7 fa 8b bd f1 89 78 be 51 98 a3 3d
       0.13911329 -0.06834953 -0.2427137 0.079880364
000390 ae cf 8d 3c 9e ba 06 bd 35 74 07 bd 09 1b 03 bd
       0.017310943 -0.032892816 -0.033069808 -0.032008205
0003a0 2a e4 b1 bd d0 48 c6 bd 0c da a6 3d 07 84 5a be
       -0.08686097 -0.09681857 0.08147058 -0.21339427
0003b0 3b d2 b1 bd 0a c6 79 bd c0 e4 f8 3c 90 79 95 bc
       -0.086826764 -0.06097988 0.030382514 -0.018246442
0003c0 01 d2 d8 3b af 1f 42 3d 7e c1 3b be 18 68 70 3c
       0.0066168313 0.047393497 -0.1833553 0.014673255
0003d0 ea 1d 54 3d b0 f8 c3 3b cc 44 82 be e2 0f 50 bc
       0.05178634 0.0059805736 -0.25443113 -0.012699099
0003e0 ad 3b bd bb cf 1a d5 bd 34 ad 79 bd 74 70 f3 bc
       -0.005774936 -0.10405504 -0.060956195 -0.029716708
0003f0 17 da b1 3c ab cc 6a 3e 6e 80 5f bd 90 54 76 be
       0.021710439 0.22929637 -0.05456584 -0.24055696

fc3.bias f4 [100]
000000 b3 8d c0 be cd e6 c7 be 9c 14 c8 be 27 ab c1 be
       -0.37608108 -0.39043275 -0.39078224 -0.3782589
000010 e0 56 b7 be 6a 9f c2 be 5c 5b c4 be 8c 4a b8 be
       -0.35808468 -0.38012248 -0.38350952 -0.35994375
000020 47 91 c9 be 2f 44 c1 be 6e d4 bf be 7a 81 d2 be
       -0.3936865 -0.37747332 -0.37466758 -0.41114408
000030 06 1d ba be c9 a6 cd be 27 d4 cc be 5e 20 ca be
       -0.36350268 -0.4016631 -0.4000561 -0.3947782
000040 bc 47 cb be f8 96 b7 be bf c6 c1 be b8 e6 ca be
       -0.39703166 -0.35857368 -0.37846944 -0.3962915
000050 2a 75 be be 64 ba c4 be 9b c1 c6 be 1d 76 c3 be
       -0.37198764 -0.38423455 -0.38819584 -0.3817605
000060 86 d3 c4 be 95 98 bd be a3 2d bd be b9 e4 c6 be
       -0.3844263 -0.37030473 -0.3694888 -0.38846377
000070 eb 1e cb be a1 84 c6 be 6a 79 c7 be 42 36 bf be
       -0.39672026 -0.38773063 -0.3895982 -0.37346083
000080 9a 19 cd be 56 75 d7 be 59 cd bd be 14 03 ca be
       -0.40058595 -0.42081708 -0.3707073 -0.39455473
000090 3f 1a be be d4 7f c1 be b4 01 bf be d7 8c c1 be
       -0.371294 -0.37792838 -0.37305987 -0.37802765
0000a0 86 d0 b8 be 32 ed c0 be bd 53 a1 3c 9c 4d c2 be
       -0.3609659 -0.37680966 0.01969325 -0.37949836
0000b0 ee 96 70 3d c9 7c cc be 47 05 cb be 3b 37 c8 be
       0.058737688 -0.39938954 -0.39652464 -0.39104638
0000c0 fd 73 04 3e 4d f5 c5 be 35 07 ca be 52 18 d4 be
       0.12934871 -0.38663712 -0.39458624 -0.41424805
0000d0 0a 97 d1 be ac 8a c5 be 1f 2a cd be e7 15 7b be
       -0.40935546 -0.3858236 -0.40071198 -0.24520074
0000e0 a7 c3 c6 be 2e cc bf be b3 92 c9 be db 67 c5 be
       -0.38821146 -0.37460464 -0.39369735 -0.38555798
0000f0 f3 7c bf be f2 2d cd be 0f ba cf be 4a 73 c0 be
       -0.37400016 -0.40074116 -0.4057164 -0.3758796
000100 1e 6f c0 be f3 44 c0 be a2 53 c6 be 99 98 c7 be
       -0.37584776 -0.37552604 -0.38735682 -0.3898361
000110 be 0b c4 be 58 c7 cc be 29 37 d3 be 60 a0 c6 be
       -0.3829021 -0.39995837 -0.4125302 -0.3879423
000120 0e b8 bf be 9b 57 a1 3d a5 fa c9 be b4 4f b6 be
       -0.3744511 0.078780375 -0.3944904 -0.35607684
000130 03 b3 c7 be ae a8 77 bc 48 8d bb be e2 43 b6 be
       -0.39003763 -0.0151159 -0.36631227 -0.35598665
000140 16 4e c8 be 8d 96 d0 be 08 db d1 be 5a 0d c1 be
       -0.39122075 -0.4073986 -0.4098742 -0.377055
000150 4a 9b c6 be 70 86 cc be c2 7c c7 be 05 c5 b8 be
       -0.3879035 -0.39946318 -0.3896237 -0.36087814
000160 c3 93 b9 be f2 5a ba be 6a f1 c3 be 74 47 cf be
       -0.36245546 -0.3639751 -0.38270122 -0.40484202
000170 ed b9 4f be f4 af c6 be 2f 65 ca be d7 bc c6 be
       -0.20285769 -0.38806117 -0.39530322 -0.38815948
000180 4d f9 c7 be ca 06 c0 be 9d b7 c5 be 7f 80 cc be
       -0.3905739 -0.3750518 -0.38616648 -0.39941785
