integration/checkpoint_label_input.pth (torch, 132423 bytes, 10 tensors)

ip_bn.weight f4 [20]
000000 cf b3 70 3f 43 28 07 3f 63 08 33 3f 7e b1 30 3f
       0.94024366 0.5279581 0.6993467 0.6902083
000010 af 72 ea 3e d9 ad 71 3f eb 93 28 3f 37 08 64 3f
       0.45790622 0.94405895 0.65850705 0.89075035
000020 2f 6a 99 3f 01 35 81 3f b9 0a fe 3e 2e 05 22 3f
       1.198553 1.00943 0.49617556 0.63289154
000030 92 6f fe 3e 50 53 1d 3f 18 a7 11 3f d3 7f fc 3e
       0.49694496 0.6145525 0.5689559 0.49316272
000040 29 b6 81 3f 6e c8 76 3f 00 00 80 3f 00 00 80 3f
       1.0133716 0.9639958 1.0 1.0

ip_bn.bias f4 [20]
000000 15 0c bf 3d 70 86 5b bd 31 c9 04 bd 6c 7d 01 be
       0.09328476 -0.053595006 -0.032418434 -0.12645501
000010 44 c9 e2 3d 70 ee 2f 3d ec f7 80 3d 3e 57 66 3d
       0.110735446 0.042952 0.06297287 0.056235544
000020 e8 27 d5 3c c2 2d 2f 3c 78 21 a6 bd ab a9 2c bd
       0.026020005 0.010692062 -0.081118524 -0.042153995
000030 a0 cd 88 3d 26 0a 59 be 15 c6 36 bc 71 a4 e1 bd
       0.06679845 -0.21195278 -0.011155625 -0.11017693
000040 3a 5f ad 3d 5b 0e fe 3d 67 78 69 be f0 a7 90 be
       0.08465429 0.12405082 -0.22799836 -0.28253126

ip_bn.running_mean f4 [20]
000000 b2 ce 6c 3e 48 80 89 3e c8 d7 05 3f 97 bf 85 3e
       0.23125723 0.26855683 0.5228238 0.26122734
000010 b4 19 d9 3e 0c e7 a0 3e d9 e7 d5 3e 90 18 c0 3e
       0.42402422 0.31426275 0.41778448 0.3751874
000020 19 0b d8 3e a8 b9 47 3e 55 07 14 3e 9c 54 39 3e
       0.42195967 0.19504416 0.14455922 0.18098682
000030 2c 69 63 3e da d9 6d 3e 87 d7 78 3e ed 33 7e 3e
       0.22208089 0.23227635 0.24300967 0.24824496
000040 5c 0d 04 3e 5c 0d 04 3e 00 00 00 00 00 00 00 00
       0.12895721 0.12895721 0.0 0.0

ip_bn.running_var f4 [20]
000000 bc 84 2f 3d 11 da 43 3b 08 03 47 3d c2 a5 02 3c
       0.042851195 0.0029884616 0.048586875 0.00797409
000010 12 22 74 3d 52 41 05 3d 19 c0 62 3d f3 37 19 3d
       0.059602804 0.032532997 0.05535898 0.037406873
000020 d1 f3 8e 3d 39 44 8c 3b 8b 76 38 3b 9c 49 9d 3b
       0.06980098 0.0042805937 0.002814683 0.0048000347
000030 37 83 e3 3b 49 1b f4 3b 68 7f 75 3c 6b 74 7b 3c
       0.0069431323 0.0074495417 0.014983989 0.01534758
000040 3c bc d6 3c 3c bc d6 3c 04 00 00 00 04 00 00 00
       0.026212804 0.026212804 6e-45 6e-45

fc1.weight f4 [128, 20]
000000 ce 91 3f bc 31 cd ec bc ba 3f 8d 3d fd 1a 5f 3d
       -0.011692477 -0.028906437 0.068969205 0.054469097
000010 47 9b c4 bd 23 dd 22 bb 20 14 1b be ad 00 1a bf
       -0.09599929 -0.0024851046 -0.15144396 -0.6015728
000020 42 f9 fd 3d 3f c5 80 be 70 53 3e 3d ef 44 fe bb
       0.12401058 -0.25150487 0.04646629 -0.0077596824
000030 be 7e fb bc f5 e0 51 3e 05 19 57 bd 30 d9 74 3c
       -0.030700084 0.2049597 -0.052514095 0.01494436
000040 74 48 d1 3d 60 e0 fe bd e9 a6 05 bd 42 b7 97 3e
       0.102188975 -0.1244514 -0.03262988 0.29632002
000050 b6 41 90 be ba 9d 97 3d d5 cb 3e 3c e2 4a e7 3d
       -0.28175133 0.07403131 0.011645277 0.1129358
000060 f2 c1 b9 bd 27 be 64 bd 4b b2 c1 bd e1 7f 00 bf
       -0.09070195 -0.055845406 -0.09457835 -0.5019513
000070 05 02 fa 3c d1 59 00 be a6 89 3e be cf 0a c5 bd
       0.030518541 -0.12534262 -0.18607196 -0.09621202
000080 50 a9 f3 3d a0 69 7e 3e 1d e6 99 3d 4c 00 4f bd
       0.11897528 0.2484498 0.07514594 -0.050537392
000090 a0 11 44 3e 0b 63 e1 3b 6c f0 d8 bc ea f2 0d bd
       0.19147348 0.006878262 -0.02648183 -0.03465549
0000a0 86 7c 64 be 25 2d b1 be 0f 8a 2f 3e 5f ef cc 3d
       -0.22313127 -0.34604755 0.17142509 0.10006594
0000b0 63 78 0f 3e f8 07 05 3e c8 99 c1 3d 0b cc 94 bc
       0.14010768 0.12991321 0.094531596 -0.018163702
0000c0 76 0c 7a 3d 43 b8 9c 3d 1f 33 ff 3d 7e 11 1a bc
       0.06104704 0.07652333 0.124609224 -0.0094035845
0000d0 e1 5e 80 bc 3f 9d 8b 3c 43 1e f4 3b 70 69 2d 3d
       -0.015670242 0.017042754 0.0074498965 0.04233688
0000e0 96 a5 96 bd 77 d1 d3 3d e2 f3 37 3c 22 61 62 3e
       -0.07355802 0.103426866 0.01122758 0.22107366
0000f0 01 7e 80 3b 5b 13 86 be f2 51 ce 3d 14 2c 24 3e
       0.003921271 -0.26186642 0.100742236 0.1603244
000100 df f6 1f 3e 84 68 1d 3e 0e 40 0e bd 7c 65 7d be
       0.15621518 0.15371901 -0.034729056 -0.24745744
000110 9c 31 9c 3d 02 1f 21 3d 0b 7b 3a be 88 53 06 3e
       0.0762665 0.039336212 -0.18211 0.13117802
000120 0c bf 48 be 6d 22 be 3d 8a 64 03 3c 1a 4b 81 3d
       -0.19604129 0.0928391 0.008019576 0.063131526
000130 9f 67 19 3e 95 f0 b2 bd d7 4d 15 3e c1 82 4d 3d
       0.14980935 -0.08737294 0.14580475 0.050173525
000140 4b ff 2d 3d db c5 8a bc 24 e1 61 be 72 2a ca bc
       0.042479794 -0.016940048 -0.2205854 -0.024678443
000150 d6 a3 1b 3e 4a 2c bb bd bd 0f 52 3c 3b bf fe 3c
       0.15199217 -0.09139307 0.012821135 0.031097045
000160 0d 4a d0 be d5 6a c3 bd 6b 00 cc 3c b8 f3 41 be
       -0.40681496 -0.09541861 0.024902543 -0.18940628
000170 f6 f5 14 3e 0a 0a e6 bc cd cc 0e 3e 0a 3e f7 3d
       0.14546952 -0.028080959 0.13945313 0.1207238
000180 5b a6 86 3d ca 5b d6 3d 70 cb 52 bd 51 c2 38 bc
       0.065746985 0.10466726 -0.051463544 -0.011276797
000190 bd 40 6a bc 4a 76 c0 3c 29 17 41 be c4 49 84 bd
       -0.014297661 0.023493905 -0.18856491 -0.06459382
0001a0 27 40 78 3d 54 58 ba 3d 47 f9 83 3d cf 48 08 3e
       0.060608055 0.090988785 0.0644403 0.13309024
0001b0 47 54 f7 be da 79 d6 3d fd 54 6e 3e 2a df 38 be
       -0.48306486 0.1047246 0.23274608 -0.1805388
0001c0 5a e7 b3 bd c0 ac 8c 3c 6b 63 93 bd a4 c7 01 3d
       -0.08784361 0.017172217 -0.07196697 0.031684533
0001d0 43 c6 17 3e e9 39 c2 3e cd f5 cb 3d da ea 70 3e
       0.14821725 0.37934807 0.09958992 0.23527089
0001e0 64 20 24 3c 36 25 ca bc dd e8 26 be c4 b6 05 3e
       0.010017488 -0.024675947 -0.16299768 0.13058001
0001f0 c5 f0 cd 3d 75 52 d1 bd 70 bf c8 bd c1 28 6c 3d
       0.10055689 -0.102208056 -0.09802139 0.057656053
000200 0d 61 d2 be df 0f 27 be 8b e2 43 bb b6 9b a9 3d
       -0.4108967 -0.16314648 -0.0029889669 0.08281653
000210 cd de 0d bd d9 5a 52 be 4b e8 90 3d e9 4a c7 3d
       -0.034636308 -0.20542468 0.07075556 0.09731085
000220 a7 01 a7 3e fd 9f 53 3d 2a 40 c5 3e b2 4d 1a 3e
       0.32618448 0.05166625 0.38525516 0.15068701
000230 5e 23 cf bd f4 10 64 bd 09 1b a2 3d 5a 04 61 3e
       -0.10114168 -0.05568023 0.07915313 0.21974316
000240 fb c5 c6 bc c1 c9 cf 3d 59 dc fb bd 3b 90 87 3d
       -0.024264326 0.101459034 -0.12297887 0.06619307
000250 69 c0 b8 3e ec 42 0e be 69 80 b8 3c f9 52 74 3b
       0.36084297 -0.13892716 0.022522168 0.00372809
000260 62 23 48 be 94 14 3e bd 20 e5 42 bd 82 e9 f8 bd
       -0.19544747 -0.046406344 -0.047581792 -0.12153913
000270 b1 36 7a be 56 de ae bd 7a 2f a3 3e 08 cf 8a 3e
       -0.24434926 -0.08538501 0.3187216 0.27111077
000280 c6 2e 97 be 44 7e df 3d 75 62 01 3d 58 f9 59 be
       -0.29527873 0.10912755 0.031588037 -0.21286523
000290 56 44 ec 3d ea 25 9b 3d 61 3f b1 bd 4c 89 68 3d
       0.115364715 0.07575591 -0.08654667 0.05677156
0002a0 a8 74 46 be 9d a4 47 be 37 9f 26 be e2 ac 10 bd
       -0.19380438 -0.19496389 -0.16271673 -0.035321124
0002b0 b9 3e 04 3e 0e c2 0c bd c0 65 f3 bd 3e 95 a3 3d
       0.12914552 -0.034364752 -0.11884642 0.0798745
0002c0 a6 2d 3b bb e1 23 50 3e be 84 82 3e cf d1 54 3e
       -0.0028561144 0.20326187 0.254919 0.2078316
0002d0 9d a0 c3 be 20 2e 8c bc 32 51 4c 3e 1d 36 f3 3d
       -0.38208476 -0.017111838 0.19952849 0.11875556
0002e0 fb 86 22 be b6 5e bf 3b 38 40 de bc aa 84 be 3c
       -0.15871803 0.005840148 -0.027130231 0.023256619
0002f0 b6 ea a7 3e a3 fa 2f 3e ad df 56 3d 56 87 d3 bd
       0.32796258 0.17185454 0.052459408 -0.10328548
000300 bc 02 ca 3d ac b3 c8 3d 0f f8 12 3c 19 ea 7f 3d
       0.09863803 0.09799895 0.008970275 0.062479112
000310 5b 0f ad bd 77 39 8b be 6c bc 22 3e de 35 9b 3e
       -0.084501944 -0.2719228 0.1589219 0.30314535
000320 0f 4e 16 be 8b 71 b9 bd 40 b8 54 bc cb 46 81 be
       -0.14678214 -0.0905486 -0.012983382 -0.25249323
000330 17 b1 2c bd 0a 25 15 3e 4f 88 f2 3d b3 e3 eb bc
       -0.042161074 0.1456491 0.11842405 -0.028795099
000340 26 d3 0f bc ae 1c c6 be f7 38 01 be 70 0c 85 bd
       -0.008778369 -0.38693756 -0.12619387 -0.06496513
000350 3b 30 8d 3a 25 a3 5d bd 35 99 3a be d8 ee 40 3d
       0.001077182 -0.054110665 -0.18222506 0.04710278
000360 87 ee fe 3d b4 4a 72 3c 72 da 6e 3e d8 42 e3 3e
       0.12447839 0.014788318 0.23325518 0.44386935
000370 bf 5d f5 3d 73 76 8a be 6e 6d 10 3e 1a 68 53 3e
       0.11980771 -0.27043495 0.14104244 0.2064518
000380 43 0c 00 bc 99 48 91 bc 78 4c a1 3a 6d fe 26 3e
       -0.007815423 -0.017734813 0.0012306115 0.16307993
000390 6b 62 4c 3e 8a 60 3c be 1a 94 f3 bc 01 a3 c8 3d
       0.19959418 -0.18396202 -0.029733706 0.097967155
0003a0 23 48 58 3d c9 9a aa bd 6f 98 f5 bd 54 79 7a bc
       0.05280317 -0.08330304 -0.11991965 -0.015287716
0003b0 19 07 04 be 4c 0b 13 be 8d 6e eb bd ce 2c 87 bd
       -0.12893333 -0.14359778 -0.11495695 -0.06600343
0003c0 77 f0 53 be da ee 04 3e 25 55 63 be 7b 22 44 be
       -0.20697199 0.1298174 -0.22200449 -0.19153778
0003d0 56 7c 01 3e 9a 55 38 bd 36 cc dc 3d 11 46 f7 3d
       0.12645087 -0.04500351 0.10781138 0.12073911
0003e0 91 ae 68 be 6c 06 83 be cd ca 2c be bb 72 af bc
       -0.22722842 -0.25590837 -0.16874237 -0.021417012
0003f0 86 9b fb 3d 2e 9d 07 be 2e 7b e5 bd 14 3e 0c 3e
       0.12285523 -0.13243553 -0.11205135 0.13695556

fc1.bias f4 [128]
000000 0f 79 92 be 7a 03 8c be c7 9f 69 be 2a 87 84 be
       -0.28607985 -0.27346402 -0.22814856 -0.25884372
000010 73 c2 2c be 59 45 f9 3d 4b a8 a5 bd e4 05 5d 3d
       -0.16871051 0.1217143 -0.0808874 0.053960696
000020 77 c7 2d be 1b 2c 80 bd db 71 8a be 47 ed 18 be
       -0.16970621 -0.062584125 -0.2703999 -0.14934264
000030 44 7d 63 be 1d dd 7c be 11 fd 4a be 26 f1 62 be
       -0.22215754 -0.24693723 -0.198231 -0.22162303
000040 cf 76 4a be ab 7b 61 be ae 94 5e bd e2 bd 09 be
       -0.19771884 -0.22019832 -0.05434101 -0.13451341
000050 87 4f 22 be e1 76 51 be cd 68 17 be 40 b3 8a be
       -0.1585065 -0.20455505 -0.14786072 -0.27089882
000060 9b 76 96 be 35 04 25 be 5f 90 51 be 7c d3 c1 3d
       -0.29387364 -0.16114886 -0.2046523 0.094641656
000070 b9 25 3b be b0 fc 8a 3d 65 c9 6f be c0 99 35 bd
       -0.18276109 0.067864776 -0.2341667 -0.04433608
000080 ef 3b 19 3c 17 54 01 be aa 0c 1d be 98 c5 92 bd
       0.009352668 -0.12629734 -0.15336862 -0.07166594
000090 ce f1 33 be 04 e3 47 be 4c 5b b9 bd 1d 0b 5f bc
       -0.1757271 -0.19520193 -0.090506166 -0.013613489
0000a0 0e af 9b be 6c 27 06 be 47 e2 f1 3d dd f3 51 bc
       -0.30406994 -0.13100976 0.11810737 -0.012814489
0000b0 05 ae de bd ab 11 b5 bd 0c e9 e8 bd 34 14 a8 3d
       -0.10873035 -0.088412605 -0.11372575 0.082069784
0000c0 52 12 87 be a5 25 81 be a1 93 c7 bd 81 a7 73 be
       -0.26381165 -0.25224033 -0.09744955 -0.23794366
0000d0 66 4b f4 bd 13 17 ed bd 00 a4 f6 bd a3 26 98 3c
       -0.119284436 -0.11576667 -0.12042999 0.01857311
0000e0 1e cf 33 be 3c b3 a3 be 11 0c fe bd c5 60 b4 be
       -0.17559478 -0.31972682 -0.12404645 -0.3523008
0000f0 27 71 b8 3d 06 7c 36 be 04 31 6b be 80 ed 33 be
       0.09005957 -0.17820749 -0.22967917 -0.17571068
000100 d1 9f e2 bd 94 a6 c3 be 58 db 1f be 12 e8 11 be
       -0.11065639 -0.38213027 -0.15611017 -0.14248684
000110 30 79 a7 be bb ad b8 bd c8 32 eb bd 51 8d 10 be
       -0.32709646 -0.090175115 -0.11484295 -0.14116408
000120 33 9d 88 bd 42 bd af bc 7c 85 b3 ba d4 9b d8 bc
       -0.06670608 -0.02145255 -0.0013696398 -0.026441492
000130 88 0a 4a bd 0e d4 58 be 08 99 da bd 94 87 82 be
       -0.04932645 -0.21174642 -0.1067372 -0.25494063
000140 cb 90 3f 3d e8 4f 6d be fd 1d b3 be 0e 15 11 3e
       0.046768945 -0.23175013 -0.34983817 0.14168188
000150 bb 5f 0f 3e 1c 0a 38 be c7 ba 1a bd 97 df 1e be
       0.14001362 -0.17972606 -0.03777578 -0.1551498
000160 78 80 b0 be a5 b2 8e bd a9 90 2b bd d2 a6 af be
       -0.34473014 -0.069676675 -0.041886006 -0.3430696
000170 e7 1c 16 be dc cc 94 be 5b 16 df bd b8 9b 29 be
       -0.14659463 -0.29062545 -0.10892936 -0.16563308
000180 b9 5b 2d be b2 41 23 be 20 d6 6a 3c c6 0b 83 bd
       -0.1692952 -0.1594303 0.014333278 -0.0639873
000190 6e 8d 46 bd aa b6 11 be e2 ae 78 be 02 4c cb 3b
       -0.04847472 -0.14229837 -0.24285462 0.006204129
0001a0 c1 fa 7b be 34 5e 16 be ae 6b 43 be 2a 03 83 3d
       -0.24607374 -0.14684373 -0.19084045 0.06397088
0001b0 19 64 2d be 33 a8 0b be 00 66 39 be 3b 59 d8 bd
       -0.16932715 -0.13638382 -0.18105316 -0.10563894
0001c0 38 0e 6d be 8d bf 2d be b4 b3 54 3d f7 b0 89 3c
       -0.23149955 -0.16967602 0.05192919 0.016808016
0001d0 22 69 41 be 74 35 9b be dd 85 31 be d0 f1 f1 bd
       -0.18887761 -0.3031422 -0.17336221 -0.118137
0001e0 f2 fc 9b bd 7e 3c 37 be 41 b1 02 be 8a e6 f6 bd
       -0.07616605 -0.1789417 -0.1276293 -0.120556906
0001f0 86 be 50 be 04 1b 9b be 9c 2c aa 3d cb 02 3d bd
       -0.20385179 -0.3029405 0.0830929 -0.04614524

fc2.weight f4 [128, 128]
000000 f7 9b cb bc 2a d0 05 be 4e 1f e8 bd 23 23 37 bd
       -0.024854643 -0.1306769 -0.11334096 -0.044711243
000010 26 69 8b 3d 82 ed 66 3d 93 c9 d0 3d bb a5 81 bd
       0.06807165 0.05637885 0.10194697 -0.06330439
000020 5e 58 e7 bc 84 5e 21 be ec 1c 43 be c3 13 4b 3c
       -0.028240379 -0.15758711 -0.19054002 0.012394848
000030 fb a9 77 3d a4 af a4 bc 7d af 55 bd ec 9a 49 bd
       0.06046484 -0.020103283 -0.05216931 -0.04922001
000040 a0 50 82 bd 4a 15 da bd cb 2d 26 ba df 90 ec bd
       -0.06363034 -0.10648592 -0.0006339221 -0.115510695
000050 99 ba 3c bb 66 81 8c bd 64 9b da bc 8f 00 95 bd
       -0.0028797744 -0.06860618 -0.026685424 -0.07275497
000060 4a 10 39 bd ee 0b d3 bc 80 70 be bd 01 43 9c bd
       -0.04518155 -0.025762524 -0.092988014 -0.076299675
000070 eb 34 5c bd 65 e0 bd bb e8 4f 0a be 52 1c 09 3b
       -0.053761404 -0.005794572 -0.13507044 0.0020921421
000080 db b9 20 3c ee e9 82 be e6 5b 14 bd 6c 1d 26 bd
       0.009809936 -0.255691 -0.036220454 -0.040555403
000090 f2 fd 6f be 7d e8 cb bd 7a dc 07 be 83 52 26 be
       -0.23436716 -0.09956453 -0.13267699 -0.16242413
0000a0 ae b1 40 bc b8 6d 2b bc d0 df 3c 3a 74 63 17 bd
       -0.011761112 -0.010463171 0.00072049815 -0.03696008
0000b0 d4 54 90 3d 4b 31 4d be 0d 17 e7 bc 8f c7 05 bc
       0.0704743 -0.20038335 -0.028209234 -0.008165254
0000c0 3b 7c 31 be 01 bd 23 be 9a a2 1b bd a8 01 97 bd
       -0.17332546 -0.15990068 -0.037996866 -0.07373363
0000d0 2f 49 8e bd 6e 99 14 3c 36 ac f1 ba 83 e0 22 3c
       -0.069475524 0.009069784 -0.0018438164 0.009941223
0000e0 3f 75 c4 bd 8d a9 52 be e0 16 89 3d 7d 20 87 bc
       -0.095926754 -0.20572491 0.06693816 -0.016494984
0000f0 e3 8b c6 bd ab 76 3d 3d 7a 23 f0 3c 82 38 68 3c
       -0.0969465 0.04625575 0.029313792 0.014173629
000100 3f 78 8e bc bb 0e 3d be 61 29 2b 3d 06 9a 56 bb
       -0.017391322 -0.1846265 0.04178751 -0.0032745614
000110 f6 4f ad bd 00 87 db bd 4c d3 9a bd a8 92 79 bd
       -0.08462517 -0.107191086 -0.07559833 -0.060930878
000120 e4 b0 04 bd 0a e2 94 bc 28 c6 11 be 54 a1 34 bd
       -0.03239526 -0.01817419 -0.14235747 -0.044099167
000130 13 b1 48 3d 69 28 2a 3d 61 d9 18 3d ae 20 dc 3c
       0.048996996 0.041542444 0.037316684 0.026871052
000140 2f 0e 53 be 8d 48 0b 3d 17 5d 8d bc d4 89 bc bd
       -0.2061088 0.034004737 -0.017256303 -0.09205976
000150 4f 3a 6b bd 69 5f 04 be 1f 2b 96 bd 80 f5 a1 bd
       -0.057428654 -0.12927021 -0.073324434 -0.079081535
000160 b6 7e 8f bd a4 9a 0a be 3a 56 05 be 3e df d4 3a
       -0.0700659 -0.13535553 -0.13021174 0.0016240848
000170 fe c0 33 be 83 f7 e3 bd e1 6b b9 bd b8 91 2a bd
       -0.1755409 -0.111311935 -0.090537794 -0.041642874
000180 2d 78 50 bd a3 1f 4f 3d 8d cf 3c bd 34 ce a2 3c
       -0.05089586 0.05056728 -0.046096373 0.019873716
000190 b6 98 21 bd 89 c0 0a bd df 16 50 bd 7d 7f 7a bd
       -0.039452277 -0.033875022 -0.05080306 -0.06115674
0001a0 47 08 32 3d 31 70 85 3b 82 43 fe 3b 73 f9 c3 bd
       0.043464925 0.004072212 0.0077595124 -0.09569063
0001b0 a1 ab bc 3b ba 97 27 be 95 42 50 be 55 80 9c bd
       0.0057577644 -0.16366473 -0.20337899 -0.07641665
0001c0 3b da 37 bb 8d b1 bb 3c 6d b8 9d bc 2a a6 93 bd
       -0.002805366 0.022911811 -0.01925298 -0.07209428
0001d0 51 a3 94 bc 4d af 2d bc c1 e2 bb 3b cd aa 6e 3d
       -0.018144282 -0.010600877 0.0057338183 0.058268357
0001e0 78 c5 83 3d 6b de bf bd 75 82 d4 3c 4f 5e c2 bc
       0.064341486 -0.09368595 0.025941113 -0.02372661
0001f0 6e bc 8a bd ee f7 85 bc 4b e9 7e 3d 8e b5 c4 bc
       -0.06774221 -0.016353574 0.062234204 -0.024012353
000200 bb e0 4f 3d 35 eb 8b bd 8f 4b 8f bc f2 b2 05 be
       0.05075143 -0.068319716 -0.017492084 -0.13056543
000210 98 8e b1 3c 7b ba 09 bd 07 ea bc 3c d9 df aa bc
       0.02167444 -0.033625107 0.023060812 -0.020858692
000220 f1 e8 04 ba 50 3f 5d be ec e3 d3 3d 55 41 03 bd
       -0.00050701114 -0.21606183 0.10346207 -0.032044727
000230 f2 87 eb bc 48 a0 33 bd 5a 12 d7 bc 0d c5 be bd
       -0.028751347 -0.043854028 -0.026253868 -0.09314928
000240 7c 96 d4 bd a0 f9 1d bc be 47 50 3b 7b f9 64 3d
       -0.10380265 -0.009642035 0.0031781043 0.055901986
000250 ad ae 97 bd 88 2c 12 bd a6 fa d6 bd 62 aa 70 3b
       -0.07406364 -0.035687 -0.10497026 0.003672265
000260 ce 31 ba 3c c9 31 39 be 98 7f 77 bd e3 0d 94 3c
       0.022728827 -0.18085398 -0.060424417 0.018073028
000270 6d 43 ad 3d 41 51 08 bb 62 b1 9e bc 67 1c e2 3c
       0.08460126 -0.0020800384 -0.019371692 0.027601434
000280 ea 54 7d be a4 7a fa 3c 5d e3 9a bd 8c 9b 71 3d
       -0.24739423 0.030576058 -0.07562897 0.05898623
000290 7c 93 6f 3d 70 a1 67 bc 87 5c 92 bc 70 68 87 bd
       0.05849026 -0.014137611 -0.017866386 -0.06611717
0002a0 aa bc 68 3b ef 51 41 3c 15 a6 f2 bb 8e 70 5c 3b
       0.0035512843 0.01179932 -0.0074050524 0.0033636424
0002b0 68 9b 09 bd 15 01 7a bd fa 0b 94 bd c1 1f 6c bd
       -0.033595473 -0.06103619 -0.07228847 -0.05764747
0002c0 50 8c 9a 3c 08 9e 8c bd ca d7 92 bd ce 2e 86 bc
       0.018865734 -0.068660796 -0.07170065 -0.01637974
0002d0 06 ee c9 bd 40 b3 74 bd 0f be 43 bd 2d 22 c7 bc
       -0.098598525 -0.05974126 -0.047788676 -0.024308288
0002e0 26 fd 25 be 6d 3f 5b bd f1 5d 4e 3d 5f 52 d1 bd
       -0.1620985 -0.053527284 0.05038256 -0.10220789
0002f0 6a a6 8e bd 28 54 89 3c 5a 38 10 bd 50 84 8d bc
       -0.06965335 0.016763762 -0.03520999 -0.017275006
000300 6d af 84 bd 55 84 b6 3d 7d 70 b8 be ef 2c 23 3d
       -0.06478772 0.08911959 -0.36023322 0.039837774
000310 ed ff 89 bd 97 f3 ec bd 44 3f ad ba af 87 0a 3c
       -0.06738267 -0.115698986 -0.0013217707 0.008455201
000320 9d ee c5 be e8 9c 85 bd 71 9b ba bd 68 65 3b 3c
       -0.3865861 -0.06524068 -0.09111679 0.011437751
000330 56 85 8a bd c3 ea 07 be 3e ed a5 3c 0b aa 3b bd
       -0.06763713 -0.13273148 0.020254727 -0.045816462
000340 8c a9 9b b9 15 6e be 3b eb ad 69 bd 87 39 ca bc
       -0.00029690226 0.0058114626 -0.057050627 -0.024685634
000350 82 fc f5 bc 7d e8 02 bd 08 84 85 bd c6 30 c4 bd
       -0.030027632 -0.03196 -0.065193236 -0.09579615
000360 99 87 30 3d 8d 1c e6 bd 64 8a 19 bc 7d 83 a4 3c
       0.043098066 -0.112359144 -0.009371374 0.02008223
000370 e0 30 89 bd 5d 28 0d 3e c4 02 7f 3b 07 bc f9 bc
       -0.06698775 0.13784929 0.003891156 -0.030485166
000380 2e ab 9a bc 5b 86 b8 3c 33 a9 89 bc c6 4b 47 3d
       -0.018880453 0.022525003 -0.016804313 0.048656248
000390 9d f3 f8 bc 85 a2 82 bd 01 9f ba bd b4 67 ea bd
       -0.030389601 -0.063786544 -0.09112359 -0.11445561
0003a0 a0 4f 85 3c c0 d5 b9 bc c8 8d 7b bd b6 ab 64 3d
       0.01627332 -0.022684932 -0.06141451 0.05582782
0003b0 df 1d e3 bd d1 79 d5 bd a9 2c ba bd e4 d8 68 3c
       -0.11089682 -0.10423625 -0.090905495 0.014211867
0003c0 8b 1d 4f be c3 e1 78 bd ed dc a1 3c b4 7e 01 be
       -0.20226113 -0.06076218 0.019758666 -0.1264599
0003d0 1a 11 bc bc d9 a7 b9 bd 25 4d 1c be da eb 0d bd
       -0.022957373 -0.090652175 -0.15263803 -0.034648754
0003e0 0d 60 17 bd e2 54 c3 bd 0d ad 03 3d b8 e3 60 3d
       -0.036956836 -0.095376745 0.032147456 0.05490467
0003f0 c0 25 2a be 0e 17 c9 bc 9f c6 53 bd 67 c0 21 3d
       -0.16615963 -0.024547126 -0.05170309 0.03949013

fc2.bias f4 [128]
000000 98 e7 75 bc 40 b8 a2 3c 0e 18 1e bd 05 c8 93 bd
       -0.0150088295 0.019863248 -0.03859716 -0.07215885
000010 ac 3e fd bc a4 06 7e bd 8b b0 d3 bc ec 84 22 bd
       -0.030913673 -0.06201805 -0.025841018 -0.039677545
000020 7b 42 1e be 9a 15 c5 bc 8e ed 98 3c c0 38 89 bd
       -0.15455048 -0.024058152 0.018667962 -0.06700277
000030 5a be b9 3d 0e eb 69 3c 83 62 14 be ca c6 3b 3e
       0.0906951 0.014277233 -0.14490704 0.18337551
000040 16 a6 21 3d 6c 03 d6 bc 9c b3 c7 3d 50 41 2d 3d
       0.039465033 -0.026124679 0.09751055 0.042298615
000050 83 64 45 bd 5a 9e 5d bc 3e 23 4f bd aa 2d 02 3d
       -0.04819156 -0.0135265235 -0.05057072 0.03178183
000060 f3 a5 bd bd 17 77 a3 3d 77 af 34 bd e6 38 5c bc
       -0.09260168 0.07981699 -0.04411265 -0.0134413
000070 cd 17 93 3d 12 ba 02 bd 55 fd 5b 3c 65 ef 7e bd
       0.07182274 -0.03191573 0.013427098 -0.062240023
000080 00 64 94 bb 46 36 65 bd 24 e5 a5 3d c4 6d 0a 3e
       -0.0045285225 -0.055959962 0.08100346 0.13518435
000090 c9 a9 a3 bc 77 b5 99 bd 1a 26 91 bc 2b 9d 34 bd
       -0.01997842 -0.07505315 -0.017718364 -0.0440952
0000a0 5b 61 08 be 66 b6 40 bd b0 9c 64 bc 22 0e 21 3c
       -0.13318388 -0.04704895 -0.013953373 0.00983003
0000b0 d9 7a 0d 3d 5c 90 e2 3d 37 35 d5 bd 56 68 d7 bd
       0.034540985 0.110626906 -0.104105406 -0.105179474
0000c0 0a 94 dd ba d8 50 50 3c a9 12 e1 bc 9f e4 82 3d
       -0.0016905081 0.012714587 -0.027474718 0.06391262
0000d0 ed 2f 99 bd a3 2d 92 3c 6a 9d 0b be 0d d2 0b bd
       -0.07479844 0.017844027 -0.13634267 -0.034135867
0000e0 7f 26 aa bc f3 e3 07 bd 3f a3 7c bd d9 8f 9c bc
       -0.02077031 -0.033176374 -0.06167912 -0.01911156
0000f0 9d ea b8 3c cf 16 d7 bd 94 e5 43 bd 5b c2 29 3d
       0.02257281 -0.10502397 -0.047826365 0.041445117
000100 5b 0a 45 bc c4 04 05 be 9b e7 28 bc 99 d2 f3 bc
       -0.012026395 -0.12990099 -0.010309125 -0.029763507
000110 47 17 2d 3e c6 92 73 bd a3 d0 b3 bd 6c 9b 11 bd
       0.16903411 -0.059466146 -0.08780029 -0.035548612
000120 4b b9 87 bc fe 3d 33 bd 7d f1 de bc 8d c4 b4 bd
       -0.016567847 -0.043760292 -0.02721476 -0.088265516
000130 d4 1e 88 3d 6c 84 22 be 7d ab 50 bd 38 77 f2 3d
       0.06646505 -0.15870827 -0.050944794 0.118391454
000140 21 c8 13 3d 93 b1 66 bd c3 a5 a7 bd b5 9d 55 bd
       0.03607953 -0.05632169 -0.081859134 -0.052152354
000150 8a 23 07 bd 7d da 1b 3d 3a ae ac bd 90 fa f3 bc
       -0.032992877 0.038050164 -0.084316686 -0.029782563
000160 ae 51 9b 3c bc a6 a4 bd 68 8b 93 3a a7 4b 4a 3d
       0.018959846 -0.080396146 0.0011256756 0.049388554
000170 9b 7e 03 bc 2d 34 57 bd 60 4e 25 3d bf 1a f6 bd
       -0.008025791 -0.052539993 0.040357947 -0.1201682
000180 95 ff df 3d 81 89 e8 3d be 54 a0 bd 56 75 09 be
       0.1093742 0.11354352 -0.07828663 -0.13423666
000190 10 62 ef 3b ec 9b 0c be 04 7f f5 bc ad e1 fa 3d
       0.007305391 -0.13731354 -0.029967792 0.122500755
0001a0 29 89 b7 bd 6d 4c ac 3d 6b 11 53 bd ca 70 e5 bd
       -0.08961708 0.084130146 -0.051530283 -0.112031534
0001b0 05 59 cb 3d 16 19 64 bd 77 6e c8 bd 3b f3 df 3d
       0.099290885 -0.055687986 -0.097866945 0.109350644
0001c0 cc 9d 54 3d 6a b5 06 bc 95 d7 28 bd f0 98 25 3c
       0.0519083 -0.008221963 -0.04122122 0.010107264
0001d0 d1 f1 af bc 8a 8e 9f bd cc 22 d4 3c f4 1e af bd
       -0.021477612 -0.07790859 0.025895499 -0.08550826
0001e0 26 f5 7b bd b1 b3 17 3b f1 da a9 bd ac ee 58 be
       -0.06151309 0.0023147876 -0.08293713 -0.21184796
0001f0 ae 21 03 3d fc 0d bd 3d d4 d5 f6 3d 6b 9c a9 3d
       0.03201454 0.09231183 0.12052503 0.082817875

fc3.weight f4 [100, 128]
000000 7e 7c 23 3c 1f 12 ee 3c 9a e3 3e bd a6 ea e9 bc
       0.009978412 0.029061375 -0.046603777 -0.028554272
000010 a6 eb 58 3c 52 37 a0 3c 0e 52 81 3d 2f d1 4a bd
       0.013239777 0.019557629 0.06314479 -0.0495159
000020 4e d7 7b 3c af fa 8b 3b 71 9d 15 bd ae 1a 14 3c
       0.015371157 0.004271827 -0.0365271 0.009039564
000030 ce 54 90 bc f4 c7 21 ba c5 ec 8c bd 11 ef 5f 3c
       -0.017618563 -0.0006171458 -0.06881098 0.013667838
000040 14 32 26 bc ab 5e 08 3c 56 95 13 bc 71 f9 0a bd
       -0.0101437755 0.008323352 -0.009007772 -0.033929292
000050 1b c1 89 3c a1 8e 4f 3d a0 44 7e 3b 02 2b fa bb
       0.016815713 0.05067313 0.0038798228 -0.0076345215
000060 43 b9 66 bc 09 b8 8f bc b6 49 cd 3b 5c f6 6b bc
       -0.014082256 -0.01754381 0.0062648905 -0.014401998
000070 f8 c6 17 bc f4 0b 98 bd d3 ba e7 bc cd 08 df bc
       -0.009263746 -0.07424155 -0.028287327 -0.027225876
000080 24 92 20 3d 51 30 85 3c 7d e5 b9 bb 19 2d 5e 3c
       0.03920187 0.01625839 -0.005673109 0.013560557
000090 88 80 b8 bc 8a 70 4d 3d 3e c1 1c bc 4e 77 c7 3c
       -0.022522226 0.050156154 -0.009567557 0.024348881
0000a0 46 36 ae 3c c5 71 22 3c 5c 3f cd bc 2f 83 1c bd
       0.021266114 0.00991482 -0.025054626 -0.038211044
0000b0 1d ec 6f 3d 45 f1 c1 3c 40 96 e6 bb 3a 2e 49 bb
       0.058574785 0.023674617 -0.007036954 -0.003069772
0000c0 91 92 70 3d cd d3 73 3c af 69 1c 3c 6e 17 53 bc
       0.058733527 0.01488204 0.009546681 -0.012884004
0000d0 f6 0b 33 3c dd 66 6e bb 5b 0f 2d 3c f2 68 53 bd
       0.010928145 -0.003637723 0.010562743 -0.051613756
0000e0 43 cd 89 bc 0b 69 64 bd 7b a1 c8 3c 3b 79 3b bc
       -0.01682151 -0.05576424 0.024491062 -0.011442478
0000f0 41 2b fb bc 13 ed a5 bd e4 bd 97 bc bd 8b 51 3c
       -0.030660274 -0.08101859 -0.018523164 0.012789664
000100 3a 42 1e bc d4 7e 3e bc 0c f0 22 bd 91 0e 56 bd
       -0.009659344 -0.011626918 -0.039779708 -0.052259985
000110 bc fa 35 bc c7 fb ac 3c 54 4b 5d bd cf d8 42 3c
       -0.011107143 0.02111615 -0.054026917 0.0118925115
000120 6b 98 9a 3d b7 45 17 bd bf e0 2f bc 5c 47 cc 3c
       0.07548603 -0.03693172 -0.010734736 0.02493637
000130 3c 78 5b 3a 91 11 1d 3b 07 d4 3b 3d b2 8e 81 bc
       0.00083721033 0.002396677 0.045856502 -0.015815113
000140 ce 49 48 3c 94 ee 95 ba f2 72 e1 3c 5b 8e 14 bc
       0.012224628 -0.00114389 0.02752063 -0.009067143
000150 ad 3b f0 bc 56 b1 de bc bd 0b f0 bc 1a 28 89 bc
       -0.02932533 -0.02718417 -0.029302472 -0.016742755
000160 55 0b 8e bc 8c 2d c2 3c 26 97 f1 bc 75 d1 66 bc
       -0.017339388 0.023703359 -0.029491019 -0.014088024
000170 25 ef 9a 3d 44 ae 08 3d 02 8a 39 bd 7b c7 05 bc
       0.075651444 0.033369318 -0.04529763 -0.008165236
000180 f4 cd 3e bb 26 5a c7 bc 50 ca 9c 3b 66 a6 62 bd
       -0.0029114457 -0.024334978 0.0047848597 -0.05533447
000190 80 9d 45 bd 9f 96 79 3d 38 7b 43 ba aa ed 57 3b
       -0.048245907 0.06093466 -0.00074570207 0.0032948055
0001a0 1a 10 23 bd 5f b2 3c bb 86 0e 8c bd 67 7b b1 bb
       -0.039810278 -0.002879284 -0.068387076 -0.005416322
0001b0 f4 2b 4c bb 78 67 cf bb 74 1d 4a 3d b4 46 7f 39
       -0.0031154128 -0.006329473 0.049344495 0.00024345034
0001c0 e6 59 02 3d 92 47 eb 3c 9f db 1d 3d 87 40 b4 3c
       0.031824015 0.02872065 0.038539525 0.022003425
0001d0 c0 a2 35 3d 35 5e 89 3d a7 45 75 bd f4 6b 0f 3d
       0.044344664 0.06707422 -0.05988088 0.03501506
0001e0 10 d0 16 bd e1 67 76 3b 70 d1 2d 3b 2e c8 cd bb
       -0.036819518 0.0037598538 0.002652254 -0.006279967
0001f0 3d ad 80 bc bb 25 8e bc f0 e2 17 bd b7 0a 01 bc
       -0.015707606 -0.017351976 -0.03708166 -0.00787609
000200 25 cf a1 3c 7b df 8a bc ff 5d 34 bc 5d 29 40 bd
       0.019752095 -0.016952267 -0.011008739 -0.046914447
000210 66 bb 08 3d 79 52 10 3d 2f a7 8a 3d 83 55 84 bd
       0.033381842 0.035234902 0.06770169 -0.064616226
000220 91 bd 9c 3c aa 6c 10 bc c9 18 bb bc 4d f1 5f 3c
       0.019133361 -0.00881497 -0.022838967 0.01366837
000230 d9 45 4a bc 44 f7 be bb 8f 4d 90 3c fc a5 5d 3b
       -0.012345755 -0.005827816 0.017615108 0.0033820858
000240 9f f4 ab bc 9a 2e d3 bc a9 a4 60 bc f3 52 a3 bc
       -0.020990668 -0.025779057 -0.013711133 -0.019937014
000250 1b c1 d4 3b 91 ff 6a bc af 6d 93 bc 23 a6 1c bc
       0.0064927465 -0.014343158 -0.017996637 -0.009561094
000260 03 34 cc 3b 34 3d 55 bb 0b 88 f4 bb 40 5e 24 3d
       0.006231786 -0.00325377 -0.0074625066 0.040128946
000270 f7 fa a8 bb 4d 0d b3 3d 1f 63 4b 3d 7e 98 3a 3d
       -0.0051568705 0.08742771 0.049655076 0.045555584
000280 60 34 dd bb 1d 5a 36 3c b3 33 cf ba 70 8b 51 3b
       -0.0067506284 0.011129883 -0.0015808254 0.003197398
000290 a2 cc 93 bc eb 58 18 bd 4d de dc 3c 42 de c2 bd
       -0.018041912 -0.037194174 0.02696147 -0.095150486
0002a0 85 22 53 3c 9c cb 93 3d 02 11 8d bd 65 4e 9c 3c
       0.012886648 0.0721657 -0.068880096 0.01908035
0002b0 b6 61 52 3d d5 e6 cb bb c4 d2 92 bc 72 eb ec bb
       0.051362716 -0.0062225857 -0.017922767 -0.0072302157
0002c0 fb 79 fa 3c be 66 00 ba de 9b 44 3d 0f 28 7e bb
       0.030575743 -0.0004898122 0.04800021 -0.00387812
0002d0 03 43 e4 3b 20 48 7c 3c 76 03 d7 ba 7f b9 8d 3d
       0.006965996 0.015398055 -0.001640423 0.06920146
0002e0 9c 2b 88 3d 78 4b c4 3c cb ea 96 3a 94 be f2 3b
       0.06648943 0.023961768 0.0011514066 0.0074079726
0002f0 7e ae 6a 3d c0 bd 19 3d e0 10 02 3c 1e 14 c8 3c
       0.057295315 0.037534475 0.007938594 0.024423655
000300 5c 9d 98 bc b9 99 33 3b 8b c3 1e 3d ce a7 5b 3d
       -0.018629722 0.0027404858 0.038760703 0.053626828
000310 8b d4 05 bc 0e e5 30 bc 13 b5 95 3d 69 6c f0 3c
       -0.00816835 -0.010796798 0.07309928 0.029348569
000320 e8 c5 bc 3d 4e 1c ad bd 98 65 fc 3c f7 d2 1a bc
       0.09217435 -0.08452664 0.030810162 -0.009449712
000330 54 6e f2 3a b7 3e 25 bc 60 3e 52 bd 34 5c a9 bc
       0.0018496015 -0.010085753 -0.051329017 -0.020673849
000340 0d ea 17 bc 8a 9c ec bc 71 5e bc 3c 62 28 b3 bc
       -0.009272111 -0.028883237 0.022994252 -0.021869842
000350 e3 6b 3d bc cb 03 4f 3d aa ae 19 3c 53 a7 4f bc
       -0.011561367 0.050540727 0.009380022 -0.012674171
000360 55 1f d4 bc 55 f6 e6 3c 2d 2b 91 bc 17 b4 aa bb
       -0.025893847 0.028193632 -0.017720783 -0.0052094567
000370 01 1d 98 3d f4 6d 9d 3c 91 e9 12 3d 97 e0 81 bc
       0.07427407 0.019217469 0.035867278 -0.015854163
000380 aa 69 d5 bb 24 28 bd bc 64 06 80 bb e2 f2 aa 3d
       -0.0065128403 -0.02309043 -0.003907012 0.083471075
000390 76 47 57 bc 1b 8a 07 bc 93 cd 76 3c 8c b1 af 3c
       -0.013139596 -0.008272673 0.015063661 0.021446966
0003a0 d1 fc 23 bd 79 24 18 bc 6e 0d 10 3b 92 c3 21 3b
       -0.040036026 -0.0092860395 0.002198066 0.002468322
0003b0 f2 86 b2 bc 34 7e 88 ba 51 2d 59 3b e1 c7 a8 3c
       -0.021792863 -0.0010413588 0.0033138583 0.020603122
0003c0 87 5d 14 3d 3e ed a5 3c bf 3f a4 bd 2d f8 99 bc
       0.036222007 0.020254727 -0.08019971 -0.018795097
0003d0 44 41 ea bb 47 ae ab 3d 86 f4 98 bc 4c d1 55 3d
       -0.0071488936 0.0838285 -0.018671285 0.052201554
0003e0 fe 3e 60 bd 35 c7 1a bc 5f c1 70 bd 6c e3 07 3c
       -0.054747574 -0.009446909 -0.058778163 0.008293968
0003f0 e1 9a 1e bc 1b 6e 40 bc 1e 14 c4 bc 13 71 b6 bb
       -0.009680481 -0.011745001 -0.023935374 -0.0055676787

fc3.bias f4 [100]
000000 93 0b a2 bb de d5 cb bb 47 7f 58 ba db 6f 39 bb
       -0.0049452274 -0.0062205633 -0.0008258712 -0.002829543
000010 37 f4 98 ba 23 ae 8f 39 1f d3 98 bb 78 f9 9b bb
       -0.0011669461 0.00027404827 -0.0046638395 -0.0047599636
000020 58 a4 e0 b9 31 52 3c bb 2c 7c 2c bb 5d 31 57 bb
       -0.00042847055 -0.0028735513 -0.002631913 -0.003283582
000030 ca 2f af bb 69 cf 02 bb 02 a3 8a bb 30 a7 ba bb
       -0.005346273 -0.0019960052 -0.004230858 -0.0056962
000040 1a 6a 08 3b 5c 2c 8b bb 19 1c 1b bb 31 74 21 bb
       0.0020815195 -0.0042472314 -0.002366787 -0.0024635906
000050 2b 83 dc bb 10 d8 46 bb cb 76 84 bb 16 11 53 bb
       -0.0067295036 -0.0030341186 -0.0040424815 -0.003220623
000060 20 e6 b7 bb 8c 8a 8d bb 55 0c ba bb 34 9d a5 bb
       -0.00561215 -0.0043194946 -0.0056777396 -0.0050541405
000070 a4 84 9c bb ca 75 21 bb 90 1f 91 bb e3 58 ae bb
       -0.004776554 -0.0024636858 -0.0044288114 -0.0053206547
000080 35 89 c5 ba 57 52 e5 bb da 12 a2 bb 09 c5 a0 bb
       -0.0015070798 -0.006998341 -0.004946095 -0.004906301
000090 99 41 5e bb 41 ff 8b bb 49 11 4b bb 6a c7 8e bb
       -0.003391361 -0.004272372 -0.0030985645 -0.004357268
0000a0 ea 71 70 bb 7a ae 8e ba 62 89 87 3d e2 05 76 3d
       -0.0036688992 -0.0010885738 0.066180006 0.060064204
0000b0 73 90 30 3c c5 4c b3 ba fd 90 9f bb d1 0a 6f bb
       0.010776627 -0.0013679495 -0.004869579 -0.0036474953
0000c0 46 d8 92 3d 2c 26 fa ba 6a a3 80 b9 7d ef 94 bb
       0.07170157 -0.0019084862 -0.00024535815 -0.004545151
0000d0 0e 05 02 bc 74 d7 03 3d e4 cb 31 3c 80 de 87 3c
       -0.007935775 0.032187894 0.010851834 0.016585588
0000e0 8c b3 98 bb 9b 4a 10 bb 4a d9 bb bb 31 14 a0 bb
       -0.0046600755 -0.0022017125 -0.00573269 -0.0048852195
0000f0 37 7a 6d bb 46 e8 b1 3d 4d 89 66 3c da 1d 6d 3d
       -0.0036236176 0.08686881 0.014070821 0.057889797
000100 89 01 81 3d af 4b 9d 3c a6 a1 8c 3a ea 0e 77 bb
       0.06299121 0.019201128 0.0010729327 -0.0037698098
000110 4c 8a 06 3d 96 f4 1e 3c 69 92 c0 3a c8 ae c3 ba
       0.032846734 0.0097018685 0.0014692071 -0.0014929408
000120 50 f7 48 3d 5b d6 84 3d 8a ef 9c bb d1 03 99 3c
       0.04906398 0.064861976 -0.0047892975 0.018678578
000130 7e d0 28 bc 46 3b 84 bb 0e ac 92 bb ab 83 98 bb
       -0.010303615 -0.0040353863 -0.004476077 -0.004654368
000140 3b 3e ac ba 22 97 1d bb fe 99 99 3b 7f ac 22 3c
       -0.0013141105 -0.002404638 0.0046875468 0.009928822
000150 39 7e 95 3c 9c bb be bb b1 f3 5f bb 2b db 49 ba
       0.018248664 -0.0058207046 -0.003417235 -0.00077002
000160 80 9e 9c 3b 2a 2b 9a bb 81 23 d8 b9 f1 e0 4c 3c
       0.004779637 -0.0047048526 -0.00041225183 0.012504802
000170 8b f4 e2 bb e5 8e a6 3d fb 7c b5 3c 53 c3 06 bc
       -0.0069261244 0.08132724 0.022154322 -0.00822528
000180 e7 1a 35 bb 36 a0 fc b9 58 bd 8b 3d 87 4b 86 bc
       -0.0027634443 -0.00048184552 0.06823224 -0.016393436
