integration/checkpoint.pth (torch, 125739 bytes, 10 tensors)

ip_bn.weight f4 [8]
1.4587673 0.583593 0.7747727 0.72083867 0.43165222 0.7434444 0.73404 0.37380168
00000000: e3b8 ba3f 5a66 153f 8157 463f e288 383f
00000010: 8501 dd3e 5f52 3e3f 0cea 3b3f ef62 bf3e

ip_bn.bias f4 [8]
-0.051334742 -0.037781205 0.040542614 0.08718778 0.025211254 0.1327874 -0.028104747 0.019117191
00000000: 6144 52bd 77c0 1abd 0310 263d 828f b23d
00000010: d587 ce3c 6cf9 073e ed3b e6bc a89b 9c3c

ip_bn.running_mean f4 [8]
0.61183006 0.6135474 0.64322466 0.24774301 0.2838722 0.37677586 0.397421 0.47484067
00000000: e5a0 1c3f 7111 1d3f 5faa 243f 58b0 7d3e
00000010: b257 913e c4e8 c03e c47a cb3e 511e f33e

ip_bn.running_var f4 [8]
0.028202523 0.040114924 0.044226706 0.05776549 0.075842276 0.13360779 0.14865088 0.212208
00000000: fa08 e73c 8c4f 243d 1027 353d 829b 6c3d
00000010: 3253 9b3d 7bd0 083e f037 183e 0e4d 593e

fc1.weight f4 [128, 8]
0.16690382 -0.13495854 0.040922467 0.028790234 0.1976251 0.12388011 0.013793073 -0.23263267
0.0063383216 -0.22001489 0.13742518 -0.07425544 -0.17000595 0.18721232 -0.06987093 0.061968114
0.0141076455 -0.11730085 -0.044565316 0.2517892 -0.4404452 -0.123788275 -0.11792503 0.16931988
-0.29441053 -0.009250036 -0.15223661 -0.092508726 -0.08366659 -0.098453775 -0.18580313 -0.10476497
-0.019751474 0.15464911 -0.061024256 -0.08240088 0.23078522 -0.060499594 0.001417328 -0.116689995
0.013366694 -0.22848791 0.2532011 0.03310678 -0.03346882 0.07267195 0.04344771 -0.08594239
0.002949963 0.074389115 0.23555483 0.1954734 0.20451991 0.15219304 -0.13087879 -0.055165697
-0.0053399317 0.2482494 0.07619683 0.286772 0.13394992 -0.36496627 0.06599336 0.32134596
0.44320068 -0.10911106 0.022427935 -0.2244205 -0.017909067 0.29282635 -0.22729573 0.40858164
-0.24807131 0.121809915 -0.037154958 0.06806474 0.041003555 -0.37655357 -0.046914946 -0.18720919
1.1937428 -0.17063813 -0.50341934 0.23992287 0.29381105 -0.031284407 0.13183348 0.29655048
-0.01160326 -0.11625359 0.035553493 -0.32803386 0.13970613 -0.0600169 0.13637435 0.13555859
-0.35976613 -0.13689056 -0.15672216 -0.20321661 -0.214904 -0.14727712 -0.42368802 0.059468888
0.65684706 0.064108394 0.1920384 0.2812047 -0.3423888 0.08112751 0.35519046 -0.24306393
-0.0069004074 0.07733477 -0.12366251 -0.16109082 -0.15028772 0.21340342 -0.11758143 0.10134829
0.10710746 0.19440503 -0.26436323 0.21015362 0.1827902 -0.3005871 -0.17468412 0.19844861
-0.10668732 -0.19386373 -0.12785967 -0.007801718 -0.25652745 -0.43096605 0.021269962 0.06400267
0.31483588 -0.42437622 0.19190852 0.08924672 -0.2145873 0.052003823 0.37325254 0.29346722
-0.002964824 0.32479745 -0.24567372 0.17193122 0.27042904 -0.2988859 -0.00017332588 -0.12383364
-0.018485492 0.00946681 -0.10939996 -0.31791 -0.27314916 -0.023615416 0.3176702 0.1323443
-0.51936454 0.3470433 0.096941434 -0.44454786 -0.051497124 0.08822624 -0.27413383 -0.09369566
-0.014159598 -0.23695512 -0.15918617 -0.0045750723 0.18343353 -0.11305537 -0.36057746 -0.038742047
-0.6240699 0.18129763 0.38482428 0.0013269918 -0.33551213 -0.27544504 0.017989859 -0.023801034
-0.028953755 -0.07139453 -0.005136925 -0.015976297 0.18054336 -0.01906759 0.008858965 -0.3980667
0.088142134 0.13708225 -0.107320756 -0.16848357 0.08641233 -0.21481076 0.14477138 0.28195912
-0.29804745 -0.08472941 -0.03414516 -0.44285375 -0.16783163 0.0697853 0.014740975 -0.23516786
-0.031752806 -0.14275195 -0.2744649 -0.10700104 0.013427126 -0.19009724 -0.2754276 0.09244767
0.3008152 -0.09233616 0.09405694 0.3029237 0.002544556 -0.28384823 0.3251933 0.24905752
0.17804903 -0.20232294 -0.22504479 0.37041816 0.2409756 -0.14825696 0.098655365 0.13662268
-0.0030034934 -0.059551526 -0.22680578 0.031245828 -0.057298403 -0.079041556 -0.13260828 -0.12958229
0.004017229 0.22382605 -0.21570593 -0.41938868 0.21204777 0.02442863 0.11310176 0.091322325
-0.03018182 -0.20463572 -0.2540728 -0.04162801 0.086343005 -0.38464582 -0.2688785 0.2249726
00000000: d6e8 2a3e 9232 0abe 519e 273d 7fd9 eb3c
00000010: 3c5e 4a3e dbb4 fd3d 57fc 613c 4237 6ebe
00000020: b2b1 cf3b 954b 61be 30b9 0c3e 3c13 98bd
00000030: 0a16 2ebe 96b4 3f3e 7d18 8fbd 47d2 7d3d
00000040: c123 673c 6e3b f0bd 1f8a 36bd 84ea 803e
00000050: 0982 e1be b584 fdbd ae82 f1bd 3162 2d3e
00000060: fabc 96be 778d 17bc eae3 1bbe 3775 bdbd
00000070: 6459 abbd 22a2 c9bd 2d43 3ebe 048f d6bd
00000080: d8cd a1bc 565c 1e3e 92f4 79bd cbc1 a8bd
00000090: f652 6c3e 6cce 77bd a3c5 b93a 2afb eebd
000000a0: faff 5a3c bcf8 69be 93a3 813e fa9a 073d
000000b0: 9a16 09bd 08d5 943d 3af6 313d 9002 b0bd
000000c0: 2b54 413b 5259 983d 4935 713e 2e2a 483e
000000d0: ab6d 513e 7ed8 1b3e 1705 06be 6df5 61bd
000000e0: 98fa aebb 1735 7e3e 150d 9c3d c8d3 923e
000000f0: 2b2a 093e dcdc babe 8727 873d 7587 a43e
00000100: 33eb e23e 9f75 dfbd caba b73c 7dce 65be
00000110: 09b6 92bc 56ed 953e 36c0 68be 9d31 d13e
00000120: 6806 7ebe 7a77 f93d cc2f 18bd 8765 8b3d
00000130: 58f3 273d a1cb c0be e329 40bd c4b3 3fbe
00000140: 90cc 983f c3bb 2ebe 17e0 00bf 57ae 753e
00000150: 676e 963e 1424 00bd 5bff 063e 77d5 973e
00000160: 9a1b 3ebc 5d16 eebd 8aa0 113d 0ef4 a7be
00000170: 200f 0f3e 48d4 75bd b8a5 0b3e dfcf 0a3e
00000180: 4433 b8be 0a2d 0cbe c67b 20be 0418 50be
00000190: cb0f 5cbe d0cf 16be a3ed d8be a695 733d
000001a0: 2127 283f 434b 833d b7a5 443e 10fa 8f3e
000001b0: 964d afbe 2e26 a63d 86db b53e c0e5 78be
000001c0: d01c e2bb b161 9e3d c542 fdbd fef4 24be
000001d0: 06e5 19be 6d86 5a3e 88ce f0bd b18f cf3d
000001e0: 285b db3d 1d12 473e 9e5a 87be 8332 573e
000001f0: 5b2d 3b3e 8de6 99be 65e0 32be 1d36 4b3e
00000200: e27e dabd 3784 46be a5ed 02be 8ea5 ffbb
00000210: 9157 83be 95a7 dcbe 583e ae3c d513 833d
00000220: 2b32 a13e d747 d9be ab83 443e fcc6 b63d
00000230: c6bc 5bbe f601 553d f51a bf3e 5641 963e
00000240: 7e4d 42bb da4b a63e e491 7bbe bd0e 303e
00000250: ad75 8a3e 9307 99be d0be 35b9 7e9c fdbd
00000260: e36e 97bc ae1a 1b3c 160d e0bd 19c5 a2be
00000270: 35da 8bbe 1e75 c1bc aba5 a23e 4485 073e
00000280: 13f5 04bf a9af b13e 3b89 c63d c79b e3be
00000290: a6ee 52bd f5af b43d 455b 8cbe 83e3 bfbd
000002a0: a9fd 67bc 5da4 72be b301 23be 7dea 95bb
000002b0: 00d6 3b3e 9389 e7bd 9c9d b8be fbaf 1ebd
000002c0: 0cc3 1fbf 16a6 393e b007 c53e 75ee ad3a
000002d0: 3fc8 abbe 2207 8dbe 785f 933c 63fa c2bc
000002e0: 6d30 edbc 4c37 92bd a653 a8bb b9e0 82bc
000002f0: 5ce0 383e a233 9cbc 3125 113c 66cf cbbe
00000300: dd83 b43d 4a5f 0c3e fcca dbbd f586 2cbe
00000310: f3f8 b03d 5af7 5bbe f33e 143e f25c 903e
00000320: ad99 98be 9d86 adbd ccdb 0bbd babd e2be
00000330: 0edc 2bbe 98eb 8e3d 2184 713c d8cf 70be
00000340: 3b0f 02bd 912d 12be aa86 8cbe 5c23 dbbd
00000350: 73fd 5b3c daa8 42be d904 8dbe 3455 bd3d
00000360: 7304 9a3e be1a bdbd eda0 c03d d118 9b3e
00000370: 91c2 263b 8e54 91be bc7f a63e ef08 7f3e
00000380: 7c52 363e bf2d 4fbe 2472 66be 73a7 bd3e
00000390: 4fc2 763e acd0 17be d30b ca3d d1e6 0b3e
000003a0: 42d6 44bb 4dec 73bd c63f 68be 40f7 ff3c
000003b0: bbb1 6abd 8ae0 a1bd 77ca 07be 38b1 04be
000003c0: f6a2 833b a832 653e 04e2 5cbe 1dba d6be
000003d0: 0d23 593e 8d1e c83c e5a1 e73d 3307 bb3d
000003e0: dd3f f7bc 078c 51be d415 82be 2282 2abd
000003f0: 9ad4 b03d 4cf0 c4be 71aa 89be 385f 663e

fc1.bias f4 [128]
-0.38523397 -0.14087504 -0.11813071 -0.34921715 -0.14090678 -0.109886505 -0.086164676 -0.060264114
-0.35798267 -0.34233853 -0.51429313 -0.0857966 -0.42983294 -0.42426538 -0.095915645 -0.16111365
-0.2976954 -0.49508888 -0.025157848 -0.101466656 -0.12780139 -0.13654332 0.008729234 -0.124498285
-0.16789202 -0.5666647 -0.11824757 -0.4822134 -0.5970472 -0.06168358 -0.0436982 -0.050396267
-0.19637036 -0.17518 -0.28547105 -0.20085345 -0.17795569 -0.12503189 -0.26880038 -0.021826863
-0.35172865 -0.3213563 -0.16378544 -0.3536216 -0.41383952 -0.17687158 -0.25619128 -0.18785547
-0.47146308 -0.1843853 -0.4831115 -0.66006356 -0.5585806 -0.38421264 -0.33418348 -0.17177022
-0.14770164 -0.10421471 -0.172587 -0.027316092 -0.098151974 -0.46922606 -0.60015863 -0.07362059
-0.13259088 -0.64841205 0.03327186 -0.09222978 -0.099969044 -0.124186225 -0.19724025 -0.42189437
-0.20353259 -0.18257779 -0.3058868 -0.42925915 -0.6096526 -0.35187477 -0.33415005 -0.40242198
0.13858946 -0.62988544 -0.19506894 -0.09247345 -0.74311405 0.15507013 -0.2396106 -0.4063717
-0.5817981 -0.1741443 -0.16335657 -0.1167473 -0.18150315 -0.016729977 -0.32862905 -0.49181807
-0.406283 -0.05240655 -0.29974946 -0.5477281 0.00091819116 -0.20751622 -0.604159 -0.22806317
-0.47155833 -0.20777594 -0.07639123 -0.26746252 -0.0015458205 0.21277799 0.31976765 -0.08780308
-0.42144057 -0.50728273 0.08095653 -0.78212935 -0.42487058 0.2502573 -0.27149013 -0.4213852
-0.47525674 -0.09567045 -0.21034163 -0.26658702 -0.044614892 -0.08463872 -0.05092276 0.05555137
00000000: 633d c5be 8c41 10be 84ee f1bd 97cc b2be
00000010: de49 10be 2d0c e1bd 1b77 b0bd 81d7 76bd
00000020: 8149 b7be ff46 afbe b7a8 03bf 21b6 afbd
00000030: 1013 dcbe 5039 d9be 6c6f c4bd fafa 24be
00000040: 886b 98be 4a7c fdbe d517 cebc c0cd cfbd
00000050: 5ede 02be 03d2 0bbe 1005 0f3c f5f8 febd
00000060: e3eb 2bbe f010 11bf c82b f2bd ade4 f6be
00000070: 16d8 18bf eca7 7cbd e2fc 32bd 516c 4ebd
00000080: 5015 49be 6362 33be 4329 92be 87ac 4dbe
00000090: 043a 36be 5c08 00be 34a0 89be 40ce b2bc
000000a0: c715 b4be d088 a4be 5fb7 27be e40d b5be
000000b0: c6e2 d3be d31d 35be 812b 83be 2f5d 40be
000000c0: 9c63 f1be 80cf 3cbe 645a f7be edf9 28bf
000000d0: 23ff 0ebf 85b7 c4be 191a abbe 88e4 2fbe
000000e0: 193f 17be 866e d5bd a6ba 30be ffc5 dfbc
000000f0: e703 c9bd 663e f0be ffa3 19bf 64c6 96bd
00000100: e7c5 07be 55fe 25bf 1348 083d f8e2 bcbd
00000110: 92bc ccbd 5955 febd 59f9 49be 8a02 d8be
00000120: d96a 50be acf5 3abe 329d 9cbe dbc7 dbbe
00000130: 3112 1cbf ee28 b4be b715 abbe 410a cebe
00000140: 65ea 0d3e 2c40 21bf 27c0 47be b862 bdbd
00000150: b93c 3ebf b4ca 1e3e 7b5c 75be f40f d0be
00000160: b8f0 14bf e252 32be f246 27be 3519 efbd
00000170: f6db 39be 4e0d 89bc 1142 a8be 94cf fbbe
00000180: 5304 d0be 40a8 56bd c378 99be e937 0cbf
00000190: c4b2 703a 227f 54be 2aaa 1abf 6489 69be
000001a0: 1870 f1be 37c3 54be 0173 9cbd d9f0 88be
000001b0: 219d caba 79e2 593e 96b8 a33e 1ad2 b3bd
000001c0: 0fc7 d7be 48dd 01bf 8acc a53d a139 48bf
000001d0: a388 d9be ba21 803e c100 8bbe cdbf d7be
000001e0: da54 f3be deee c3bd cc63 57be 187e 88be
000001f0: 1bbe 36bd 1157 adbd 6294 50bd d589 633d

fc2.weight f4 [128, 128]
-0.01687423 -0.13037355 -0.1550483 0.13466987 0.025714759 0.05032121 -0.09120985 0.0418735
0.07905143 0.33838367 0.020750316 0.082219094 0.22066851 -0.4124813 -0.088529326 0.12195176
-0.054753665 -0.08895725 -0.060942903 0.045882724 -0.15699627 0.008468098 -0.10766284 0.14236529
-0.3820461 0.06081749 -0.04091513 -0.10413618 0.11056958 -0.02924015 0.021501144 0.081797175
0.11340945 0.08948595 0.063604526 0.008092886 -0.65506864 -0.2273393 0.070562884 0.09432849
0.059886698 0.0061292723 -0.09295725 -0.62493 -0.03983464 -0.2708826 -0.059608016 0.029401274
-0.0039818985 0.103472896 -0.1022458 -0.14482872 -0.25959405 -0.61210525 -0.17888026 0.08045142
0.028749889 0.029883362 -0.3163637 0.09266894 0.058581077 -0.0018108708 0.056302395 0.18865706
-1.0324165 -0.23996688 0.042288765 -0.4302473 -0.013841415 -0.61065197 0.08984569 -0.045711096
0.047145285 -0.045071527 -0.02146113 0.058680184 -0.07399513 -0.0964747 -0.13144484 0.0312866
0.05288829 0.07094364 -0.12758233 0.0042405445 -0.44596997 0.11931304 -0.04128127 -0.122032754
-0.39760774 -0.0155078815 0.14581041 0.034949746 -0.13859951 0.02607469 -0.038497902 -1.4113498
-0.050007835 0.17219579 0.033724584 -0.040219516 -0.03434444 0.029586459 0.07605106 -0.039647106
-0.20621498 0.123204485 0.07975418 -0.062356662 -0.5184807 -0.03082009 0.13374117 -0.075211644
-0.26789156 -0.22072503 -0.3820441 -0.12363038 -0.39097112 0.119489335 -0.11541673 0.09834782
0.057825625 0.072802685 0.037778433 -0.12885278 -0.092662804 -0.028214663 0.06582116 0.10443199
0.00070365594 -0.06088314 -0.080403894 -0.008281722 0.030637661 0.04762256 -0.0069840234 -0.0068332567
0.06602595 0.039161794 -1.0501189 -0.1279659 0.22845967 0.24033262 -0.02086439 -0.12931009
-0.09829046 0.18738914 -0.086911306 -0.07376235 -0.2565445 0.01733313 -0.8206842 -0.19154032
-0.08088448 0.053646237 0.062477216 -0.13913095 -0.16871375 -0.00988272 -0.07916806 -0.06095534
0.09428471 -0.16035098 -0.049425025 0.030487934 -0.1255102 0.08901318 0.20879294 -0.48549297
-0.07943337 0.0610475 -0.74520624 -0.9110288 -0.038497288 -1.2459168 0.023831926 -0.095268086
-0.059867345 -0.03667395 -0.043199196 -0.033039823 0.22034636 -0.23729134 0.26805577 -0.11913506
-0.7107728 -0.05291008 -0.04102213 0.36676505 0.075902276 0.07957331 0.13335042 0.13223618
-0.79205364 -0.11591507 0.26100487 -0.4443199 0.07724667 -0.20653073 0.014694481 -0.3214261
-0.32413426 0.3487159 -0.13533726 0.039399777 0.06074498 -0.26860368 -0.24824703 -0.049504105
-0.036706917 -0.15019809 -0.15028448 0.027298003 -0.15582362 0.43938208 0.021427315 0.4324096
-0.009199068 0.01591657 0.10946401 0.1252442 0.13504355 -0.033122726 0.17186935 -0.61009985
0.1982881 -0.10277895 -0.014744795 0.0014535943 0.040117122 0.108455814 -0.99771374 -0.007872641
-0.026421051 -0.066829436 0.044826172 -0.07942842 -0.51633984 -1.0579823 0.6604353 -0.15100819
0.089221746 0.06377194 0.2726716 -0.18277147 0.2400363 0.6810154 -0.07055845 -0.120205425
-0.1693906 -0.020453265 -0.004722245 0.31043243 -0.18575823 -0.027379679 0.033805184 -1.4366446
00000000: d33b 8abc a580 05be fbc4 1ebe e6e6 093e
00000010: c2a7 d23c 9d1d 4e3d 3bcc babd 8c83 2b3d
00000020: b7e5 a13d a040 ad3e 91fc a93c 7c62 a83d
00000030: edf6 613e c030 d3be dd4e b5bd d8c1 f93d
00000040: 6145 60bd 382f b6bd 449f 79bd 86ef 3b3d
00000050: a1c3 20be c7bd 0a3c 567e dcbd 35c8 113e
00000060: 8c9b c3be c31b 793d a096 27bd 5945 d5bd
00000070: 4e72 e23d 0a89 efbc 2b23 b03c 4785 a73d
00000080: 3743 e83d 6944 b73d 1743 823d 0698 043c
00000090: 94b2 27bf a2cb 68be 4683 903d 4c2f c13d
000000a0: c14b 753d 10d8 c83b 5f60 bebd 6afb 1fbf
000000b0: a629 23bd 20b1 8abe 8927 74bd f1da f03c
000000c0: 967a 82bb 99e9 d33d 3f66 d1bd fb4d 14be
000000d0: 83e9 84be eeb2 1cbf 632c 37be b7c3 a43d
000000e0: e384 eb3c f4cd f43c 6cfa a1be 37c9 bd3d
000000f0: b6f2 6f3d be5a edba 579d 663d 512f 413e
00000100: 3926 84bf e1b9 75be fc36 2d3d 6049 dcbe
00000110: 1ac7 62bc b053 1cbf 0401 b83d 8f3b 3bbd
00000120: 6a1b 413d ec9c 38bd 40cf afbc a25a 703d
00000130: c28a 97bd 8794 c5bd 7a99 06be 6126 003d
00000140: 64a1 583d e64a 913d f1a4 02be 44f4 8a3b
00000150: 2d56 e4be 655a f43d 8d16 29bd 4fec f9bd
00000160: 3e93 cbbe c514 7ebc 534f 153e 7727 0f3d
00000170: 08ed 0dbe 979a d53c faaf 1dbd 1ca7 b4bf
00000180: 04d5 4cbd 1854 303e ca22 0a3d 38bd 24bd
00000190: c1ac 0cbd 4d5f f23c a8c0 9b3d 0165 22bd
000001a0: 052a 53be a252 fc3d 2956 a33d b369 7fbd
000001b0: 27bb 04bf 6a7a fcbc 72f3 083e 9008 9abd
000001c0: 1529 89be be05 62be 499b c3be ed31 fdbd
000001d0: 5e2d c8be d3b6 f43d 9b5f ecbd 956a c93d
000001e0: 90da 6c3d 9319 953d 8fbd 1a3d fcf1 03be
000001f0: ffc5 bdbd 7022 e7bc 3fcd 863d 70e0 d53d
00000200: 8d75 383a 9960 79bd ccaa a4bd 0fb0 07bc
00000210: d5fb fa3c e00f 433d 3cda e4bb 83e9 dfbb
00000220: 9d38 873d 1e68 203d 4c6a 86bf 7e09 03be
00000230: 55f1 693e c119 763e cceb aabc dd69 04be
00000240: 824c c9bd f0e2 3f3e 8efe b1bd b710 97bd
00000250: cd59 83be 35fe 8d3c 5c18 52bf 2523 44be
00000260: c3a6 a5bd 28bc 5b3d 1ce8 7f3d 5878 0ebe
00000270: 4cc3 2cbe 22eb 21bc dd22 a2bd 4eac 79bd
00000280: 5818 c13d 0c33 24be e571 4abd d5c1 f93c
00000290: bf85 00be 8b4c b63d d1cd 553e 8992 f8be
000002a0: f6ad a2bd f20c 7a3d d6c5 3ebf 2f39 69bf
000002b0: 55af 1dbd 347a 9fbf 2c3b c33c ea1b c3bd
000002c0: 7637 75bd 6c37 16bd a4f1 30bd c454 07bd
000002d0: 7aa2 613e 80fc 72be 9b3e 893e 15fd f3bd
000002e0: 35f5 35bf 3db8 58bd d206 28bd a1c8 bb3e
000002f0: a772 9b3d 55f7 a23d 038d 083e ec68 073e
00000300: 07c4 4abf e164 edbd 6ea2 853e e67d e3be
00000310: 8133 9e3d cb7c 53be 1fc1 703c f691 a4be
00000320: edf4 a5be e48a b23e da95 0abe a961 213d
00000330: bacf 783d 6c86 89be 7834 7ebe d1c4 4abd
00000340: fe59 16bd 87cd 19be 2de4 19be 10a0 df3c
00000350: 3a90 1fbe b0f6 e03e 5688 af3c cb64 dd3e
00000360: b0b7 16bc 7763 823c ab2e e03d 0440 003e
00000370: db48 0a3e b2ab 07bd 85fe 2f3e 812f 1cbf
00000380: 090c 4b3e c57d d2bd 2794 71bc 8886 be3a
00000390: da51 243d 151e de3d 2b6a 7fbf 40fc 00bc
000003a0: f670 d8bc dfdd 88bd a69b 373d 5eab a2bd
000003b0: d92e 04bf f76b 87bf 4a12 293f e4a1 1abe
000003c0: e4b9 b63d dd9a 823d 9d9b 8b3e 7228 3bbe
000003d0: 13cc 753e 0657 2e3f f380 90bd 432e f6bd
000003e0: bb74 2dbe 9b8d a7bc 10bd 9abb 00f1 9e3e
000003f0: 6837 3ebe 594b e0bc 4e77 0a3d f8e3 b7bf

fc2.bias f4 [128]
0.23013972 8.532023e-05 0.22111732 0.080624625 0.22411838 0.02376997 0.028526338 -0.07812857
-0.051055472 0.016125727 -0.053455353 -0.08279522 -0.061732847 -0.021377651 0.26684883 -0.018841872
-0.077407636 -0.03689042 -0.059902582 0.0074274843 -0.051460735 -0.044721622 -0.009966137 0.19886705
0.0034216975 0.19254932 -0.12977129 -0.024774587 -0.07525018 -0.03478113 -0.063767925 0.0025809298
-0.034871776 -0.058967527 -0.08168683 -0.041041538 -0.091440685 -0.102266066 -0.10520477 0.06906364
-0.082708925 -0.027787086 0.03930851 -0.048841037 0.12222019 0.0058182725 -0.014425612 0.012877617
0.022016076 -0.033181995 -0.067004085 0.4564471 0.040654738 -0.014468611 -0.03923662 0.028380709
-0.09408641 0.07847261 -0.033256672 -0.033827756 -0.20289052 -0.07004108 0.03967358 -0.109635405
-0.0012094021 -0.01749813 -0.02188119 0.019853493 -0.025735 0.26156285 -0.041724235 -0.21157974
-0.04046376 0.3800393 0.0058055697 -0.022039942 -0.012900386 -0.0027064446 -0.055531953 -0.39832598
0.22602451 -0.10661802 0.02233036 -0.24642953 -0.11937398 -0.07369085 -0.007982685 -0.00016265381
-0.36110836 0.0212189 -0.056385886 -0.016794797 -0.062034797 -0.08920877 0.0030018527 -0.093985066
-0.06864444 -0.077610195 0.046997327 -0.010635567 -0.09134063 -0.0030184628 -0.007834617 0.4745502
-0.005338827 0.003186775 0.10018853 0.051916447 -0.122190595 0.013237601 0.15180528 -0.062396877
-0.002943122 -0.072616436 -0.00978769 -0.018087892 -0.09578622 -0.044659585 0.28389594 -0.066215016
0.28221822 0.024817757 -0.0065083853 -0.17951497 0.05614678 0.078758545 -0.008450449 -0.121112324
00000000: bfa9 6b3e f3ed b238 946c 623e 861e a53d
00000010: 4a7f 653e 3db9 c23c 11b0 e93c df01 a0bd
00000020: 8b1f 51bd 1a1a 843c 00f4 5abd 8a90 a9bd
00000030: 95db 7cbd 2f20 afbc 69a0 883e 455a 9abc
00000040: e587 9ebd 691a 17bd 695c 75bd 4162 f33b
00000050: 7ec8 52bd 052e 37bd 0249 23bc cea3 4b3e
00000060: 8f3e 603b a62b 453e c4e2 04be 13f4 cabc
00000070: c41c 9abd a876 0ebd c298 82bd d124 293b
00000080: b5d5 0ebd ef87 71bd 6d4b a7bd 2c1b 28bd
00000090: 4145 bbbd df70 d1bd 9975 d7bd 3d71 8d3d
000000a0: 4c63 a9bd bea1 e3bc f601 213d 8a0d 48bd
000000b0: 944e fa3d 35a7 be3b 6759 6cbc a4fc 523c
000000c0: 0f5b b43c d8e9 07bd 7039 89bd 6fb3 e93e
000000d0: 9585 263d c10d 6dbc 94b6 20bd a97e e83c
000000e0: 60b0 c0bd 3fb6 a03d 2638 08bd f98e 0abd
000000f0: 88c2 4fbe b371 8fbd c480 223d 8788 e0bd
00000100: cd84 9eba 3d58 8fbc 2e40 b3bc cba3 a23c
00000110: 35d2 d2bc 91eb 853e 08e7 2abd 5ca8 58be
00000120: 54bd 25bd 8394 c23e a63c be3b 1c8d b4bc
00000130: 245c 53bc 9b5e 31bb 7975 63bd 62f1 cbbe
00000140: f872 673e 8c5a dabd 29ee b63c 0658 7cbe
00000150: 587a f4bd 3aeb 96bd cfc9 02bc 0d8e 2ab9
00000160: 32e3 b8be 42d3 ad3c e3f4 66bd 3e95 89bc
00000170: 3318 7ebd 16b3 b6bd bbba 443b 3e7b c0bd
00000180: 7595 8cbd 18f2 9ebd 4580 403d cd40 2ebc
00000190: cc10 bbbd 67d1 45bb c45c 00bc 3ef8 f23e
000001a0: 54f1 aebb 36d9 503b a52f cd3d 57a6 543d
000001b0: 103f fabd 86e2 583c d872 1b3e de93 7fbd
000001c0: 65e1 40bb edb7 94bd 8c5c 20bc 0f2d 94bc
000001d0: 912b c4bd f8ec 36bd cf5a 913e bd9b 87bd
000001e0: e87e 903e 9c4e cb3c 4b44 d5bb c6d2 37be
000001f0: 2afa 653d 294c a13d c173 0abc bd09 f8bd

fc3.weight f4 [100, 128]
0.021593751 -0.058836907 0.14256912 -0.10330347 0.05585148 0.05019417 0.005646566 -0.031250246
-0.013932228 -0.0052656964 0.031816207 -0.057444327 0.008832052 -0.09230974 -0.124250785 0.015893001
-0.08211854 0.022318117 0.057015933 -0.007832656 -0.13925642 -0.0776603 0.048193373 -0.01033814
0.056688078 -0.012632585 0.026668776 -0.18085967 -0.053336162 -0.05165032 0.03631857 -0.09973797
-0.020666078 -0.068294816 -0.0039460957 -0.124604695 0.02902125 0.03621064 -0.03184307 -0.0655104
-0.0119289905 -0.09956953 -0.06739977 -0.036180824 -0.06540281 -0.08364385 0.028067932 -0.02918372
-0.08825268 -0.08628287 0.024378438 -0.20214689 0.0017837795 -0.061354335 -0.011756964 0.018568052
0.033633813 -0.010588462 0.076694615 -0.0066984044 -0.093381226 0.079868056 -0.11518687 -0.08156526
0.017312758 0.019817239 0.0036932032 0.024637612 0.051555116 -0.0139967855 -0.028054724 -0.07366689
-0.024961883 0.014841636 0.04434929 0.05615678 -0.112058245 -0.05553357 -0.041730978 -0.02621176
-0.05130684 -0.034976695 0.12462507 0.0735225 0.06595309 -0.0535843 -0.09489782 -0.06994492
-0.10334823 -0.030414859 -0.04856501 0.050418377 -0.05271464 0.04634192 -0.05354169 -0.019955859
-0.054760344 -0.066762 -0.014139789 -0.19758657 -0.16978708 -0.08647955 0.044315986 -0.26735768
-0.048623417 -0.027156284 -0.30148563 -0.029685669 -0.03742571 -0.011256011 -0.0019719175 0.015324308
0.06937303 -0.020669075 -0.09560758 -0.01472044 0.05636568 -0.09629651 -0.15646487 -0.13464372
-0.12408431 0.046606395 -0.038563292 -0.03797395 0.05791584 0.0081777545 -0.021842044 -0.07075112
0.017923664 -0.037830967 0.1020134 -0.07724134 0.033655822 -0.014177197 0.0074461126 0.018294381
-0.054912 0.0049188426 0.059581567 0.04400624 -0.02432958 -0.030986007 -0.1346133 0.032343328
-0.06109311 -0.014119312 -0.07935118 -0.010873131 -0.13045688 -0.079277694 0.021137275 -0.04468353
0.010554351 0.020305237 -0.06228198 -0.065147355 0.014104059 0.05794384 -0.024357356 -0.030686688
-0.015274073 0.010661803 0.071460865 -0.057749234 0.050925337 0.08562832 -0.012634531 -0.09887744
-0.025051929 0.034266084 -0.061111383 0.057482716 -0.06456311 -0.013667436 0.1227996 0.022459727
-0.03817888 -0.057527088 -0.02333892 -0.17163426 0.010634988 0.05103395 -0.009169177 -0.11652872
0.08481734 -0.017266816 -0.014517836 0.023348361 -0.12580858 -0.018402874 -0.109694414 -0.0015929635
0.011685312 -0.009479143 -0.06749426 0.030965857 -0.06576072 0.0033322528 0.01254857 -0.077601366
0.005299553 0.018290982 -0.062092327 0.010113431 -0.038596816 -0.14663866 -0.065628886 -0.030191248
-0.048662283 -0.13581432 0.09296801 0.07808131 0.071194045 0.043933637 0.045505457 -0.1881901
-0.101435326 -0.11565933 0.06108799 0.12931912 0.017909028 -0.04256507 0.07364748 0.014945008
0.043398477 -0.05322054 -0.050529502 -0.18592381 -0.14304209 0.0389696 0.039717592 -0.25181934
-0.06877671 -0.03354453 -0.27293488 0.017301051 -0.14210363 -0.047432292 0.002829937 0.0070612594
0.01138512 -0.109787956 -0.027815448 0.014673255 0.06225401 -0.084780045 -0.14898631 -0.034260627
-0.12207012 -0.019998 0.028613644 -0.031030029 0.032368418 0.04227632 -0.05064689 0.029392308
00000000: 61e5 b03c f8fe 70bd a4fd 113e c590 d3bd
00000010: 86c4 643d 6798 4d3d d406 b93b 4200 00bd
00000020: 0044 64bc dd8b acbb b651 023d be4a 6bbd
00000030: 50b4 103c e40c bdbd 3277 febd 0a32 823c
00000040: c42d a8bd 7cd4 b63c 8a89 693d 8a54 00bc
00000050: 3c99 0ebe 5d0c 9fbd 6a66 453d 4d61 29bc
00000060: c231 683d e7f8 4ebc 7a78 da3c 4733 39be
00000070: 0577 5abd 498f 53bd c8c2 143d 6c43 ccbd
00000080: e84b a9bc 27de 8bbd 404e 81bb bf30 ffbd
00000090: f9bd ed3c 9c51 143d e16d 02bd 512a 86bd
000000a0: d071 43bc 1ceb cbbd e408 8abd 5832 14bd
000000b0: e9f1 85bd 784d abbd b8ee e53c b212 efbc
000000c0: d2bd b4bd 13b5 b0bd 4ab5 c73c 98ff 4ebe
000000d0: b5cd e93a af4e 7bbd 48a0 40bc 071c 983c
000000e0: 9cc3 093d 3b7b 2dbc 1112 9d3d 4a7e dbbb
000000f0: a83e bfbd dd91 a33d 18e7 ebbd b00b a7bd
00000100: 7cd3 8d3c c357 a23c ab09 723b d1d4 c93c
00000110: 752b 533d c652 65bc 05d3 e5bc abde 96bd
00000120: dd7c ccbc 552a 733c 9aa7 353d a704 663d
00000130: cb7e e5bd 2b77 63bd 1aee 2abd 0bba d6bc
00000140: 1f27 52bd b943 0fbd 6e3b ff3d f792 963d
00000150: 6a12 873d 367b 5bbd ca59 c2bd 483f 8fbd
00000160: 3da8 d3bd 9528 f9bc 1bec 46bd 8083 4e3d
00000170: 4eeb 57bd 06d1 3d3d 884e 5bbd 787a a3bc
00000180: 624c 60bd 84ba 88bd 93aa 67bc 2254 4abe
00000190: aadc 2dbe 311c b1bd ae84 353d 1be3 88be
000001a0: 5929 47bd db76 debc 535c 9abe 5c2f f3bc
000001b0: b44b 19bd 226b 38bc 493b 01bb ce12 7b3c
000001c0: 7213 8e3d 3152 a9bc e8cd c3bd 002e 71bc
000001d0: b3df 663d 1b37 c5bd 5438 20be 0be0 09be
000001e0: ea1f febd 59e6 3e3d 8bf4 1dbd 938a 1bbd
000001f0: 2939 6d3d fdfb 053c 16ee b2bc f7e5 90bd
00000200: a6d4 923c a5f4 1abd 67ec d03d b530 9ebd
00000210: b0da 093d 7947 68bc 85fe f33b 19de 953c
00000220: 68eb 60bd 3e2e a13b cd0b 743d e33f 343d
00000230: d44e c7bc 5ed6 fdbc 12d8 09be 707a 043d
00000240: c53c 7abd b054 67bc df82 a2bd 3825 32bc
00000250: 7d96 05be 585c a2bd 1428 ad3c 1406 37bd
00000260: 28ec 2c3c 2b57 a63c 641b 7fbd fa6b 85bd
00000270: b614 673c 8556 6d3d 1489 c7bc a662 fbbc
00000280: 1b40 7abc d8ae 2e3c 135a 923d 768a 6cbd
00000290: 1697 503d e75d af3d 1001 4fbc 4180 cabd
000002a0: b439 cdbc 985a 0c3d ee4f 7abd ff72 6b3d
000002b0: aa39 84bd 62ed 5fbc 5b7e fb3d 76fd b73c
000002c0: 7561 1cbd 86a1 6bbd 4331 bfbc e4c0 2fbe
000002d0: 5f3e 2e3c fa08 513d 513a 16bc 9ca6 eebd
000002e0: b7b4 ad3d 2373 8dbc 38dc 6dbc 1045 bf3c
000002f0: f7d3 00be a0c1 96bc 77a7 e0bd fcca d0ba
00000300: c073 3f3c 684e 1bbc 6e3a 8abd 1cac fd3c
00000310: 8ead 86bd ed61 5a3b 8498 4d3c 77ed 9ebd
00000320: dfa7 ad3b f8d6 953c 8654 7ebd ceb2 253c
00000330: b217 1ebd 7228 16be 7068 86bd a353 f7bc
00000340: 1a52 47bd e912 0bbe 0366 be3d 18e9 9f3d
00000350: 2fce 913d c2f3 333d ee63 3a3d e8b4 40be
00000360: 53bd cfbd ccde ecbd 6637 7a3d 3b6c 043e
00000370: f4b5 923c b658 2ebd 7dd4 963d e8db 743c
00000380: 9ac2 313d c8fd 59bd 06f8 4ebd d062 3ebe
00000390: a079 12be 969e 1f3d eaae 223d 77ee 80be
000003a0: ceda 8cbd fd65 09bd 1fbe 8bbe efba 8d3c
000003b0: 9d83 11be 5d48 42bd 7776 393b 2362 e73b
000003c0: a888 3a3c 82d8 e0bd 39dd e3bc 1868 703c
000003d0: 10fe 7e3d 29a1 adbd de8f 18be df54 0cbd
000003e0: e6ff f9bd d8d2 a3bc 2967 ea3c b032 febc
000003f0: bf94 043d ef29 2d3d 1d73 4fbd 23c8 f03c

fc3.bias f4 [100]
-0.71639276 -0.74132025 -0.7090738 -0.7009272 -0.6966214 -0.7057634 -0.67914176 -0.67613286
-0.70312196 -0.6862575 -0.69596106 -0.7285174 -0.6562488 -0.714271 -0.7211758 -0.70330757
-0.73323315 -0.67601573 -0.7076362 -0.7194199 -0.7245614 -0.70323765 -0.71307224 -0.6806955
-0.7235181 -0.69893736 -0.68446577 -0.7270555 -0.7170437 -0.7137542 -0.6985808 -0.6718551
-0.72147626 -0.71541655 -0.69577175 -0.72558963 -0.701772 -0.6951487 -0.71995026 -0.69420993
-0.6991314 -0.6970448 -0.21800698 -0.72015226 -0.06019089 -0.73394924 -0.69911 -0.6992407
0.065983415 -0.71933556 -0.7156642 -0.7054159 -0.7409022 -0.7159389 -0.71906847 -0.13252388
-0.68739635 -0.66603667 -0.72608036 -0.7187158 -0.69401157 -0.7257531 -0.7300251 -0.7083051
-0.7010544 -0.7084699 -0.7152412 -0.74857324 -0.7074888 -0.7118781 -0.7322812 -0.7289762
-0.67638564 0.03620108 -0.738411 -0.68822014 -0.7239947 -0.067801215 -0.68328434 -0.68965924
-0.7253024 -0.7403685 -0.045263477 -0.6928884 -0.7084194 -0.72685856 -0.0017273152 -0.69261235
-0.68216115 -0.6827406 -0.7003604 -0.73621595 -0.21057244 -0.73408276 -0.70268995 -0.7159139
-0.7089304 -0.67013294 -0.6893245 -0.71511436
00000000: 8465 37bf 2ac7 3dbf dc85 35bf f76f 33bf
00000010: c855 32bf e9ac 34bf 3cdc 2dbf 0b17 2dbf
00000020: cdff 33bf 92ae 2fbf 812a 32bf 1e80 3abf
00000030: ecff 27bf 77da 36bf fa9e 38bf f70b 34bf
00000040: 2bb5 3bbf 5e0f 2dbf a527 35bf e72b 38bf
00000050: db7c 39bf 6207 34bf e78b 36bf 0f42 2ebf
00000060: 7b38 39bf 8fed 32bf 2639 2fbf 4f20 3abf
00000070: 2d90 37bf 98b8 36bf 31d6 32bf b2fe 2bbf
00000080: abb2 38bf 8a25 37bf 191e 32bf 3ec0 39bf
00000090: 54a7 33bf 44f5 31bf a94e 38bf beb7 31bf
000000a0: 47fa 32bf 8771 32bf 393d 5fbe e65b 38bf
000000b0: b98a 76bd 19e4 3bbf dff8 32bf 7001 33bf
000000c0: 5022 873d 6026 38bf c535 37bf 2396 34bf
000000d0: c4ab 3dbf c647 37bf df14 38bf 57b4 07be
000000e0: 35f9 2fbf 6181 2abf 67e0 39bf c2fd 37bf
000000f0: beaa 31bf f5ca 39bf ede2 3abf 7c53 35bf
00000100: 4d78 33bf 495e 35bf 0c1a 37bf 7fa2 3fbf
00000110: fc1d 35bf a53d 36bf c876 3bbf 2f9e 3abf
00000120: 9c27 2dbf 9547 143d 8108 3dbf 322f 30bf
00000130: b757 39bf 5ddb 8abd b9eb 2ebf 828d 30bf
00000140: 6bad 39bf ca88 3dbf 3266 39bd 2261 31bf
00000150: f95a 35bf 6713 3abf 1567 e2ba 0b4f 31bf
00000160: 1da2 2ebf 17c8 2ebf d24a 33bf a678 3cbf
00000170: 4da0 57be d9ec 3bbf 7de3 33bf 2246 37bf
00000180: 767c 35bf d58d 2bbf 9277 30bf bc11 37bf
