integration/checkpoint.pth (torch, 126763 bytes, 10 tensors)

ip_bn.weight f4 [10]
0	0x3fa67a0b	1.3005995
1	0x3eb67ac3	0.35640535
2	0x3f05bdfe	0.5224303
3	0x3e7f5a02	0.24936679
4	0x3ea37b47	0.3192999
5	0x3e4c85bf	0.19972895
6	0x3e07c03f	0.1325693
7	0x3e413ecb	0.1887161
8	0x3f394a7e	0.7237929
9	0x3f800000	1.0

ip_bn.bias f4 [10]
0	0xbd840401	-0.06446076
1	0x3befe224	0.0073206592
2	0xbd3b4a3a	-0.045725085
3	0xbdc77434	-0.09738961
4	0x3e3ce2aa	0.1844584
5	0x3cf69eea	0.030105073
6	0xbcf5c3d0	-0.030000597
7	0x3e045df9	0.12926473
8	0x3da20ad6	0.07912223
9	0xbdab0b09	-0.08351714

ip_bn.running_mean f4 [10]
0	0x3f124d11	0.57148844
1	0x3edb0f96	0.4278533
2	0x3f02d6d6	0.51109064
3	0x3f1c2120	0.60988045
4	0x3f3389d5	0.7013219
5	0x3f4f27ae	0.8091992
6	0x3f44933a	0.7678715
7	0x3f012ab9	0.50455815
8	0x3e7484c3	0.2387877
9	0x00000000	0.0

ip_bn.running_var f4 [10]
0	0x3d2c65c6	0.042089246
1	0x38834d25	6.260936e-05
2	0x3b9e8d4a	0.0048386203
3	0x3b6ea7be	0.00364159
4	0x3b4817e1	0.003053181
5	0x3b7126ba	0.0036796764
6	0x3de09bd9	0.109672256
7	0x3e662dce	0.2247841
8	0x3e316ef5	0.17327483
9	0x00000004	6e-45

fc1.weight f4 [128, 10]
0	0xbb9abe48	-0.0047223903
1	0xbddea16c	-0.108706325
2	0x3cafd00e	0.021461513
3	0x3de3ca3d	0.11122558
4	0x3da912c9	0.08255536
5	0x3dbe4771	0.0929097
6	0x3d9127c2	0.07087661
7	0xbeb0dca9	-0.3454335
8	0x3e18258f	0.14858077
9	0x3e720ea8	0.23638403
10	0x3e1bae3e	0.15203187
11	0xbe15c965	-0.14627607
12	0xbeb28b05	-0.34871688
13	0x3ed3eeea	0.41393214
14	0xbd41b707	-0.04729369
15	0xbe1cce40	-0.15313053
16	0x3eaa1c39	0.33224657
17	0xbf0b1f97	-0.5434508
18	0x3e0dfcc7	0.13865958
19	0x3f5d5848	0.8646283
20	0xbeae4ced	-0.34043065
21	0x3e32e1b4	0.17468911
22	0x3dd6206a	0.10455401
23	0x3ebb9472	0.36636692
24	0x3db2f89a	0.08738823
25	0x3e45540e	0.19270346
26	0xbee3dfcc	-0.4450668
27	0x3d891341	0.066931255
28	0x3e34352a	0.17598405
29	0x3e748787	0.23879825
30	0xbeb3c32b	-0.3510984
31	0xbe26b8e7	-0.16281472
32	0x3e916dee	0.28404182
33	0x3e8359c5	0.25654426
34	0xbe66ccfc	-0.22539133
35	0xbea963b1	-0.3308387
36	0xbf202eaa	-0.62571204
37	0xbe07ee2b	-0.13274448
38	0x3e4db1ca	0.20087352
39	0x3e641d2a	0.2227675
40	0xbe060d7b	-0.1309108
41	0xbea320c5	-0.3186094
42	0x3e3b1399	0.18269195
43	0x3f2756b0	0.6536665
44	0x3cf9a087	0.030472053
45	0x3e49469e	0.19655845
46	0x3f1fa0f4	0.6235497
47	0x3dff22c2	0.124578014
48	0x3e877c1e	0.2646188
49	0x3f1e1a0b	0.6175849
50	0x3ecd26e8	0.40068746
51	0x3e2cbebe	0.16869637
52	0xbd528c6c	-0.051403448
53	0x3e12a3e8	0.14320338
54	0x3d0f3455	0.034962017
55	0xbec0bd45	-0.376444
56	0xbd711cdc	-0.058865413
57	0x3e63de49	0.22252764
58	0xbe5486a4	-0.20754486
59	0x3f180659	0.59384686
60	0x3e7fe1cf	0.24988483
61	0xbf004c6d	-0.50116616
62	0xbe3abd04	-0.18236166
63	0x3e9667b4	0.29375994
64	0x3dec8301	0.115484245
65	0x3e20ddc7	0.15709601
66	0xbe929858	-0.28631854
67	0xbe49f907	-0.19723903
68	0xbe24efd6	-0.16107115
69	0x3f0fe2ad	0.56205255
70	0xbee2eebe	-0.4432277
71	0x3ee0fca5	0.43942752
72	0x3e37670d	0.17910405
73	0xbc99d113	-0.018776452
74	0x3c427d8d	0.011870754
75	0x3ebcf57e	0.36906046
76	0x3cf01f82	0.0293119
77	0x3e3ffdcb	0.18749158
78	0xbd262922	-0.04056657
79	0x3df23a99	0.11827583
80	0x3cab0cb7	0.020880086
81	0xbe09470a	-0.13406006
82	0xbe29cb57	-0.16581474
83	0x3e7d89b5	0.24759562
84	0xbe03ee2a	-0.12883821
85	0xbcc5630a	-0.024095077
86	0x3e06914a	0.13141361
87	0xbe5dcfaf	-0.21661256
88	0x3d392ce3	0.045208823
89	0x3e6fde97	0.23424755
90	0x3e8451d4	0.2584368
91	0xbee79aab	-0.4523519
92	0x3c3a1920	0.011358529
93	0xbd72ad92	-0.05924756
94	0x3e1c92de	0.152904
95	0x3e5be2e7	0.21473275
96	0xbe879884	-0.26483548
97	0x3c59adb3	0.013286042
98	0xbb004c60	-0.0019576773
99	0x3ee63e12	0.4496923
100	0xbdfb6b45	-0.122763194
101	0xbe896a4a	-0.26838905
102	0xbf3f2b84	-0.74675775
103	0x3e391825	0.18075617
104	0x3e2ca539	0.16859902
105	0xbe564ee0	-0.20928526
106	0x3d8ba539	0.06818623
107	0x3e2d65fe	0.16933438
108	0xbea12bdc	-0.31478775
109	0x3e65b9b8	0.22434127
110	0x3e588fbe	0.21148583
111	0xbe4aa3e1	-0.19789077
112	0xbebcea91	-0.3689771
113	0x3e18fc56	0.14940009
114	0xbdc256b7	-0.09489196
115	0x3d43574b	0.04769067
116	0xbe1401d5	-0.14453824
117	0x3e8f3fad	0.27978268
118	0xbe57a5ac	-0.21059293
119	0x3e348cb2	0.17631796
120	0x3c361f87	0.011115915
121	0xbdd42b80	-0.103598595
122	0xbd146cb2	-0.036236472
123	0x3e927643	0.28605852
124	0x3cba28a0	0.02272445
125	0xbe34f848	-0.17672837
126	0xbdf51b3f	-0.119680874
127	0xbd89c5f4	-0.0672721
128	0xbda2cbbe	-0.07949017
129	0x3e35a1a1	0.17737438
130	0xbe4093e2	-0.18806413
131	0xbece10eb	-0.40247282
132	0x3ea28e21	0.3174906
133	0xbea1f903	-0.31635293
134	0x3e7c2831	0.24624707
135	0x3e667573	0.22505741
136	0x3eb37463	0.35049734
137	0xbe85d224	-0.26136887
138	0x3e9e5ea4	0.3093158
139	0x3f0b65b1	0.54452044
140	0xbec89147	-0.39173338
141	0x3ea3638b	0.31911883
142	0x3ea85a78	0.32881522
143	0x3e862784	0.26202023
144	0xbd97232a	-0.07379754
145	0x3ebc6bab	0.36800894
146	0xbee0079a	-0.437558
147	0x3eab8c47	0.3350546
148	0x3eb56dea	0.3543542
149	0x3dd16646	0.10224585
150	0x3ef3ed29	0.47641876
151	0x3c26fe23	0.010192427
152	0xbf1ba2ca	-0.6079527
153	0x3e87e3e6	0.2654106
154	0xbe827f1c	-0.25487602
155	0xbe5cfbc4	-0.21580416
156	0xbf029ac6	-0.51017416
157	0xbe615995	-0.22006829
158	0x3c942ddb	0.018088272
159	0x3e4aaeb0	0.197932
160	0xbe0a7667	-0.1352173
161	0x3e8bf627	0.27336237
162	0x3ecebdae	0.4037909
163	0xbecbb141	-0.39783671
164	0xbef17bd2	-0.4716478
165	0x3dc9ad1c	0.09847471
166	0x3f775ba4	0.9662421
167	0x3eaa5a10	0.33271837
168	0x3a45394f	0.0007523493
169	0x3e876ef4	0.26451838
170	0xbf18e33e	-0.59721744
171	0x3e2c0c3d	0.16801544
172	0x3f39d3c5	0.7258876
173	0xbe3cbe5c	-0.18431991
174	0xbf13074d	-0.57433015
175	0xbe052163	-0.13001017
176	0xbd2a5680	-0.0415864
177	0x3bf7e34e	0.0075649386
178	0x3eb5e4e9	0.35526207
179	0x3ec5178d	0.3849453
180	0xbe9dc6a1	-0.30815604
181	0x3d8f0eed	0.06985269
182	0x3d8d6b8d	0.06905279
183	0x3f1267ce	0.57189643
184	0x3e3716d1	0.17879798
185	0xbeab89ca	-0.33503562
186	0xbee7afcb	-0.45251307
187	0x3d9fb9cd	0.077991106
188	0x3ec1d03d	0.37854186
189	0x3ed68deb	0.4190515
190	0xbc2f40c5	-0.010696595
191	0xbef9ea7f	-0.4881172
192	0x3e5cf615	0.21578248
193	0x3e2be7c7	0.16787635
194	0xbdea5455	-0.11441866
195	0xbe9af8b5	-0.30267873
196	0xbd8de50d	-0.069284536
197	0xbe3dd778	-0.18539226
198	0x3e7c7eaa	0.24657694
199	0x3f570021	0.8398457
200	0xbdab6370	-0.083685756
201	0xbea80670	-0.3281741
202	0xbec3b2a6	-0.38222235
203	0xbf030ce4	-0.51191545
204	0xbdb060ef	-0.086122386
205	0x3f197254	0.59940076
206	0x3f5a408c	0.8525474
207	0x3ea793f2	0.3273006
208	0x3dcffc22	0.101555124
209	0xbd801538	-0.06254047
210	0xbe284d08	-0.16435635
211	0x3df2bd42	0.11852504
212	0x3e8ae28e	0.27125973
213	0x3c27946a	0.010228256
214	0xbe31b35e	-0.1735358
215	0xbeceec67	-0.40414736
216	0x3ec768ad	0.3894705
217	0xbea807d9	-0.32818487
218	0xbbc297aa	-0.00593849
219	0x3effefe6	0.49987715
220	0xbcb8ac00	-0.022542953
221	0xbe6b6c5f	-0.22990559
222	0x3df66585	0.12031082
223	0x3e80e252	0.2517267
224	0xbe9311e7	-0.28724596
225	0x3ddb34ed	0.10703454
226	0xbe402d24	-0.1876722
227	0x3dadc2e7	0.0848444
228	0x3db6026c	0.08887181
229	0x3e611af4	0.21982938
230	0x3ed6be39	0.41942003
231	0x3c87cb02	0.016576294
232	0x3d520cae	0.051281624
233	0xb880746a	-6.1251994e-05
234	0x3ddb19ea	0.10698302
235	0xbe476458	-0.19471872
236	0xbdf139dd	-0.11778615
237	0x3e5d48ca	0.21609798
238	0xbf67b522	-0.9051076
239	0x3d238a27	0.039926674
240	0xbccb5b98	-0.024823949
241	0x3e8388c5	0.25690284
242	0xbdf1c721	-0.11805559
243	0xbe838b7f	-0.25692365
244	0x3e5a4021	0.21313526
245	0x3d4eddaa	0.050504364
246	0x3e84df4b	0.2595161
247	0x3c9f347e	0.01943421
248	0xbe040251	-0.12891509
249	0x3ddea04c	0.10870418
250	0xb8820981	-6.200653e-05
251	0xbe1f46bb	-0.15554325
252	0x3d913818	0.07090777
253	0x3dd26480	0.10273075
254	0xbd5d1a61	-0.053980235
255	0x3e5f065c	0.2177977

fc1.bias f4 [128]
0	0xbe8d9a39	-0.27656725
1	0xbec60b94	-0.38680708
2	0xbefc5bd2	-0.49288803
3	0xbf195f88	-0.59911394
4	0xbe970b38	-0.29500747
5	0xbf27a625	-0.6548789
6	0xbf13a600	-0.5767517
7	0xbf21d191	-0.632104
8	0xbdf68293	-0.12036624
9	0xbf0eabef	-0.557311
10	0xbef06006	-0.4694826
11	0xbd027dc1	-0.03185821
12	0xbe58aeaf	-0.21160387
13	0xbf0c400a	-0.54785216
14	0x3b6ee70a	0.0036453628
15	0xbf017baf	-0.5057935
16	0xbef12e28	-0.47105527
17	0xbefdddaa	-0.4958318
18	0xbed13383	-0.40859613
19	0xbed59ff9	-0.41723612
20	0xbe89ef9a	-0.26940614
21	0xbe921eef	-0.28539225
22	0xbe3c728f	-0.18403076
23	0xbf244307	-0.64164776
24	0xbedb2a49	-0.428057
25	0xbdbc294d	-0.09187565
26	0xbd9de55c	-0.077097625
27	0xbf288f73	-0.65843886
28	0xbe2ddb6f	-0.16978239
29	0xbf0872dd	-0.5330027
30	0xbef84202	-0.4848786
31	0xbf4746eb	-0.7784259
32	0xbf0a9d57	-0.5414633
33	0xbe026b29	-0.12736191
34	0xbd322f3f	-0.04350209
35	0xbe8dae27	-0.2767193
36	0xbdb72e06	-0.08944325
37	0xbeeb9728	-0.4601376
38	0xbe5206ce	-0.20510408
39	0xbe1dc25a	-0.1540617
40	0xbf38f762	-0.72252476
41	0xbdcc54ae	-0.09977089
42	0xbf0a3a43	-0.5399515
43	0xbe8943f4	-0.26809657
44	0xbe4cd809	-0.20004286
45	0xbee1f989	-0.44135693
46	0xbe2fb894	-0.17160255
47	0xbdee5eef	-0.11639201
48	0xbeafd844	-0.34344685
49	0xbe0be9fd	-0.13663478
50	0xbdffd64c	-0.12492046
51	0xbe0163a3	-0.12635665
52	0xbe40f20f	-0.18842338
53	0xbf118bcb	-0.5685393
54	0xbe9e67b4	-0.30938494
55	0xbe8fa5cb	-0.28056177
56	0xbe224d42	-0.15849784
57	0xbf18f89e	-0.5975436
58	0xbf06f6df	-0.52720445
59	0xbde16706	-0.11005978
60	0xbe1e87f1	-0.15481545
61	0xbf09e4b7	-0.53864616
62	0xbdbfce8b	-0.09365567
63	0xbf36f6c6	-0.71470296
64	0xbe31c8b8	-0.17361724
65	0xbe51da6d	-0.20493479
66	0xbe4e0c06	-0.20121774
67	0xbf351fed	-0.7075184
68	0xbf34daf7	-0.70646614
69	0xbdd8df4a	-0.10589464
70	0xbe93968a	-0.2882579
71	0xbf00e1cd	-0.50344545
72	0xbe4b82ff	-0.1987419
73	0xbeddf3bf	-0.43350026
74	0xbe761587	-0.2403165
75	0x3d2ea307	0.042635944
76	0xbe1163d6	-0.1419824
77	0xbf574427	-0.8408837
78	0xbf05971c	-0.521837
79	0xbeea8861	-0.45807174
80	0xbd94c221	-0.0726359
81	0xbde1f412	-0.11032881
82	0xbf09474b	-0.5362441
83	0xbe81ac21	-0.25326636
84	0x3e0051c4	0.12531191
85	0xbef513b9	-0.4786661
86	0xbebbc1f0	-0.366714
87	0xbeb90653	-0.36137637
88	0xbed84f5f	-0.42248055
89	0xbec18d90	-0.37803316
90	0xbec1d76c	-0.37859666
91	0xbea56a44	-0.32307637
92	0xbf1fdb4f	-0.62444013
93	0xbefe7885	-0.49701324
94	0xbf09d43a	-0.5383946
95	0xbf22b0f0	-0.63551235
96	0xbe230a60	-0.15921926
97	0xbf0062f8	-0.50151014
98	0xbeb4228d	-0.3518261
99	0xbf361642	-0.7112771
100	0xbda2c872	-0.07948388
101	0xbe31c6eb	-0.17361037
102	0xbc0a56f1	-0.00844358
103	0xbe83bbe5	-0.2572929
104	0xbee03c61	-0.43796065
105	0xbd88b7a2	-0.0667565
106	0xbe92674d	-0.28594437
107	0xbeba5726	-0.36394614
108	0xbf01bdc6	-0.50680196
109	0xbf33122e	-0.69949615
110	0xbd85f5e7	-0.06541043
111	0xbf28d49d	-0.6594942
112	0xbef09b6a	-0.46993572
113	0xbdf1af69	-0.11801035
114	0xbc479611	-0.012181775
115	0xbda33684	-0.079693824
116	0xbeb135bd	-0.34611312
117	0xbefb4c9b	-0.49081883
118	0xbe9fe58b	-0.31229815
119	0xbe86db9a	-0.26339418
120	0xbf2b7047	-0.66968197
121	0xbeb92908	-0.36164117
122	0xbf22590b	-0.6341712
123	0xbd671fce	-0.056426816
124	0xbc6de749	-0.014520475
125	0xbde979f3	-0.11400213
126	0x3d13c3bb	0.036075335
127	0xbe3313a0	-0.17487955

fc2.weight f4 [128, 128]
0	0x3d9d39fb	0.076770745
1	0x3e8a7838	0.27044845
2	0xbebe0b9d	-0.37118235
3	0xbdb6318e	-0.088961706
4	0xbe5d81d0	-0.21631551
5	0xbce5da02	-0.028058056
6	0x3d19db7a	0.037562825
7	0xbed679ab	-0.418897
8	0x3a9955e8	0.0011698576
9	0xbee6375d	-0.44964114
10	0xbda3a766	-0.07990913
11	0x3e0839e6	0.13303337
12	0xbdb37660	-0.087628126
13	0x3ebdd202	0.37074286
14	0xbd87f44c	-0.06638393
15	0x3b8edeb1	0.004360043
16	0x3db2acdf	0.08724379
17	0xbe953a1f	-0.29145905
18	0x3ec0b570	0.37638426
19	0x3e6237f6	0.2209166
20	0xbe79bc13	-0.24388151
21	0xbe00c078	-0.12573421
22	0xbc1c103e	-0.009525357
23	0xbe8b76f6	-0.27239197
24	0xbc70efdf	-0.014705627
25	0xbe07f001	-0.13275148
26	0x3e848d3a	0.25888997
27	0xbf2374f4	-0.6385033
28	0xbd098665	-0.033575434
29	0xbe532012	-0.20617703
30	0xbdbfca7e	-0.09364794
31	0xbf80686f	-1.0031871
32	0xbddf7777	-0.10911458
33	0x3eca6c32	0.3953567
34	0x3e88e234	0.2673508
35	0x3d8fec71	0.070275195
36	0x3e65f789	0.22457708
37	0x3e5ed34d	0.21760292
38	0x3d601e51	0.054716412
39	0xbcca8a5d	-0.02472418
40	0xbe80b17b	-0.25135407
41	0xbdb4d8a2	-0.08830382
42	0x3e233d2b	0.15941302
43	0xbdf4266e	-0.119213924
44	0xbe40f62d	-0.18843909
45	0xbcd5afc2	-0.026084784
46	0x3d3362be	0.04379534
47	0xbd83bac1	-0.06432105
48	0xbd8406ff	-0.06446647
49	0xbea98934	-0.3311249
50	0xbdb47a25	-0.0881236
51	0xbb362e0e	-0.0027798447
52	0x3df408c4	0.119157344
53	0x3e978e87	0.29600927
54	0xbbf3fc80	-0.007445872
55	0xbebcd858	-0.36883807
56	0xbe3cb331	-0.18427731
57	0x3db1ee47	0.08688026
58	0xbec4f302	-0.3846665
59	0xbecabacf	-0.3959565
60	0xbde45c92	-0.11150469
61	0x3d80ddaf	0.06292283
62	0xbe88918a	-0.26673537
63	0xbf227af8	-0.63468885
64	0xbd0f98bd	-0.035057772
65	0xbeb67efc	-0.35643756
66	0xbe93f977	-0.28901264
67	0xbf00fb93	-0.5038387
68	0xbebbcf39	-0.36681536
69	0x3d0805ca	0.033208646
70	0xbcdc403a	-0.026886094
71	0xbe1aa66b	-0.15102546
72	0x3dd57e90	0.104245305
73	0xbd9a2c32	-0.07527961
74	0x3decefd5	0.11569182
75	0xbd1ab864	-0.037773505
76	0x3df4ca9b	0.119527064
77	0xbdcff7ec	-0.10154709
78	0xbdd71037	-0.105011396
79	0xbe017de3	-0.12645678
80	0x3e4689b9	0.19388475
81	0xbe0b0aee	-0.13578388
82	0xbd3f70a5	-0.046738286
83	0x3e0a058f	0.13478683
84	0xbe1f7b2b	-0.15574329
85	0xbe26dbfa	-0.16294852
86	0x3de99832	0.11405982
87	0x3e8164b5	0.25272146
88	0x3b84fee0	0.004058704
89	0xbd3b9087	-0.04579213
90	0xbeb55de7	-0.35423204
91	0x3d46c4bc	0.048527464
92	0xbf83c08d	-1.0293137
93	0x3e93e30d	0.28884163
94	0x3e738248	0.23780167
95	0xbc83047a	-0.015993346
96	0xbd9c67de	-0.076369986
97	0x3e84d08e	0.25940365
98	0xbfad6220	-1.354557
99	0x3e4cb554	0.19991046
100	0xbd822160	-0.06354022
101	0xbe500c9a	-0.20317307
102	0xbd8fac8e	-0.07015334
103	0xbe02185a	-0.12704602
104	0xbe77a08e	-0.2418234
105	0xbc884983	-0.016636616
106	0x3d99bd38	0.07506794
107	0xbe7452dd	-0.23859735
108	0xbe41ca62	-0.18924859
109	0xbe831813	-0.25604305
110	0xbc843ee6	-0.016143274
111	0xbd5cec43	-0.053936254
112	0xbdde2cc5	-0.10848383
113	0x3e3f451f	0.18678711
114	0x3c8d08fa	0.017216194
115	0xbbf98415	-0.0076146224
116	0x3dd397dd	0.103317
117	0xbe377bc8	-0.17918313
118	0x3ddb5bd1	0.10710872
119	0xbf09c6dc	-0.5381906
120	0xbe470743	-0.19436364
121	0x3d19af9c	0.03752099
122	0xbd770203	-0.060304653
123	0xbd36b284	-0.04460384
124	0xbd04ac5d	-0.03239094
125	0x3d8bce5b	0.068264686
126	0xbcf0b363	-0.029382413
127	0xbe90aefc	-0.28258502
128	0x3e08e3bd	0.13368125
129	0xbdb7e17f	-0.08978557
130	0x3ee8d8f9	0.45478037
131	0xbe4cf148	-0.20013916
132	0x3e94f582	0.29093558
133	0xbdd536e6	-0.10410862
134	0xbf1e74dd	-0.6189707
135	0xbe18cf2c	-0.1492278
136	0x3d166c53	0.0367244
137	0x3e865abc	0.262411
138	0xbc8ef6fa	-0.017451752
139	0x3c9568fb	0.018238535
140	0xbd9498df	-0.0725572
141	0xbe591689	-0.21200003
142	0xbf356bc2	-0.7086755
143	0xbc1c9194	-0.009556193
144	0xbb5e01b7	-0.0033875534
145	0xbc6da549	-0.014504739
146	0xbc01cc23	-0.007922205
147	0x3f033842	0.5125772
148	0xbe6c4bfd	-0.23075862
149	0x3e70b91e	0.23508117
150	0x3d088a72	0.033335157
151	0xbde95b65	-0.11394385
152	0x3e85c5ce	0.26127476
153	0xbe45f915	-0.19333299
154	0x3e542c1a	0.20719948
155	0xbf0af371	-0.5427771
156	0x3d148e11	0.036268298
157	0xbe247b89	-0.1606275
158	0x3d0f504b	0.034988683
159	0xc00489b9	-2.070906
160	0xbe5d73b6	-0.21626171
161	0x3f14b71d	0.5809191
162	0x3e1beef9	0.1522788
163	0xbf655250	-0.89578724
164	0x3d302c4d	0.043011
165	0xbe5780d6	-0.21045241
166	0xbe55420c	-0.20825976
167	0x3f206533	0.6265442
168	0xbee48531	-0.44632867
169	0x3ea9bd34	0.33152163
170	0xbec718e5	-0.3888618
171	0x3d8a5da7	0.06756144
172	0xbe6d64c3	-0.23182969
173	0xbdaba5dc	-0.083812445
174	0xbcb00668	-0.02148743
175	0xbe8d6a83	-0.27620324
176	0x3cf0bbc0	0.029386401
177	0xbdabfca3	-0.08397796
178	0xbe327ed3	-0.17431192
179	0xbe97802a	-0.2958997
180	0x3dfe4108	0.124147475
181	0x3d860073	0.065430544
182	0xbda79fc9	-0.081847735
183	0xbba90b07	-0.0051587853
184	0xbea0b777	-0.31389973
185	0xbe9fd79f	-0.31219193
186	0xbeb71791	-0.35760167
187	0x3ddfcd0d	0.10927782
188	0x3bffc7b2	0.007805788
189	0xbe2369a8	-0.15958273
190	0xbe14ad17	-0.14519154
191	0x3ddff049	0.10934503
192	0xbd864f68	-0.06558114
193	0x3e03ecd0	0.12883306
194	0x3dbe89f1	0.09303654
195	0xbe80009b	-0.25000462
196	0xbfa73383	-1.3062595
197	0x3da3fd4d	0.08007298
198	0x3e11dd52	0.14244583
199	0x3bbfdc4c	0.005855119
200	0x3e3bda69	0.18345036
201	0xbf0ad0b3	-0.542247
202	0x3dda9ff6	0.106750414
203	0xbde7a3cc	-0.11310539
204	0xbd2fa08e	-0.042877726
205	0xbe24030c	-0.16016787
206	0x3de4cb9f	0.1117165
207	0xbe80e069	-0.2517121
208	0x3e031fd2	0.12805107
209	0xbe976cfc	-0.29575336
210	0x3e010473	0.12599353
211	0x3ea3ee99	0.32017973
212	0xbe148668	-0.14504397
213	0x3e5bb549	0.21455874
214	0x3f07e459	0.53082806
215	0x3e56c39d	0.20973058
216	0xbfa2c2f0	-1.271574
217	0x3ecc6331	0.39919427
218	0xbf2b68a2	-0.6695653
219	0x3ea04ff7	0.31311008
220	0xbd6317a3	-0.055442464
221	0xbd82411f	-0.06360077
222	0x3e88b4f3	0.26700553
223	0xbe0b740c	-0.13618487
224	0x3bd5d5e2	0.006525741
225	0xbf969fd7	-1.1767529
226	0x3e3c175e	0.18368289
227	0xbeddeb07	-0.43343374
228	0x3dc00443	0.09375813
229	0xbdb98f74	-0.09060565
230	0x3ddc2641	0.10749484
231	0xbebfe40c	-0.37478673
232	0xbed713e9	-0.42007378
233	0x3ee07e76	0.43846482
234	0xbea39697	-0.31950828
235	0x3d00909b	0.031387907
236	0xbf3ced67	-0.7379975
237	0xbf0a343f	-0.5398597
238	0xbbccb9b1	-0.006247722
239	0x3d06d9d1	0.03292257
240	0x3e4c578b	0.1995527
241	0x3e008e81	0.12554361
242	0xbdd51e35	-0.10406152
243	0xbd152ee3	-0.036421668
244	0xbd9874de	-0.07444166
245	0x3c9098c3	0.017650967
246	0x3d53e344	0.05173041
247	0xbe322a0e	-0.17398855
248	0xbdb206af	-0.08692681
249	0xbe905e81	-0.281971
250	0xbe3fda56	-0.18735632
251	0x3d52d002	0.051467903
252	0xbcff2a3c	-0.031148069
253	0x3d0c4151	0.034241978
254	0x3e344206	0.17603311
255	0x3ed9294b	0.42414317

fc2.bias f4 [128]
0	0x3c759ff3	0.014991748
1	0xbd3a53dc	-0.04549013
2	0x3d437ee0	0.04772842
3	0xbdf6b035	-0.120453276
4	0x3dd72142	0.1050439
5	0x3d13a307	0.036044147
6	0x3b2bbd11	0.0026205222
7	0x3db807de	0.089858755
8	0xbda2ccfe	-0.079492554
9	0x3dfe67ab	0.12422117
10	0xbd25254d	-0.040318776
11	0x3d885737	0.0665726
12	0xbda6af6f	-0.0813893
13	0xbd36c86f	-0.044624742
14	0x3e3a881c	0.18215984
15	0xbe5a25ae	-0.21303436
16	0xbe31ec6f	-0.17375349
17	0xbd629aca	-0.0553234
18	0xbd8595b2	-0.06522693
19	0x3c5a5bcb	0.013327549
20	0x3e38a536	0.18031773
21	0xbe9a0988	-0.30085397
22	0x3d825bec	0.06365189
23	0x3d844a33	0.06459465
24	0xbd21c9da	-0.03949914
25	0xbc923803	-0.017848974
26	0x3e2322d5	0.15931256
27	0xbe003661	-0.12520744
28	0xbe48ebb3	-0.19621162
29	0x3d24282c	0.040077373
30	0x3cb9c886	0.022678625
31	0xbd758a7a	-0.059946515
32	0x3e2fced6	0.17168745
33	0x3db9f68c	0.09080228
34	0xbc9e06ff	-0.019290445
35	0x3e217619	0.15767707
36	0x3e2f489c	0.17117542
37	0xbd169fc4	-0.036773458
38	0x3d250e41	0.040296797
39	0x3e05045e	0.12989947
40	0xbd92363f	-0.07139253
41	0x3df04af8	0.11733049
42	0xbbe02282	-0.006840051
43	0x3d5cd057	0.053909626
44	0xbd89a78f	-0.067214124
45	0xbdc01eee	-0.09380899
46	0xbdfc49bd	-0.12318752
47	0x3db28a58	0.08717793
48	0xbdbc4025	-0.09191922
49	0x3e14def8	0.14538181
50	0x3e27fda9	0.16405357
51	0xbee2b0b4	-0.4427544
52	0xbdc6daba	-0.097096875
53	0xbd578661	-0.052618388
54	0x3da38a37	0.07985347
55	0xbbd433a9	-0.006475885
56	0x3d0b11ac	0.0339524
57	0x3d5f5c5d	0.054531444
58	0xbd53d0e9	-0.051712904
59	0xbea2d1fe	-0.31800836
60	0xbdda85f2	-0.10670079
61	0xba99ebff	-0.0011743306
62	0x3e5b388d	0.21408291
63	0xbd14ba4e	-0.036310486
64	0xbd6ea7a6	-0.05826535
65	0x3e3fef01	0.18743517
66	0x3e81382e	0.25238174
67	0xbd2f75e3	-0.042837035
68	0xbd963ab7	-0.07335418
69	0x3e10b15c	0.14130157
70	0x3c5a4f61	0.0133245895
71	0x3dde5f53	0.108580254
72	0xbd899072	-0.06717004
73	0x3e4446ac	0.19167584
74	0xbe1f7c1b	-0.15574686
75	0x3e100049	0.14062609
76	0x3da92e71	0.08260811
77	0x3d0d3a3e	0.034479372
78	0x3e210da0	0.15727854
79	0xbcf7354f	-0.030176787
80	0xbecf5f61	-0.40502456
81	0x3d016795	0.031592924
82	0xbe167797	-0.14694057
83	0xbed37b71	-0.41305116
84	0x3e1ebcc1	0.15501691
85	0xbdd6db77	-0.10491078
86	0x3e13d87c	0.14438051
87	0xbe880ef1	-0.265739
88	0x3e74c708	0.2390405
89	0xbd65886a	-0.056038298
90	0x3e450cfb	0.19243233
91	0xbd0c3fee	-0.034240656
92	0xbead2e0f	-0.33824202
93	0xbd9e5567	-0.07731133
94	0x3eb173fc	0.34658802
95	0x3e3ecb24	0.1863218
96	0x3d615f0b	0.05502228
97	0xbdc9e1ac	-0.098574966
98	0xba3b86a7	-0.00071535486
99	0x3dfd7e8c	0.123776525
100	0x3e2e209b	0.17004625
101	0x3d9f677b	0.07783409
102	0x3e6a8891	0.22903658
103	0x3dfc4afd	0.123189904
104	0xbdeb0022	-0.11474635
105	0xbe65167b	-0.22371857
106	0xbd90bea2	-0.0706761
107	0xbd260cdd	-0.04053961
108	0xbdfe921f	-0.12430214
109	0xbed1fad2	-0.41011673
110	0x3e058486	0.13038835
111	0xbc9434f9	-0.018091666
112	0xbbefb189	-0.007314865
113	0xbdc304c6	-0.09522395
114	0xbcfe5df8	-0.031050667
115	0x3e4bef27	0.19915448
116	0x3ebb5cd1	0.3659425
117	0x3c515b34	0.012778092
118	0x3e327fa3	0.17431502
119	0xbced6064	-0.028976627
120	0x3d1480f0	0.036255777
121	0x3d0e3476	0.034718
122	0x3e283aaf	0.16428636
123	0xbd1b57ba	-0.03792546
124	0xbc0cadda	-0.008586371
125	0x3dde93e3	0.10868051
126	0x3e26882c	0.16262883
127	0xbe0e0dea	-0.13872495

fc3.weight f4 [100, 128]
0	0x3d2bc552	0.041936226
1	0x3d9bfc42	0.07616474
2	0xbe3df1c7	-0.18549262
3	0xbe0a6976	-0.13516793
4	0xbd86d3cd	-0.065833665
5	0xbbbf5631	-0.0058391322
6	0x3b234c60	0.002491735
7	0xbe09d4b0	-0.1346004
8	0xbcf1b870	-0.029506892
9	0x3d992897	0.07478445
10	0xbd727ea5	-0.05920281
11	0xbdb402b2	-0.087895766
12	0x3d1b062a	0.037847675
13	0xbdaff889	-0.08592326
14	0xbd97c4e4	-0.07410601
15	0x3cc20945	0.02368606
16	0xbc833dcb	-0.016020676
17	0xbd5f9a55	-0.054590542
18	0xbda543f2	-0.080696
19	0xbd308ceb	-0.04310314
20	0x3d158bfc	0.036510453
21	0x3dd3fcc9	0.10350949
22	0xbc61c4ec	-0.01377986
23	0xbdd48184	-0.10376266
24	0x3c4e32de	0.01258537
25	0xbce2876f	-0.02765247
26	0xbd557d5a	-0.052121498
27	0xbbff7ec9	-0.0077970964
28	0x3b6769a9	0.003531078
29	0xbd1fc931	-0.03901023
30	0xbd96ceca	-0.07363661
31	0x3c0bf04c	0.008541178
32	0xbdaca00d	-0.08428965
33	0xbb057bc5	-0.0020367962
34	0xbd98f3f1	-0.07468403
35	0xbda64c2a	-0.08119996
36	0xbe2e2dd3	-0.17009668
37	0xbdc48d7c	-0.095972985
38	0xbc94b7dd	-0.01815408
39	0x3dd7ea4d	0.10542736
40	0x3d8b7b8c	0.06810674
41	0xbd0e2c6e	-0.03471034
42	0x3c354c2f	0.011065527
43	0xbdd2311d	-0.10263274
44	0xbd71b2f3	-0.05900855
45	0xbc46839e	-0.012116341
46	0xbdc13897	-0.09434622
47	0xbe04d069	-0.12970127
48	0x3db5488c	0.08851728
49	0x3c740c6f	0.0148955425
50	0xbde84e17	-0.113430195
51	0x3bac91ff	0.0052664275
52	0x3c9de8e3	0.019276088
53	0xbe144ffa	-0.14483634
54	0xbe083a49	-0.13303484
55	0xbe3ae0df	-0.18249844
56	0xbd8eb667	-0.06968384
57	0xbcc757ad	-0.0243338
58	0x3db6063e	0.08887909
59	0xbcd1c93e	-0.025608655
60	0x3bde78b0	0.0067892894
61	0xbd03c20a	-0.032167472
62	0xbe0c7185	-0.1371518
63	0xbd7405ed	-0.059575964
64	0x3d108a3b	0.035288077
65	0xbdb46525	-0.08808354
66	0x3cee1138	0.029060945
67	0x3d58be63	0.052915942
68	0x3d3a3d53	0.04546864
69	0xbda6005b	-0.081055366
70	0x3d2b4d6b	0.04182188
71	0xbd36cccf	-0.044628914
72	0xbd6b83d7	-0.05749878
73	0x3c27400c	0.010208141
74	0xbde6aee4	-0.112638265
75	0xbdb28805	-0.0871735
76	0x3cce4e07	0.02518369
77	0x3c044f70	0.00807558
78	0xbd29651f	-0.041356202
79	0x3908f880	0.00013062544
80	0xbc664fa6	-0.014057076
81	0x3dd4d43e	0.103920445
82	0x3d021d51	0.03176624
83	0x3cd30e60	0.02576369
84	0xbe365cac	-0.17808789
85	0x3ce32538	0.027727708
86	0xbd830eb6	-0.0639929
87	0x3d96ded0	0.07366717
88	0xbe30b7c0	-0.17257595
89	0x3cc85da7	0.02445872
90	0xbb30ba94	-0.0026966678
91	0x3d4ec9c9	0.050485406
92	0x3d83d513	0.06437125
93	0x3d743b01	0.059626583
94	0xbde5c639	-0.112194486
95	0xbcf11871	-0.0294306
96	0xbd3f6614	-0.04672821
97	0x3c638699	0.013887071
98	0x3d719316	0.058978163
99	0xbccb72c8	-0.024835005
100	0xbc494392	-0.012284176
101	0xbe04bb38	-0.12962043
102	0x3c6ebe51	0.014571742
103	0xbc910bdd	-0.017705852
104	0xbdba22da	-0.09088679
105	0x3d9d19c2	0.076709285
106	0xbd86f4f3	-0.06589689
107	0xbd8b7012	-0.06808485
108	0x3d4a3413	0.049366068
109	0x3b8ef61e	0.0043628355
110	0xbddce486	-0.10785775
111	0xbda3cd0a	-0.079980925
112	0xbd2a53f8	-0.041583985
113	0x3d7a085e	0.061043136
114	0xbb198415	-0.0023424674
115	0xbd9223c2	-0.071357265
116	0xbd4e3361	-0.050341967
117	0xbd0c4e5b	-0.034254413
118	0xbd97f5b0	-0.07419908
119	0xbd851ac5	-0.064992465
120	0xbd82c273	-0.063847445
121	0xbe04e5b9	-0.12978257
122	0x3cc71ade	0.024304803
123	0xbcf5766d	-0.029963696
124	0xbdef1e6a	-0.11675723
125	0xbd8f214b	-0.06988772
126	0x3c9a127c	0.018807642
127	0xbb7c173b	-0.0038465995
128	0xbcd4ec1e	-0.025991496
129	0xbbabb3f1	-0.0052399565
130	0xbdf6a6d8	-0.12043542
131	0xbe0c1dda	-0.13683262
132	0xbd6d0eb5	-0.057875354
133	0x3ba93c98	0.005164694
134	0xbcd5842a	-0.026063997
135	0xbdc36fd0	-0.09542811
136	0xbd3f4ef2	-0.046706147
137	0x3da7c8f3	0.08192625
138	0xbc1ad996	-0.009451291
139	0xbdb4b8f6	-0.08824341
140	0x3b8c08dd	0.0042735175
141	0xbdc8603c	-0.0978398
142	0xbe02093d	-0.12698837
143	0xbc51874a	-0.012788603
144	0xbc815588	-0.015787855
145	0x3d311610	0.04323393
146	0xbd79ebef	-0.06101602
147	0xbd115149	-0.03547791
148	0x3cda1dac	0.026625477
149	0x3c392192	0.011299508
150	0xbc884530	-0.016634554
151	0xbdcf8410	-0.10132611
152	0x3b954276	0.004555042
153	0x3db78a22	0.089618936
154	0xbd94accd	-0.07259522
155	0x3b20b21e	0.0024520229
156	0xbc2ad8b7	-0.010427645
157	0x3a65699d	0.00087513943
158	0xbd9565b0	-0.07294786
159	0xbd840061	-0.06445385
160	0xbd8a7bec	-0.067619175
161	0xbc9f732c	-0.019464098
162	0xbd8bd890	-0.068284154
163	0xbda551e1	-0.08072258
164	0xbe250f9d	-0.16119237
165	0xbd91c630	-0.071178794
166	0xbc638fe8	-0.01388929
167	0x3e0a148d	0.13484402
168	0xbd7ce3ee	-0.06174081
169	0xbbc200b6	-0.005920495
170	0xbd04dfe7	-0.032440092
171	0xbde4e6c0	-0.111768246
172	0xbd05336a	-0.032519735
173	0xbd4d5cb5	-0.05013724
174	0xbe259d85	-0.1617337
175	0xbe33877c	-0.17532152
176	0x3d7356ca	0.05940894
177	0xbcdbc76a	-0.026828486
178	0xbda9cc06	-0.082908675
179	0xb889e38c	-6.575053e-05
180	0xbd327513	-0.043568682
181	0xbe304439	-0.17213525
182	0xbe0d964b	-0.13826863
183	0xbe12c4e4	-0.1433292
184	0xbe0be025	-0.13659723
185	0xbc970a08	-0.0184374
186	0x3d02440a	0.03180317
187	0xbd3b6768	-0.045752913
188	0xbbbc9830	-0.005755447
189	0xbd332a9b	-0.043741804
190	0xbe171ecf	-0.14757846
191	0x3d89bc32	0.067253485
192	0xbd8c0cb2	-0.06838359
193	0xbd8c1985	-0.06840805
194	0x3d085ac4	0.033289686
195	0x3d1de85c	0.038551673
196	0xbcc71709	-0.024302976
197	0xbe160d74	-0.1465357
198	0x3d24b339	0.040209983
199	0xbdc37202	-0.0954323
200	0xbd2052b7	-0.039141383
201	0xbc8caf1f	-0.017173348
202	0xbe0eb10a	-0.13934723
203	0xbd87b886	-0.06626992
204	0xbb4d1610	-0.0031293668
205	0x3cd227e8	0.025653794
206	0xbd5690d8	-0.052384228
207	0x3b25e556	0.0025313697
208	0x3b8c163d	0.004275112
209	0x3e067b9b	0.13133089
210	0x3d0757c6	0.03304269
211	0x3c458d9f	0.012057691
212	0xbe6915c2	-0.22762206
213	0x3c76cc6e	0.015063388
214	0xbd6b1117	-0.057389345
215	0x3d8829af	0.066485755
216	0xbe3ec0df	-0.18628262
217	0x3d957860	0.0729835
218	0xbcc567b1	-0.024097295
219	0x3dc79d03	0.097467445
220	0x3d8a6620	0.0675776
221	0x3d534484	0.051579013
222	0xbe045150	-0.12921643
223	0xbb014647	-0.0019725726
224	0xba688209	-0.00088694744
225	0xbd0d89d3	-0.034555268
226	0xbbd8bc6f	-0.00661426
227	0xbc82dc45	-0.015974173
228	0xbd049edb	-0.03237806
229	0xbe12b995	-0.14328606
230	0xbc685187	-0.014179594
231	0xbd3a2b47	-0.04545143
232	0xbd4d3a62	-0.050104506
233	0xbb41a34f	-0.0029546802
234	0xbe0e445b	-0.13893263
235	0xbe2c5cf2	-0.16832331
236	0x3d45bab4	0.048273757
237	0xbc888ab1	-0.016667696
238	0xbdcc2e55	-0.09969775
239	0xbe04a9d7	-0.12955414
240	0xbd3fd71a	-0.046835996
241	0xbcdc0e78	-0.026862368
242	0xbc0b1fe8	-0.008491494
243	0xbd9775bd	-0.07395504
244	0xbd967910	-0.073473096
245	0x3cb6e2fc	0.022325031
246	0xbd5725df	-0.05252635
247	0xbd269abb	-0.040674906
248	0x3c7916d8	0.0152032
249	0xbe4f48d4	-0.20242625
250	0x3af9e728	0.0019066082
251	0xbd599ea9	-0.053129826
252	0xbe119e96	-0.14220652
253	0xbcf7b27b	-0.030236473
254	0x3ce45064	0.027870364
255	0xbc4788eb	-0.01217864

fc3.bias f4 [100]
0	0xbf432b34	-0.762378
1	0xbf410e7e	-0.7541274
2	0xbf437dff	-0.7636413
3	0xbf3cb06e	-0.7370671
4	0xbf40485b	-0.75110406
5	0xbf45350d	-0.77034074
6	0xbf42c032	-0.76074517
7	0xbf43dd88	-0.76509905
8	0xbf432315	-0.76225406
9	0xbf40a17e	-0.7524642
10	0xbf454788	-0.77062273
11	0xbf3a06ad	-0.72666436
12	0xbf4886b2	-0.7833053
13	0xbf48e3f0	-0.78472805
14	0xbf43239b	-0.76226205
15	0xbf431518	-0.7620406
16	0xbf43e65d	-0.7652338
17	0xbf3a6403	-0.72808856
18	0xbf448617	-0.76767105
19	0xbf3f7a6d	-0.7479618
20	0xbf395b3f	-0.72404855
21	0xbf3e0c79	-0.7423778
22	0xbf3f52cc	-0.74735713
23	0xbf40cd21	-0.75313
24	0xbf459b15	-0.7718976
25	0xbf3d8db1	-0.7404433
26	0xbf3d8189	-0.7402578
27	0xbf37b83e	-0.71765506
28	0xbf40c4b0	-0.7530012
29	0xbf4549f5	-0.77065974
30	0xbf409aac	-0.7523601
31	0xbf3ce0ff	-0.73780817
32	0xbf46b87a	-0.7762524
33	0xbf3cb2a0	-0.7371006
34	0xbf403484	-0.7508013
35	0xbf47e576	-0.78084505
36	0xbf45912b	-0.77174634
37	0xbf438721	-0.76378065
38	0xbf474bc8	-0.7785001
39	0xbf43c787	-0.7647633
40	0xbf3cef03	-0.738022
41	0xbf40de51	-0.7533923
42	0xbee838da	-0.45355874
43	0xbe10adea	-0.14128843
44	0xbefd59c4	-0.49482548
45	0xbf4103aa	-0.75396216
46	0xbf423e61	-0.7587643
47	0xbddabb05	-0.106802024
48	0xbc377757	-0.011197886
49	0xbf48f263	-0.7849485
50	0xbf3e325b	-0.74295586
51	0xbf3e4496	-0.74323404
52	0xbe32db65	-0.17466505
53	0xbe3d0bf6	-0.18461594
54	0xbe91b8ed	-0.284614
55	0xbf3a69a4	-0.72817445
56	0xbf41bbb1	-0.7567702
57	0xbf3f2b5b	-0.7467553
58	0xbe0d027a	-0.13770476
59	0xbf435281	-0.76297766
60	0xbf4027de	-0.7506083
61	0xbf10b3bc	-0.5652425
62	0xbdda2673	-0.10651865
63	0xbe1ea494	-0.15492469
64	0xbddfff11	-0.10937322
65	0xbe5a2cae	-0.21306106
66	0xbde0a21f	-0.10968422
67	0xbf3eb748	-0.74498415
68	0xbf4322d9	-0.7622505
69	0xbee0ba60	-0.43892193
70	0xbf424c8a	-0.7589804
71	0xbf41c437	-0.75690025
72	0xbf0fa0a4	-0.56104493
73	0xbc9341ef	-0.017975776
74	0xbf432149	-0.76222664
75	0xbf436a16	-0.7633375
76	0xbf3f5fc5	-0.7475551
77	0xbdfc1313	-0.123083256
78	0xbc5b54b3	-0.013386893
79	0xbf44efba	-0.76928294
80	0xbf44750c	-0.767411
81	0xbe75355d	-0.23946138
82	0xbf42c46b	-0.7608096
83	0xbe38e2f4	-0.18055326
84	0xbf4327ab	-0.76232404
85	0xbf4658ab	-0.77479047
86	0xbf429385	-0.76006347
87	0xbf428abd	-0.7599295
88	0xbe99cda7	-0.30039713
89	0xbf4393b8	-0.76397276
90	0xbf41534b	-0.7551772
91	0xbf413603	-0.7547304
92	0xbf1129ca	-0.5670439
93	0xbe32ed1e	-0.17473266
94	0xbda4a0f9	-0.080385156
95	0xbe835c8f	-0.25656554
96	0xbf2bf61f	-0.67172426
97	0xbf47186f	-0.7777166
98	0xbe965c9f	-0.2936754
99	0xbf425f12	-0.75926316
