integration/checkpoint.pth (torch, 125739 bytes, 10 tensors)

ip_bn.weight f4 [8]
000000 ec d1 a6 3f f4 fe a4 3e 02 7e 57 3f 80 67 44 3f
       1.3032813 0.32225764 0.8417665 0.7672043
000010 b9 3b 1c 3f c9 55 95 3e 4d 11 46 3f 68 b4 5f 3e
       0.6102863 0.2916701 0.7737015 0.21846163

ip_bn.bias f4 [8]
000000 87 36 ec bb 8e 58 22 bd 5d 50 8f bd 77 2e c8 3c
       -0.0072086486 -0.039635234 -0.0699775 0.024436219
000010 06 22 21 3d 56 b6 94 3d 09 f5 4d 3d 43 13 53 3d
       0.039339088 0.0726134 0.05028251 0.05153204

ip_bn.running_mean f4 [8]
000000 f3 55 76 42 fb b8 76 42 4e 54 81 42 d6 10 c3 41
       61.583935 61.680645 64.66466 24.38322
000010 4a 83 df 41 cd 54 14 42 82 75 1c 42 23 f0 3a 42
       27.939106 37.082813 39.114754 46.73451

ip_bn.running_var f4 [8]
000000 6c a6 8e 43 eb 3c c9 43 65 dd dd 43 2d e4 10 44
       285.30017 402.47592 443.72964 579.56525
000010 94 3b 3e 44 e0 8f a7 44 97 6d ba 44 90 11 05 45
       760.9309 1340.4961 1491.4247 2129.0977

fc1.weight f4 [128, 8]
000000 06 15 ac 3e 78 a7 2b be 2c b1 59 3c b2 42 c5 3d
       0.3360979 -0.16763103 0.01328687 0.09631862
000010 6e 64 7c 3e f1 52 14 3e fb 60 70 3d cb 1f 4f be
       0.24647686 0.14484765 0.058686238 -0.20226972
000020 eb 4a fe 3c c1 d9 82 be 17 5d d6 3d 76 90 02 bd
       0.031041583 -0.25556758 0.10466974 -0.03187605
000030 7e 6c 0a be 67 c5 6b 3e 1c fe 07 bd ec 27 ba 3d
       -0.13517949 0.23024522 -0.033201322 0.09089646
000040 ae 27 b7 b9 cb c9 0d be 9a ca 81 bd 75 2b 8e 3e
       -0.00034934044 -0.13846509 -0.06337471 0.2776753
000050 a3 0d d5 be 15 75 ce bd 40 1d c5 bd 2b 29 3f 3e
       -0.41611966 -0.100809254 -0.096247196 0.18668048
000060 33 28 9e bd 5f e9 20 bd ee 05 17 be e0 05 4c bd
       -0.07722511 -0.03928506 -0.14748356 -0.04981029
000070 04 94 85 bd ad 5a 3c bd 60 4c 39 be 6e b6 b7 bd
       -0.06522372 -0.045984913 -0.18095541 -0.089703426
000080 d8 d7 8e 36 85 77 1d 3e 48 95 83 bd cf f6 ac bd
       4.2570573e-06 0.15377624 -0.064249575 -0.084455125
000090 d0 b5 6f 3e 11 20 6b bd f3 a8 55 3a d3 5e ec bd
       0.234092 -0.057403628 0.00081504806 -0.11541524
0000a0 02 fe d6 bc 0b 5c 79 be 51 cd 71 3e 55 b0 58 3d
       -0.026244167 -0.24351518 0.23613478 0.05290254
0000b0 c0 8e 75 bc 73 a9 a6 3d 17 b9 83 3d 58 c3 89 bd
       -0.0149876475 0.081377886 0.064317875 -0.06726712
0000c0 65 f6 d6 bb 1e 37 a0 3d 5f fb 7b 3e c6 82 43 3e
       -0.0065601342 0.07823013 0.24607609 0.19092855
0000d0 74 68 4c 3e 1f d7 15 3e 9a af 0e be 00 2c 7b bd
       0.1996172 0.14632843 -0.13934174 -0.06132126
0000e0 3c 57 e1 ba 94 9c 91 3e d5 61 06 3e c3 6b 88 3e
       -0.0017192136 0.28439772 0.13123257 0.26644716
0000f0 f1 e7 c6 3d 12 96 cc be 66 25 da 3c f7 87 8b 3e
       0.09712208 -0.39958245 0.026629161 0.2725217
000100 47 86 2b 3f 04 52 02 be 8d db 81 bb 0f d4 42 be
       0.67001766 -0.12726599 -0.00396294 -0.19026206
000110 59 94 4d 3c 29 cf 8c 3e 55 86 42 be 2c 34 cc 3e
       0.012547576 0.275018 -0.18996556 0.39883554
000120 6b fa 83 be 0d 88 13 3e 3b 63 72 3c 7c cf 9d 3d
       -0.2577699 0.14407368 0.014794166 0.0770559
000130 48 6c cd 3c b6 36 c0 be 58 3c aa bd e7 d7 7e be
       0.025076047 -0.3754174 -0.08312291 -0.24887048
000140 48 ef 64 3f 3b 48 3e be d3 ef 03 bf 0a db 87 3e
       0.89427614 -0.18582241 -0.5153782 0.265343
000150 19 dd a3 3e 7a ad 13 bc 30 1c 11 3e dd e0 94 3e
       0.32004622 -0.009013528 0.14170909 0.29077807
000160 18 8d 6e bd 12 c7 d2 bd a5 ee 67 3d 97 10 a5 be
       -0.058240026 -0.10291876 0.056624074 -0.3223922
000170 49 c8 06 3e f1 9f 8c bd 42 e3 02 3e cd 79 e6 3d
       0.1316234 -0.06866444 0.12782004 0.112537004
000180 5b 81 33 be f4 7d 5d be 6d 8b 6b be 73 2d 08 be
       -0.17529814 -0.21630079 -0.23002405 -0.13298588
000190 3a 0a 0d be d6 d6 8c bd e0 9c b6 be c8 6f 07 3e
       -0.13773432 -0.06876914 -0.3566656 0.13226235
0001a0 25 9e 3e 3f 19 43 1b 3e 02 c4 86 3e c2 d0 72 3e
       0.7446006 0.15162314 0.26321417 0.23712447
0001b0 87 77 c5 be 9e 21 36 bc be a2 96 3e b7 0c a8 be
       -0.38567755 -0.011116413 0.29421037 -0.328222
0001c0 65 83 a2 bc f3 6d 88 3d c9 f4 06 be 3d 58 17 be
       -0.019838044 0.06661596 -0.13179316 -0.14779754
0001d0 85 97 0d be 8e 05 69 3e ad 21 dc bd 11 59 e4 3d
       -0.13827331 0.22756025 -0.10748611 0.111498006
0001e0 1e 9d ba 3e 75 30 18 3e 33 29 ae be 3d 49 8e 3e
       0.36447996 0.14862235 -0.34015808 0.2779025
0001f0 22 51 7d 3e dc 4f 85 be 9d 05 d6 bd 0f 38 7d 3e
       0.24737981 -0.2603749 -0.104502894 0.24728416
000200 a0 55 58 be 36 34 02 be cd c9 76 bd 2c 40 86 bd
       -0.21126413 -0.1271523 -0.060251046 -0.065552086
000210 06 bd a4 be 91 6b 01 bf 3a ef 22 bd 44 17 b7 bb
       -0.32175463 -0.5055476 -0.039778925 -0.0055874903
000220 20 8b 06 3f ec f4 bb be 73 37 8a 3e b1 be 5e 3d
       0.5255604 -0.36710298 0.2699543 0.054381076
000230 2c e1 85 be b4 82 d3 bb e3 b3 9d 3e 04 ec 5c 3e
       -0.26148355 -0.00645479 0.30801305 0.21574408
000240 4d ca a3 bb ae a0 c5 3e f0 30 37 be 88 11 f0 3d
       -0.0049984814 0.3859915 -0.17889762 0.11722094
000250 26 6e 59 3e 80 0f b7 be 3b 7f 78 bd d8 4a 40 be
       0.21233425 -0.35754013 -0.06066821 -0.1877855
000260 fd f6 a8 be c6 da 8a bc 65 02 dc bd 85 02 9e be
       -0.33000937 -0.016950022 -0.10742644 -0.30861297
000270 20 cd 82 be 20 11 6a bb 04 9b 9f 3e b3 e8 06 3e
       -0.25547123 -0.0035715774 0.31172955 0.13174705
000280 83 fd 09 bf 0c 94 a9 3e 17 73 0c 3e 20 62 e4 be
       -0.53902453 0.33120763 0.13715778 -0.44606113
000290 f9 d9 a6 bd 66 47 0f 3e 48 cf 9e be 6c b7 b9 bd
       -0.08147044 0.1399208 -0.31017518 -0.09068188
0002a0 bf 8f 64 bd 0d d7 54 be d8 0c 01 be 5e 6f e0 bc
       -0.05580115 -0.2078516 -0.12602556 -0.027396854
0002b0 c8 38 21 3e b7 0e 11 be 75 21 c6 be 8a 86 90 bd
       0.15744317 -0.1416577 -0.386974 -0.07056911
0002c0 36 06 25 bf 99 00 32 3e 6c c6 df 3e aa 8f 43 bc
       -0.644626 0.1738304 0.4370607 -0.011936108
0002d0 3b a7 bf be 65 16 68 be 6b 11 e2 bc 3c 76 23 bd
       -0.37432274 -0.22664793 -0.027596196 -0.03990768
0002e0 9c fd c6 bc cc 16 7b bd 5d f2 d8 3c e1 c6 b2 3b
       -0.024290852 -0.061301038 0.026482755 0.005455837
0002f0 75 d5 2e 3e 05 f2 ab bc 96 c8 bf bb da 35 e0 be
       0.17073615 -0.020989427 -0.005852769 -0.43791085
000300 bb 23 bb 3d 5c 50 29 3e d6 62 b7 bd bb 64 37 be
       0.091376744 0.16534561 -0.08954398 -0.1790952
000310 64 12 9d 3d bf c1 85 be f0 af 00 3e 84 66 6e 3e
       0.07669523 -0.2612438 0.12567115 0.23281294
000320 b4 1e 8e be c2 58 ad bd d0 3b 9c bc 5b 4a d9 be
       -0.277578 -0.08464195 -0.01907149 -0.4243954
000330 57 17 29 be ae a7 9d 3d 12 e1 12 3c 3c f2 7e be
       -0.1651281 0.07697998 0.008964794 -0.24897093
000340 6b 7c 71 bd 25 46 04 be ad 72 84 be 34 02 f2 bd
       -0.058956545 -0.12917383 -0.2586874 -0.118168265
000350 a1 ac 41 ba ba ea 52 be 53 19 94 be 6a 9e a3 3d
       -0.00073880894 -0.20597354 -0.2892557 0.079891995
000360 18 d9 dc 3d 07 bb 75 3c e2 2a 64 3e 41 1e 4f 3e
       0.10783595 0.014998204 0.22281983 0.20226385
000370 c5 96 d8 bd 5e a5 bd be d0 13 4e 3e 73 ec 05 3e
       -0.10575632 -0.37040228 0.20124745 0.1307848
000380 fb 1b d8 3a 4d d8 59 be 1c 66 6d be 15 8c d4 3e
       0.0016487831 -0.21273918 -0.23183483 0.41513124
000390 f9 9e 8b 3e 9b ea fb bd d6 1a e8 3d 93 31 16 3e
       0.27269724 -0.12300607 0.113332435 0.14667349
0003a0 71 b2 4f 3d 9d 4b 4c bd 31 04 5a be 16 dc d2 3c
       0.050707284 -0.049876798 -0.21290661 0.02573971
0003b0 52 7a 8b bd 01 8e b8 bd 25 cd 12 be 98 dd 0d be
       -0.0681044 -0.0901146 -0.14336069 -0.13854063
0003c0 aa 12 1e bc ee db 6f 3e bb ff 43 be f7 05 d3 be
       -0.009648005 0.2342374 -0.19140522 -0.41215488
0003d0 b4 bd 50 3e a7 f2 89 3c c5 82 d2 3d 35 ad 93 3d
       0.20384866 0.016839338 0.102788486 0.07210771
0003e0 bc 45 f3 ba 55 13 51 be 9c ce 5d be 51 0f 53 bc
       -0.0018560211 -0.20417531 -0.21660846 -0.01288207
0003f0 23 75 9f 3d d2 11 c2 be 29 05 91 be c8 12 42 3e
       0.07786014 -0.3790422 -0.2832425 0.18952477

fc1.bias f4 [128]
000000 75 f5 07 bf a1 9e 39 be 98 84 a7 bd b3 cc 7c be
       -0.5310891 -0.18126918 -0.08179587 -0.24687462
000010 0f 6a 85 bd aa 1c e6 bd 3d 35 78 bd 99 23 4c bd
       -0.0651437 -0.11235936 -0.060597647 -0.049838636
000020 eb ca b7 be ef 0b 80 be 4a 14 e4 be 9b 25 45 be
       -0.35897002 -0.25009105 -0.4454673 -0.19252627
000030 15 76 e1 bd 25 e4 e0 be 3b 1b ec bd d3 8f 30 3e
       -0.110088505 -0.4392406 -0.11528631 0.17242365
000040 58 a3 f7 be 97 c7 da be 42 43 13 be 9e 4e 88 3e
       -0.4836681 -0.427304 -0.14381126 0.2662248
000050 fe 54 38 be cb b2 68 be 6d 1f b3 3c f5 fe 0d be
       -0.18001172 -0.22724454 0.02186557 -0.1386679
000060 e0 db 61 be 4c 16 00 bf 0e a9 5c be 28 e2 6d be
       -0.22056532 -0.5003402 -0.21548864 -0.23230803
000070 7a 7c 2c bf bc c9 40 be a6 c5 c6 bd 8d 5c 24 bd
       -0.67377436 -0.18826956 -0.09705667 -0.040127326
000080 93 4a a5 be 70 8d 6d be 85 c7 96 be 93 2c 10 be
       -0.32283458 -0.23198485 -0.29449096 -0.14079504
000090 5b 4e 46 be dd d1 f5 3c 2c ba e9 bd 7b 02 f2 bd
       -0.19365828 0.030007297 -0.114124626 -0.11816879
0000a0 2b 3b bf be d0 88 a4 be ca c8 3e be fc 3b b9 be
       -0.3734983 -0.3213563 -0.18631282 -0.36178577
0000b0 76 75 cc be 68 f3 01 bf 14 1a 92 be 8a aa 4a 3e
       -0.39933366 -0.50762033 -0.2853552 0.19791618
0000c0 79 2c f7 be 98 6e ba be 6c f6 ee be 0c cd ef be
       -0.48276117 -0.364125 -0.4667238 -0.46836126
0000d0 38 82 89 be 37 c1 c7 be 2e 2f c7 be ae 5f a2 be
       -0.26857162 -0.390146 -0.38903183 -0.31713623
0000e0 58 cf 1c be 4c 93 6a bd f4 91 6a be 1a 2c d1 bd
       -0.1531347 -0.05726938 -0.22907239 -0.1021349
0000f0 cf 71 8b bd 0b a5 a7 be 1e 28 55 be 0f a0 00 be
       -0.06808817 -0.32743105 -0.20816085 -0.12561058
000100 92 f3 50 3d aa f8 27 bf 15 74 28 3d 00 93 1b be
       0.051013537 -0.65613806 0.04112633 -0.15192795
000110 46 3f 5b be c5 4d 15 bd c1 c4 1c be a2 63 1a bf
       -0.21410856 -0.03645112 -0.1530943 -0.6030828
000120 72 07 55 be 54 14 ed bd bd 92 61 be 8e 96 a6 be
       -0.20803621 -0.11576143 -0.22028632 -0.3253674
000130 0f 3c 04 bf 52 dd f1 be fe b6 b2 be 2f 52 a5 be
       -0.5165414 -0.47239166 -0.34905237 -0.32289264
000140 16 30 d5 3e b6 8e 4d be 68 1d 09 bf 96 7e 71 be
       0.4163825 -0.20073971 -0.53560495 -0.23583445
000150 35 73 39 bf 33 ff 8f 3e 58 4e 7e be 7f 9d ed be
       -0.72441417 0.2812439 -0.24834573 -0.46409222
000160 83 0f ee be 73 c5 da bd 14 4f c6 bd 60 af 74 be
       -0.4649621 -0.10682192 -0.09683052 -0.23895025
000170 54 a4 0e be 6d 96 5b bd f2 03 bc be c6 d2 dd be
       -0.13929874 -0.053610254 -0.3672176 -0.4332487
000180 86 4b dc be fe b4 3f bd 83 10 96 be 3d 59 06 bf
       -0.4302637 -0.046803467 -0.29309472 -0.52479917
000190 af 41 e2 bd 98 b3 e2 bd 1a e4 1f bf e3 05 80 be
       -0.110476844 -0.11069411 -0.6245743 -0.2500449
0001a0 28 f6 0a bf c7 e5 5c be 06 f6 a8 bd b1 44 0a bf
       -0.54281855 -0.21572028 -0.0825005 -0.54011065
0001b0 9e 13 20 be fc 84 76 be e8 d9 95 3e fc f6 91 bd
       -0.15632483 -0.24074167 0.29267812 -0.07127187
0001c0 ce 48 db be 4e 4c f0 be 9d b0 ac bd 88 63 13 bf
       -0.42828983 -0.46933216 -0.08432124 -0.5757375
0001d0 c0 0d 08 bf be d4 76 3e 57 58 39 be 13 ca 80 be
       -0.5314598 0.24104592 -0.18100105 -0.2515417
0001e0 14 df 14 bf 11 06 8a be 73 c8 54 be 88 0a d4 be
       -0.5815289 -0.26957753 -0.2077959 -0.41414285
0001f0 15 e3 68 bd 2b b8 c1 bd d0 96 fb bd 3b 7b b3 be
       -0.056857187 -0.094589554 -0.122846246 -0.35054955

fc2.weight f4 [128, 128]
000000 03 e7 2b 3b 83 77 7c 3c 25 11 e0 bd 92 c7 45 bd
       0.0026230223 0.015409353 -0.1094077 -0.04828603
000010 e7 1c 00 3d b5 7d 51 3d 3e c0 31 bd 91 71 58 3d
       0.031277563 0.051145274 -0.043396227 0.05284268
000020 e5 cb 4d bd ec 17 04 be ec ea 8c bd ee 18 1f b9
       -0.050243277 -0.1289975 -0.06880745 -0.00015172709
000030 23 fb 00 bc eb 54 81 bc fa ed 74 bd 0a d9 e9 bc
       -0.007872376 -0.015787562 -0.059797265 -0.028545875
000040 a2 ef c1 39 dc a5 e7 3d 50 9c 8b bd cc 52 a5 3d
       0.0003699037 0.11310932 -0.068169236 0.08072433
000050 83 33 d0 be be 2b b8 3d 00 e6 40 be f5 4b b3 3b
       -0.406643 0.08992718 -0.18837738 0.0054717013
000060 c0 c7 97 bc f1 21 8e bd c6 58 3e bd b9 39 94 3d
       -0.018527865 -0.069400676 -0.04647138 0.07237572
000070 39 04 69 be 20 8d 48 bd c0 44 19 bd 10 b4 fa bc
       -0.22755517 -0.048962712 -0.03741908 -0.030603439
000080 b8 de 74 3e c1 a7 2b bc 59 bb ad 3d c0 2d da bd
       0.23913085 -0.010477007 0.08482999 -0.10653257
000090 17 18 8b be 66 c3 dc bb 43 95 af bd a4 bd 0b bc
       -0.27166817 -0.0067371605 -0.08573391 -0.008529101
0000a0 a9 fe 01 3c 10 d8 c8 3b 57 6e 68 be 15 6b 90 bd
       0.007934251 0.0061292723 -0.22698341 -0.07051674
0000b0 15 5c 3e bd a3 8f 4e be 9f 70 00 bd 3a 12 8b 3c
       -0.046474535 -0.2017198 -0.031357404 0.016976465
0000c0 61 01 7a bc e8 a4 d6 3d 92 fc 94 be c1 8e df 3d
       -0.015259118 0.10480672 -0.29098946 0.109159
0000d0 94 1e 7a 38 5c a2 aa be bd d0 32 3d ce 8c 9c 3d
       5.9633123e-05 -0.33326995 0.0436561 0.07644044
0000e0 70 f5 95 3d ac 2f 4b 3d e7 1b 00 be 4f 63 2e bd
       0.07322204 0.04960601 -0.12510644 -0.042575177
0000f0 2c a5 a3 bb d7 7d 02 be a6 50 e1 bc ce 47 33 3d
       -0.0049940553 -0.12743317 -0.027504276 0.04376965
000100 e8 80 05 be f6 2b 48 be d1 d0 0a 3d 03 93 0f bf
       -0.13037455 -0.1954802 0.03389055 -0.560837
000110 7c ba a1 bd a3 bf 0f be 80 6b 4b 3d a3 9f 47 be
       -0.07896897 -0.14037947 0.049663067 -0.1949449
000120 ea 20 c9 3d cc ae 17 bd 72 f9 29 3d 70 e3 a8 3d
       0.09820731 -0.037031934 0.041497655 0.08246505
000130 bf ae 4e be b8 8d 62 bd fa 59 00 be b2 99 14 be
       -0.20183848 -0.055310935 -0.12534323 -0.14511755
000140 9e 77 27 be 21 67 cc 3d 8b ad 52 bd 7a ce de 3a
       -0.16354224 0.09980608 -0.051435035 0.0016998791
000150 03 c6 78 3c 15 f9 30 bd ef 68 64 bd 76 61 8c 3d
       0.015183928 -0.043206293 -0.055764135 0.06854527
000160 84 55 a2 bd bd 84 b0 bd 8e 2f a5 bd 86 36 e0 bc
       -0.07926467 -0.08619068 -0.08065711 -0.027369749
000170 2b 22 84 bb 9d db e4 bd 7e 6f 26 3e e7 76 86 bc
       -0.0040323935 -0.111747004 0.16253468 -0.016414119
000180 ec ff a1 be 57 97 0a 3c ca 22 0a 3d 76 28 9a be
       -0.31640565 0.008458934 0.033724584 -0.30108994
000190 b7 19 a3 bd 7c 8d 4c bd 42 23 2a be 01 65 22 bd
       -0.07963889 -0.049939618 -0.16615012 -0.039647106
0001a0 a4 e5 3c be f3 bb 92 3d 0f 2c 66 bd d6 03 b0 3c
       -0.18446976 0.07164755 -0.05619436 0.021486204
0001b0 ac 1c 05 bf 04 8c b6 bd 0c d5 02 bd 63 29 12 3c
       -0.51996875 -0.089134246 -0.03194146 0.008921
0001c0 f1 d7 8b 3d 4f 66 c8 3c c6 90 e2 bd 88 b0 37 bd
       0.06828297 0.024462847 -0.110627696 -0.044846088
0001d0 82 97 59 bd 9a 7f a8 bd a7 e9 84 bd b7 51 02 bd
       -0.053123005 -0.08227463 -0.06489878 -0.03181621
0001e0 bb 8e e2 bd df 31 2c 3d 13 42 22 3d 06 b9 7a bd
       -0.1106238 0.04203975 0.039613795 -0.06121161
0001f0 43 a0 4a be 3a 82 34 bc a6 5d af bc 96 63 1a bc
       -0.19787697 -0.011017377 -0.02140696 -0.009423157
000200 41 10 0c 3e 57 79 8a be 33 6f 8b be df ce 27 bd
       0.13678075 -0.270457 -0.27233276 -0.040968772
000210 66 22 8f 3b 1a a8 0e be a8 9c 40 3d ce 33 9f 3c
       0.0043681143 -0.13931313 0.0470244 0.019433882
000220 8a b5 19 3e ea 07 82 bd 82 63 b1 bf a7 8a 04 be
       0.15010658 -0.06349166 -1.3858492 -0.12943517
000230 b6 54 48 bf 2c 17 a4 3e 93 ca f3 3d f0 b2 00 3f
       -0.7825426 0.3204893 0.11903872 0.50273037
000240 3b 15 2e bc b0 f5 47 3e d0 91 3e bd a5 ab 19 bf
       -0.010625179 0.19527316 -0.046525776 -0.60027534
000250 ab 57 c7 be b1 2b 0d be 42 a7 9d bf 5c c2 0b bd
       -0.38934073 -0.13786198 -1.2316668 -0.034120902
000260 40 4e 95 3e 22 85 1b 3e 09 10 91 3c cf 19 09 bf
       0.29161263 0.15187505 0.017707841 -0.53555006
000270 86 3a 83 bf 20 69 1f be 20 0d 18 3d 50 9a 48 bd
       -1.0252235 -0.15567446 0.037121892 -0.04897529
000280 aa 79 00 bb a9 a2 47 bc 50 d2 8e bc 6e db 99 bc
       -0.0019603767 -0.012184777 -0.01743427 -0.01878139
000290 f2 fd 8a bf 7a 8e 65 3e b9 81 20 3d 64 68 0d 3e
       -1.0858748 0.22417632 0.039186213 0.13809353
0002a0 f5 cf 96 bd f2 0c 7a 3d 6b 80 a6 be c4 75 d6 be
       -0.073638834 0.0610475 -0.3251985 -0.41886723
0002b0 99 51 55 bd 56 45 96 bf fd 85 22 3e 0b 9f a4 be
       -0.05207977 -1.173991 0.15871425 -0.3215259
0002c0 a2 49 e3 bd d3 58 b7 3b f1 73 d8 3d 8b d7 78 3e
       -0.11098029 0.0055953055 0.10568989 0.24300973
0002d0 65 e5 57 3d 60 d3 f9 bf 75 33 97 3e 1b 35 a4 39
       0.052709002 -1.9517632 0.29531446 0.00031320084
0002e0 f9 7c 24 3c f4 0e 09 3c 5e 18 df 3c 28 c6 51 3e
       0.010039561 0.0083653815 0.027233299 0.20485747
0002f0 f6 d5 5d 3d 94 9b de bc 44 55 08 be 6e d0 89 bd
       0.054159127 -0.027173795 -0.13313776 -0.06729208
000300 2a d2 de bf 6e 0a 2f be 71 f7 cd bf 1e 6b 34 bf
       -1.7407887 -0.17093822 -1.6091138 -0.7047595
000310 3f 46 78 3d 26 67 9b 3c ed 22 12 3b a4 ef ab bd
       0.060613867 0.018970083 0.002229865 -0.08395317
000320 6f eb 9c 3d 42 8b e9 3e 62 ca 6d 3d 42 ae 4b 3a
       0.07662093 0.45614058 0.058054335 0.0007769802
000330 ba cf 78 3d 71 51 a7 bd c8 dc ee bf d3 a2 da 3d
       0.06074498 -0.081698306 -1.8661127 0.106755875
000340 8d 57 5d be ac 10 a3 be 77 7c 10 bf b9 3e 5e 3d
       -0.21615429 -0.31848657 -0.5643992 0.054259036
000350 16 8d f2 3d 32 49 47 3f 92 0b d0 3c 81 4e e0 3e
       0.11843316 0.7784606 0.025396142 0.43809894
000360 b0 b7 16 bc 3e b2 6e 3d fb 10 93 bc e3 64 0a 3d
       -0.009199068 0.058275454 -0.017952433 0.03378762
000370 bf 2b b8 be 54 c7 1c bd 1a 92 85 bd 4c 39 6b bf
       -0.35970876 -0.03827603 -0.06522007 -0.91884303
000380 c0 a1 b7 bf 4d e6 0f bd 4a 20 14 bd 1c f3 2f be
       -1.4346237 -0.03513174 -0.036163606 -0.17182583
000390 df 11 61 3d 7a 6c b7 3a 66 d9 33 bf 60 2e 1d 3d
       0.054948684 0.001399412 -0.702536 0.038374305
0003a0 f9 21 70 ba 20 41 ad bd 00 c2 32 bc 5e ab a2 bd
       -0.0009160336 -0.08459687 -0.010910511 -0.07942842
0003b0 f6 d6 f9 be 48 ea 81 be a1 bf 52 3f 96 51 23 be
       -0.48796815 -0.25374055 0.8232365 -0.15949091
0003c0 44 99 4a bd 78 ee fb 3a ef ef 0c 3e 74 36 84 3e
       -0.04946257 0.001922085 0.13763402 0.25822794
0003d0 32 cb 42 3e 47 46 1c 3f 0b 5d 7b 3d 27 fd e7 bd
       0.19022825 0.61044735 0.06136803 -0.11327582
0003e0 5a 09 6c be 85 b0 a9 3d 1f 84 cd bc e7 6e 3c 3e
       -0.23050442 0.082856216 -0.025087414 0.18401681
0003f0 c0 92 25 bf d0 6a 75 3c b4 56 01 3b 48 4f a3 3d
       -0.6467705 0.014979079 0.0019735517 0.07974106

fc2.bias f4 [128]
000000 7d 6b 5d 3d 5e fa 04 be da c0 6b 3e 0d 36 3d bd
       0.054057587 -0.12986133 0.23022786 -0.046194125
000010 d6 55 5a bc b6 7b b7 3d fc be 98 3d a0 5a 8a 3c
       -0.013326129 0.08959143 0.074583024 0.016888916
000020 6d 8b ff bc f5 fd ac 3d b2 90 81 bd 6a 04 94 bd
       -0.031194413 0.08446876 -0.063264266 -0.072274044
000030 9c d8 87 bc 70 9f 75 3a 21 7d de 3d 45 5a d7 3d
       -0.01658278 0.00093697663 0.1086371 0.105152644
000040 bd e7 5f 3e 54 48 db bc 6d 59 56 bd 51 90 1e bd
       0.21865745 -0.026767887 -0.052331377 -0.03871185
000050 36 e2 e4 3c f5 d5 42 bd 00 c6 76 3b 2d be 6a 3e
       0.027939897 -0.047567327 0.0037654638 0.22924109
000060 9c 1a ef 3c ce 67 90 3d d9 44 b0 bd 7f 69 41 bc
       0.029187493 0.07051049 -0.08606882 -0.011804937
000070 a6 36 d5 bc 6a 48 59 bc 09 4e 53 bd 39 2b 8e bc
       -0.026027035 -0.013261894 -0.051588092 -0.017354595
000080 49 e2 12 bd 7e cc 61 bd bc 32 87 bd e4 c2 92 bd
       -0.035860334 -0.05512666 -0.06601474 -0.07166079
000090 95 c4 9e bd 40 e7 d3 bd 38 a4 d2 bd a2 ba 61 bd
       -0.07752339 -0.10346842 -0.102852285 -0.055109628
0000a0 63 fc 7b bd 21 ec 08 bd 3f 1b 0a 3d fd a7 42 3b
       -0.06151999 -0.033428315 0.03371739 0.002970218
0000b0 49 75 c4 bd 96 d8 e6 3d 2b c3 5c bc 41 61 df 3c
       -0.09592683 0.11271779 -0.013474266 0.027268054
0000c0 d6 36 00 3d ce 2b d1 bc b3 3c 33 bd 8f 9b cb 3e
       0.031302296 -0.025533583 -0.04375906 0.3976712
0000d0 32 5f 32 bd 2f cf c7 3e db c6 85 3e 97 a7 80 3d
       -0.043547817 0.39025256 0.26128277 0.06281965
0000e0 e7 19 ae bd 6c 98 02 3e b9 db 4f bd 34 3a 1a bd
       -0.08501034 0.12753457 -0.050746653 -0.037653163
0000f0 1d 91 a5 bc 5f fd 86 bd 7c f0 d4 3e e1 4b 02 be
       -0.020210797 -0.065912955 0.41589725 -0.12724258
000100 2d 7b d0 3c 65 7e 2d ba eb 8c a9 39 11 fb 80 3d
       0.02544936 -0.00066182605 0.00032339184 0.06297887
000110 8d 2b 1e bc 96 16 1b bd 07 1f 01 bd d7 e0 23 bd
       -0.009653938 -0.037863337 -0.03152373 -0.040009346
000120 27 26 60 bd e2 69 c5 3d e5 21 55 3d e1 c3 86 3d
       -0.054723885 0.09639336 0.052034277 0.0658033
000130 65 eb 83 bc 23 29 eb 3c b3 79 8a bd 97 a9 87 bb
       -0.016103456 0.028706139 -0.067614935 -0.0041400897
000140 8e ab 3a bd 9d f0 ea bd 19 80 1e bd 78 6a 21 3e
       -0.045573764 -0.114716746 -0.038696382 0.15763271
000150 f4 cf a5 bd 84 d9 b2 be a1 1d 0f 3d cb a6 9c 3d
       -0.080963045 -0.34931576 0.034940366 0.07649001
000160 85 46 4b 3c 78 f2 3c 3c 37 18 85 bd d9 93 7c bd
       0.01240695 0.011532418 -0.06498759 -0.061664436
000170 3c bf 34 3d 99 3d 96 bd 3c 04 c8 bc a2 85 db bd
       0.044127688 -0.073359676 -0.024416082 -0.10718848
000180 df 9f 83 3d 6f de a1 bd e2 3d 0b 3d 42 01 20 bd
       0.06426977 -0.07903754 0.033994563 -0.0390637
000190 75 0f 6d bd 90 20 01 3d 28 31 e5 3c 4a 13 4c bd
       -0.05787607 0.031525195 0.027977541 -0.049823083
0001a0 e3 2c 16 3d 4b 14 3b 3d f0 af a4 3c 06 cf 5e bd
       0.0366639 0.04567365 0.020103425 -0.05439665
0001b0 4e f4 35 3e 51 8c ba be e8 81 91 ba d4 7d 51 3e
       0.17768976 -0.36435178 -0.0011101337 0.20458156
0001c0 06 6f 9e 3e 13 42 29 bd d1 95 11 3d f3 9e d9 bc
       0.3094408 -0.04132278 0.035543267 -0.02656505
0001d0 5a ac d3 bd 54 17 91 bd d8 a6 dd 3e 47 af 25 bd
       -0.10335608 -0.070845276 0.43291354 -0.04045036
0001e0 f9 d9 6a 3c aa 4b 95 3d d2 c6 96 3d ee ab c9 3d
       0.014334195 0.072898224 0.07362141 0.09847246
0001f0 39 63 fa 3e 50 f4 b6 bd c5 39 c8 bc 96 8d 39 3d
       0.48903826 -0.08933318 -0.02444161 0.045301042

fc3.weight f4 [100, 128]
000000 3d df 5c bc 42 c3 ba 3c bb 11 d3 bc 77 49 29 bd
       -0.0134809585 0.022798184 -0.02576529 -0.041329827
000010 0b 29 f6 bc a0 af 09 3b e4 b0 d3 3d d7 13 36 3b
       -0.030048868 0.0021009222 0.103364736 0.0027782822
000020 00 44 64 bc d4 23 e2 bc 86 89 2a bd 57 bb a1 bd
       -0.013932228 -0.027604975 -0.04163506 -0.0789706
000030 d0 d9 25 3b 26 ca ab bd a9 bb 75 bd f9 43 96 3e
       0.0025306828 -0.08388166 -0.05999342 0.29348734
000040 8b 65 00 3d 1a 16 e8 3b 5e fb e6 3d 64 7e 1f 3d
       0.03134684 0.007082713 0.11278413 0.038938895
000050 37 b1 ab bd dd 2d 37 bd 6a 66 45 3d 34 fb b0 3b
       -0.083834104 -0.044721473 0.048193373 0.0054010395
000060 c2 31 68 3d a6 41 09 be e8 e3 30 3c 8c eb af bd
       0.056688078 -0.13403949 0.010796525 -0.08589849
000070 84 f0 e1 bd 4c 6b 47 bd 2b 88 18 3c 1e a7 10 bd
       -0.11032203 -0.04868631 0.009309809 -0.035315625
000080 eb 3d e8 ba 27 de 8b bd 40 4e 81 bb 46 5d a3 bd
       -0.0017718648 -0.068294816 -0.0039460957 -0.07976775
000090 92 d6 0a bd 9c 93 1b 3d c8 4d 83 bc 55 7f 8d bd
       -0.033896036 0.03798257 -0.0160283 -0.06909052
0000a0 1e b2 b3 3c 1b af 89 bd 0b d4 c5 bd 55 54 a2 3b
       0.021935519 -0.06722852 -0.096595846 0.004953901
0000b0 2c 7b f7 bc af 8e b4 3a e1 8d a3 3c 3b 5b c0 3a
       -0.0302101 0.0013775433 0.019965114 0.0014675626
0000c0 05 6b 18 be 53 15 f0 bd 6c b0 01 3d ff e9 6c be
       -0.14884575 -0.11722817 0.03166239 -0.23136137
0000d0 be 39 74 bd ec b2 10 be a6 1c 1a be ff 78 fa bc
       -0.05962538 -0.14130753 -0.15049991 -0.030575274
0000e0 9c c3 09 3d 9f a5 52 be 11 12 9d 3d f0 c8 7b 3c
       0.033633813 -0.20570992 0.076694615 0.015367731
0000f0 9e 4d 95 bd b2 cf a9 3d f3 48 54 be 25 ad 6f bb
       -0.07290195 0.08291568 -0.20730953 -0.0036571708
000100 e8 f3 a0 3c bf a2 51 3d c7 83 6d bd b1 2b 0d bc
       0.019647554 0.051180597 -0.057987 -0.008616374
000110 01 36 8f 3d 4d 4c d0 bc d1 49 6f bb 63 00 c1 3c
       0.06992722 -0.025427008 -0.0036512504 0.023559755
000120 6f 77 9b bd f2 04 c7 3a 43 b6 89 bd a3 6c a9 3a
       -0.075911395 0.0015183969 -0.06724217 0.0012926053
000130 e2 4c 7d bd ae 17 9c 3d bf 53 0c 3d c9 4d 78 bc
       -0.0618409 0.07621704 0.034259554 -0.015155264
000140 55 56 3c 3d 64 cd 21 be 51 97 be bd 78 36 01 be
       0.04598077 -0.15801007 -0.09306205 -0.12618434
000150 e5 48 a1 3d ea e6 31 bd dc c7 c3 bc fd e6 93 bd
       0.07875232 -0.043433107 -0.023899011 -0.07221792
000160 c2 55 46 bd 72 3c bd bd d5 20 94 bd 1c e9 81 bc
       -0.04842163 -0.09240045 -0.07232825 -0.015858226
000170 7b 90 30 be 06 d1 3d 3d 16 c0 e7 bc 2c f1 0a bc
       -0.17242615 0.04634192 -0.028289836 -0.008480351
000180 7c 13 2c 3d 02 89 34 bd bb a9 d3 3b f2 1a a8 ba
       0.04201077 -0.044075973 0.0064594424 -0.0012825413
000190 dc c5 f1 bd 21 49 fe bc 5f 82 b2 3b d8 73 1b be
       -0.11805317 -0.03104073 0.0054476704 -0.1518091
0001a0 21 8f a5 bd 84 a7 22 bd 1d 33 9b 3d 23 49 d9 bd
       -0.0808394 -0.039710537 0.075781085 -0.10609653
0001b0 b4 2b 0b 3d 2a 60 52 3d ce 61 6b 3d 0c 4c 34 bd
       0.033977225 0.05136124 0.05746632 -0.044017836
0001c0 90 a2 3a be 1e 8a 29 3c 44 1c f1 bc 00 2e 71 bc
       -0.18226075 0.010347871 -0.029432423 -0.01472044
0001d0 d3 7c 06 3d cc b1 00 3d a1 e3 32 be e9 6a e0 bd
       0.032833885 0.03141956 -0.17469646 -0.109578915
0001e0 d0 ee a1 bd cb b1 19 3c 23 7c 5b 3d f4 03 ed bd
       -0.07906878 0.009380768 0.053585183 -0.115730196
0001f0 97 3f 6e be f5 1d 34 be 14 09 75 3d 26 ec 95 be
       -0.23266445 -0.17589553 0.05982311 -0.2928173
000200 3d 21 53 3d a8 5b 0b bd e6 d7 7f bc ac 80 0e be
       0.05154537 -0.034022957 -0.015615439 -0.13916272
000210 9f cd 1c bd 5f d3 f8 bc de 67 8c 3d 9b c4 b8 3d
       -0.038282033 -0.030374227 0.068557486 0.090218745
000220 68 eb 60 bd 6f ad 0b be 60 83 b5 bb 60 7a 90 3b
       -0.054912 -0.13640378 -0.0055393428 0.0044091195
000230 54 ad 8a bc 4b 09 10 bd 30 41 8e bd ca 58 6a 3e
       -0.016928352 -0.035165112 -0.06946027 0.22885433
000240 65 a3 96 3d f9 c2 b8 bc 57 3b 3c bd 46 48 1f 3d
       0.07355384 -0.022553908 -0.04595503 0.038887285
000250 ed 33 c4 bd 8b 0a 03 bd 14 28 ad 3c 9b f2 5a 3a
       -0.095802166 -0.031992476 0.021137275 0.0008352191
000260 82 48 d8 3c c5 7a 8f bd 3d 11 65 bd 62 61 25 3d
       0.026401762 -0.07005838 -0.055924643 0.040376075
000270 4b f5 c2 bc 62 c6 8f bc 44 98 39 bd 9a e9 1b 3c
       -0.023798605 -0.017550651 -0.045311227 0.009516144
000280 56 85 6a bb d8 ae 2e 3c 13 5a 92 3d d2 ac d2 3c
       -0.003578504 0.010661803 0.071460865 0.025717173
000290 01 9d cf bb e7 5d af 3d 10 01 4f bc 7b 5e 78 3d
       -0.006335855 0.08562832 -0.012634531 0.06063698
0002a0 d4 5e 49 bd 08 69 a7 bc d2 27 b7 bd 81 e0 5e 3d
       -0.0491627 -0.020435825 -0.08943142 0.054413322
0002b0 c1 5f 99 bd b8 00 5f bd 93 91 93 bb 65 28 bb 3c
       -0.07488967 -0.054444045 -0.004503438 0.02284641
0002c0 f4 cd 85 bd c7 2f b1 bd 4e 25 ab bc 5d 22 2e be
       -0.06533423 -0.08651691 -0.020891812 -0.17005296
0002d0 8f 49 2d bd 65 8d e6 bd 10 02 16 be cd f7 5e bd
       -0.04230648 -0.112574376 -0.14649224 -0.05443554
0002e0 b7 b4 ad 3d 79 d2 25 be 38 dc 6d bc 8d e8 83 3d
       0.08481734 -0.1619357 -0.014517836 0.0644084
0002f0 63 c0 fc bd b1 a0 4f bc b7 6a 16 be e1 e7 fd bc
       -0.12341382 -0.012672589 -0.14689146 -0.030994358
000300 f3 0b c6 bb 68 4e 1b bc e2 6e a8 bd e2 ed c4 bc
       -0.006043905 -0.009479143 -0.08224274 -0.024039213
000310 37 f2 eb bc 53 16 62 bc 52 a2 29 bd 84 1f 07 3d
       -0.02880202 -0.013799268 -0.041414566 0.03298904
000320 18 d9 fb bd c6 ba 0d 3c f0 cc 05 be 5d 41 79 bd
       -0.12297267 0.008650487 -0.13066459 -0.06085335
000330 cd 95 85 bd a9 bd 13 3d f5 ca 36 3d c9 fa 94 bd
       -0.06522713 0.036069546 0.04462715 -0.07274396
000340 24 ef 81 3c 71 ae 0e be bd b3 4e bc b6 07 d3 bd
       0.015861101 -0.13933732 -0.012616095 -0.10304205
000350 69 bc 58 3d dd a7 4a bd e5 7f 38 3b 01 1a f9 bd
       0.052914057 -0.049476493 0.0028152403 -0.12163163
000360 3b 8f f6 bd 42 d2 c5 37 82 d4 05 3d 77 05 bd 3c
       -0.12039038 2.3582139e-05 0.032673366 0.023073895
000370 cf 72 23 3c b6 58 2e bd 5c 26 8c 3d 39 7d 4c ba
       0.009976103 -0.04256507 0.06843254 -0.0007800642
000380 80 44 19 3d d7 fa 8b bd 60 58 0a bc 9b c5 5c 3d
       0.037418842 -0.06834953 -0.008443922 0.05389939
000390 78 fc b5 bd 6c a0 d6 3b d5 1d 18 3c d6 81 25 be
       -0.08886045 0.0065498855 0.009284456 -0.1616281
0003a0 5e a1 4f bd 45 f9 43 bd 00 64 71 39 36 4f 05 3d
       -0.050691 -0.047845144 0.00023020804 0.032546245
0003b0 81 c3 01 3d f1 b5 bc bc 15 49 97 3d b5 33 99 bd
       0.031680588 -0.023035975 0.07386986 -0.074805655
0003c0 65 80 3b be a1 b7 16 bd 78 01 47 bd c7 7f c9 3c
       -0.18310697 -0.036796216 -0.048585385 0.024597062
0003d0 90 e2 86 3d b0 f8 c3 3b 7e 08 80 be ca 15 c5 ba
       0.06586182 0.0059805736 -0.2500648 -0.0015036401
0003e0 8a eb cc bd 86 c1 0b bd d3 c8 17 3d ca b3 9f bd
       -0.10005863 -0.034120105 0.037056755 -0.07797964
0003f0 22 ae 6d be e2 48 28 be 6f 31 02 3c bd a6 7e be
       -0.23210958 -0.16434053 0.007946356 -0.24868293

fc3.bias f4 [100]
000000 08 8b 08 bf 99 12 10 bf f6 87 04 bf 4a 5f fb be
       -0.53337145 -0.5627838 -0.5176996 -0.49096137
000010 ec 26 fa be 66 4f 00 bf 65 6b 01 bf 1d 5d f1 be
       -0.4885782 -0.5012115 -0.50554496 -0.47141352
000020 ce 60 06 bf 05 da f4 be b8 ba ff be 8e f5 0a bf
       -0.5249146 -0.47822586 -0.49947143 -0.54280937
000030 df 6b f7 be 5b 41 0b bf 76 c9 07 bf 69 a5 08 bf
       -0.48324487 -0.543966 -0.5304178 -0.53377396
000040 20 4f 07 bf 9d 7b f3 be 67 c1 00 bf a0 62 09 bf
       -0.5285511 -0.47555247 -0.5029511 -0.53666115
000050 68 b0 02 bf b1 46 02 bf c2 50 0a bf 92 c5 fe be
       -0.51050425 -0.50889117 -0.54029477 -0.4976011
000060 cc c2 04 bf c0 65 00 bf 90 c2 f1 be e0 99 0e bf
       -0.51859736 -0.5015526 -0.47218752 -0.55703545
000070 73 09 04 bf 01 84 fd be de 2e 04 bf 0d 68 f5 be
       -0.5157692 -0.49514773 -0.51634014 -0.47930947
000080 6e 71 10 bf f6 3c 11 bf 54 9f 02 bf 70 f7 04 bf
       -0.5642308 -0.56733644 -0.51024365 -0.5194006
000090 54 3c 03 bf 31 b8 01 bf 67 e5 0d bf 9a 70 04 bf
       -0.5126393 -0.5067168 -0.55428165 -0.51734316
0000a0 68 64 fb be 11 d2 03 bf 31 2b a9 be d4 7c 09 bf
       -0.4910004 -0.5149241 -0.33040765 -0.537061
0000b0 ad d8 a1 be 82 1a 10 bf c6 77 01 bf 21 24 07 bf
       -0.31610623 -0.5629045 -0.50573385 -0.52789503
0000c0 02 7e 11 bd d3 95 0a bf 9a 33 08 bf 34 84 03 bf
       -0.03552056 -0.54134864 -0.5320374 -0.513736
0000d0 16 a2 0a bf 8b ac 03 bf 25 bf 0b bf b8 53 32 be
       -0.54153574 -0.51435155 -0.5458854 -0.17414749
0000e0 e6 e4 fa be f8 04 f3 be c7 74 07 bf 7e de 0b bf
       -0.4900276 -0.47464728 -0.52912563 -0.5463637
0000f0 98 f7 f6 be c1 db 0a bf f1 21 0e bf 02 da 02 bf
       -0.48235774 -0.5424157 -0.5552054 -0.51113904
000100 28 9f 06 bf 12 56 fe be 7d c3 07 bf b3 5e 0e bf
       -0.52586603 -0.4967504 -0.53032666 -0.5561325
000110 48 3e 06 bf 3a 7f 0a bf 07 d3 0c bf 66 a3 06 bf
       -0.52438784 -0.5410038 -0.550095 -0.52593076
000120 2f e2 f6 be 48 e2 40 3d 79 5f 0f bf 03 aa f7 be
       -0.4821944 0.0470908 -0.56005055 -0.48371896
000130 55 1c 0b bf 84 21 28 bd 45 71 f5 be b4 06 01 bf
       -0.54340106 -0.041047588 -0.4793798 -0.50400853
000140 9c fd 06 bf b8 4c 0c bf 62 7d b0 3c a3 42 fa be
       -0.5273073 -0.54804564 0.021544162 -0.48878965
000150 3a 61 0c bf cc da 07 bf c3 dd 22 bd 72 5d 00 bf
       -0.54835856 -0.5306823 -0.03976227 -0.50142586
000160 87 f8 fd be d2 7b f8 be 77 ee fc be 12 9e 08 bf
       -0.49603674 -0.48531967 -0.49400684 -0.53366196
000170 b6 f0 93 be 29 bb 0d bf 8e 16 0e bf c3 fa 09 bf
       -0.28894585 -0.5536371 -0.55503166 -0.53898257
000180 7d d6 0d bf 29 ae f2 be ce f5 02 bf 61 d8 0d bf
       -0.5540541 -0.473985 -0.5115632 -0.55408293
