integration/checkpoint.pth (torch, 191275 bytes, 10 tensors)

ip_bn.weight f4 [10]
1.0142354 0.13684961 0.2953819 0.3025571 0.17442192 0.12848637 0.13714074 0.099667124
0.13755181 1.0
00000000: 77d2 813f 4e22 0c3e 4c3c 973e c4e8 9a3e
00000010: a99b 323e ee91 033e 9f6e 0c3e 471e cc3d
00000020: 62da 0c3e 0000 803f

ip_bn.bias f4 [10]
0.018368982 -0.052859355 0.146735 0.08355515 0.12272484 -0.032679457 -0.0150654055 -0.035145372
-0.04580325 -0.0018311838
00000000: 8c7a 963c 0d83 58bd b341 163e f61e ab3d
00000010: 2957 fb3d e5da 05bd e4d4 76bc 98f4 0fbd
00000020: 309c 3bbd 5504 f0ba

ip_bn.running_mean f4 [10]
0.62393546 0.46055976 0.5266998 0.64412284 0.7275029 0.7362511 0.7922209 0.77332
0.3983141 0.0
00000000: 3cba 1f3f 7dce eb3e ccd5 063f 3ce5 243f
00000010: a13d 3a3f f47a 3c3f fdce 4a3f 4df8 453f
00000020: d3ef cb3e 0000 0000

ip_bn.running_var f4 [10]
0.040281888 0.0009590054 0.001763887 0.0029399567 0.007542926 0.057899904 0.069240555 0.1471092
0.23377009 6e-45
00000000: 9ffe 243d c365 7b3a 3a32 e73a 4aac 403b
00000010: a62a f73b 7328 6d3d fecd 8d3d cba3 163e
00000020: 6d61 6f3e 0400 0000

fc1.weight f4 [128, 10]
0.016802015 0.14194795 0.07388901 0.022465898 0.04974636 -0.16654299 -0.27810505 -0.2984238
-0.060699947 -0.06464575 -0.025198542 0.14465922 -0.197756 0.21436425 -0.032679413 0.37577406
0.20402569 -0.35707238 -0.077104606 0.530568 -0.40059832 -0.27237836 0.04299398 0.33414316
0.026563225 -0.030241277 -0.049909696 -0.20881554 -0.013058404 -0.20455499 -0.29602155 -0.44154936
0.19019061 0.2666325 -0.10683154 0.086352244 0.40582573 0.24752071 0.17871904 -0.100241244
-0.033669632 -0.08207027 -0.04691613 0.06328961 -0.114361174 0.04872766 -0.04082984 -0.08479502
-0.060553815 0.38769943 0.47117835 0.22226769 0.1942847 -0.08318039 -0.1532255 -0.18234266
0.08967324 0.2635206 -0.2516035 0.033541206 0.025103852 -0.1190501 -0.1710996 0.107819654
0.061903223 0.04813964 0.11783504 -0.3072664 0.016891917 0.35969242 -0.48140255 0.17679171
-0.20594014 0.1258352 -0.02080835 -0.12287475 -0.004134639 -0.07072579 -0.07494611 -0.20315126
-0.0049454444 0.08356221 -0.27773118 0.2182456 -0.029010499 0.010742742 -0.15211354 0.013178482
-0.2263263 0.2636875 0.01178598 -0.15101981 0.07019953 -0.083970726 -0.07466281 0.20737042
-0.25370926 -0.061059993 -0.07603801 0.20939043 -0.046335492 0.01481543 -0.23589747 0.21041858
0.09813075 -0.024463497 0.05355522 0.14606191 -0.18803288 0.15639153 0.16576801 0.14538972
-0.06911535 -0.019912291 -0.24412476 -0.03534686 -0.1023377 0.33021787 -0.3296204 0.0646417
0.00042476103 0.11101052 -0.29548386 0.21982458 0.09398298 0.0040423437 -0.04600278 0.1456139
-0.09696906 0.1158816 -0.031465553 -0.01931532 -0.027463017 -0.08716488 0.20015462 0.026525903
0.02261702 -0.13326454 0.28976423 0.27737585 -0.20191118 -0.107233234 -0.0057783476 0.13316229
-0.05508465 0.18058959 -0.2161422 -0.0145947095 0.24962407 0.031440444 0.0039114757 -0.088048846
-0.29652804 0.049704317 -0.115103535 -0.28299695 -0.31411627 -0.03215683 0.36304128 0.17145361
-0.024393968 0.08633876 0.20305496 -0.20668785 0.02505354 0.22630318 -0.23391752 -0.031258885
0.05194109 0.0118094925 -0.12563215 -0.25277594 0.3925013 -0.07759968 -0.3420414 0.23393422
0.10098186 0.10067222 0.47792125 0.100106135 -0.28191143 -0.35125968 0.10182419 0.27669072
-0.08761542 -0.038126096 0.04768359 0.02410779 0.11328385 0.27704948 0.14862914 -0.09321702
-0.031636983 0.081092596 -0.08690746 -0.04723213 0.047262333 -0.16159807 -0.22645071 0.57065266
-0.31722242 -0.16113864 0.033974748 -0.17543182 -0.10874555 0.35244635 0.15138598 -0.18063831
-0.17411855 -0.2368848 -0.3479017 -0.4677893 0.15639806 0.017834406 0.025334094 0.09469257
0.1512409 0.11354212 0.07878692 0.31016228 -0.009593411 -0.045585226 0.03632705 0.034500584
-0.08249155 -0.055427607 -0.056419607 0.1546684 -0.0028751243 0.21778172 0.017737705 0.036758125
0.1179567 -0.0021573305 -0.14908649 0.04780251 -0.047965497 -0.113195986 -0.11838897 -0.07192074
-0.033316262 0.12536657 0.017198514 -0.03432988 0.24900736 0.017120091 0.06860372 0.17181882
0.07452619 0.01832311 -0.00484582 0.04376942 0.096448824 -0.13879478 -0.01649704 -0.04776472
00000000: 61a4 893c ce5a 113e 1f53 973d 670a b83c
00000010: d7c2 4b3d 3f8a 2abe c963 8ebe 01cb 98be
00000020: 82a0 78bd fe64 84bd 2c6d cebc 8c21 143e
00000030: 8d80 4abe 4d82 5b3e d9da 05bd 7565 c03e
00000040: 1cec 503e 31d2 b6be 05e9 9dbd 4ed3 073f
00000050: 391b cdbe 2d75 8bbe 751a 303d d014 ab3e
00000060: 1f9b d93c 8ebc f7bc 1c6e 4cbd bed3 55be
00000070: ebf2 55bc dd76 51be 2390 97be c212 e2be
00000080: 54c1 423e 0e84 883e 7fca dabd 72d9 b03d
00000090: 64c8 cf3e 1276 7d3e 2002 373e 484b cdbd
000000a0: 2be9 09bd 7514 a8bd 212b 40bd fc9d 813d
000000b0: 3136 eabd a896 473d 313d 27bd 03a9 adbd
000000c0: 4707 78bd 8a80 c63e 4a3e f13e 249a 633e
000000d0: 92f2 463e 7b5a aabd 25e7 1cbe 09b8 3abe
000000e0: 9ba6 b73d 2cec 863e 2dd2 80be 8162 093d
000000f0: 98a6 cd3c 8ad0 f3bd bc34 2fbe 8dd0 dc3d
00000100: 3c8e 7d3d 122e 453d 7f53 f13d 0652 9dbe
00000110: eb60 8a3c 9b29 b83e 657a f6be e308 353e
00000120: f9e1 52be f1da 003e 4676 aabc c2a5 fbbd
00000130: de7b 87bb afd8 90bd 597d 99bd e206 50be
00000140: 650d a2bb aa22 ab3d c832 8ebe c67b 5f3e
00000150: 6da7 edbc 5302 303c a7c3 1bbe 8fea 573c
00000160: 15c2 67be 0c02 873e fc19 413c f0a4 1abe
00000170: c5c4 8f3d d8f8 abbd d1e8 98bd e958 543e
00000180: 2ee6 81be 0b1a 7abd d1b9 9bbd 726a 563e
00000190: 49ca 3dbd 6bbc 723c 1b8f 71be f877 573e
000001a0: c6f8 c83d ac67 c8bc b85c 5b3d 4191 153e
000001b0: b18b 40be 1a25 203e 17bf 293e 0be1 143e
000001c0: 598c 8dbd 1a1f a3bc d7fb 79be dec7 10bd
000001d0: 6e96 d1bd 5112 a93e 01c4 a8be de62 843d
000001e0: 76b2 de39 7c59 e33d a949 97be b219 613e
000001f0: 267a c03d a375 843b 696d 3cbd cf1b 153e
00000200: b797 c6bd 5553 ed3d 06e2 00bd 293b 9ebc
00000210: 1ffa e0bc 8083 b2bd 55f5 4c3e da4c d93c
00000220: 5447 b93c 8076 08be fa5b 943e 3504 8e3e
00000230: cec1 4ebe 199d dbbd 4b58 bdbb b25b 083e
00000240: 71a0 61bd 7aec 383e 6254 5dbe a61e 6fbc
00000250: 749d 7f3e b2c7 003d d62b 803b f452 b4bd
00000260: 86d2 97be c196 4b3d 67bb ebbd fae4 90be
00000270: d9d3 a0be e1b6 03bd 8ce0 b93e 8991 2f3e
00000280: dcd5 c7bc 60d2 b03d a4ed 4f3e fba5 53be
00000290: 153d cd3c 05bc 673e 1388 6fbe 5109 00bd
000002a0: 2ec0 543d 9a7c 413c b7a5 00be d96b 81be
000002b0: eef5 c83e 95ec 9ebd 0d20 afbe 748c 6f3e
000002c0: 94cf ce3d 3d2d ce3d 18b2 f43e 7204 cd3d
000002d0: b256 90be 4fd8 b3be 3389 d03d 68aa 8d3e
000002e0: b76f b3bd 1c2a 1cbd de4f 433d b37d c53c
000002f0: 5d01 e83d 6ed9 8d3e 3d32 183e 91e8 bebd
00000300: c895 01bd e013 a63d 8afc b1bd 7a76 41bd
00000310: 2696 413d f779 25be b2e2 67be 4b16 123f
00000320: fa6a a2be 8701 25be 1b29 0b3d 66a4 33be
00000330: fdb5 debd d973 b43e ed04 1b3e 40f9 38be
00000340: 224c 32be ee91 72be 2c20 b2be 1482 efbe
00000350: d026 203e 7619 923c 7289 cf3c 2eee c13d
00000360: e5de 1a3e c588 e83d 095b a13d 97cd 9e3e
00000370: af2d 1dbc 93b7 3abd accb 143d 7c50 0d3d
00000380: 54f1 a8bd 0f08 63bd 3f18 67bd 6561 1e3e
00000390: 956c 3cbb 2c02 5f3e aa4e 913c b08f 163d
000003a0: 4893 f13d 0062 0dbb 21aa 18be 91cc 433d
000003b0: 7877 44bd 4cd3 e7bd eb75 f2bd 2e4b 93bd
000003c0: a276 08bd 1860 003e e6e3 8c3c 7d9d 0cbd
000003d0: c9fb 7e3e 6f3f 8c3c 1b80 8c3d 46f1 2f3e
000003e0: 30a1 983d 591a 963c afc9 9ebb 9047 333d
000003f0: f686 c53d 3820 0ebe cd24 87bc f0a4 43bd

fc1.bias f4 [128]
-0.09353687 -0.015134132 -0.3502272 -0.13241683 -0.09283483 -0.13917775 -0.25969243 -0.4781885
-0.11399485 -0.15247789 -0.32564276 -0.020580176 -0.15051718 -0.19719636 0.028737271 -0.24615754
-0.19751886 -0.30816475 -0.45694026 -0.36504105 -0.333455 -0.33603218 -0.15318772 -0.26237404
-0.29382414 -0.06300153 -0.05937517 -0.40122572 -0.22484341 -0.3446384 -0.29384956 -0.38188663
-0.557014 -0.19232388 -0.07506837 -0.3398698 -0.09893698 -0.26111066 -0.04706933 0.005698849
-0.3698171 -0.10401349 -0.19799854 -0.15041377 -0.21549377 -0.4543799 -0.08078437 -0.079757676
-0.3568898 -0.329 -0.044421073 -0.12001958 -0.18207027 -0.1552345 -0.17605829 -0.26648936
-0.009769696 -0.486791 -0.2440362 0.055726744 -0.040648334 -0.17108294 -0.23423871 -0.4471204
-0.2000816 -0.36975402 0.0009177143 -0.5232024 -0.41284567 -0.31659183 -0.087034695 -0.33671162
0.027387563 -0.20706663 -0.3130284 -0.052811306 -0.0725272 -0.2235245 -0.03737687 -0.42308298
-0.31515974 -0.15213823 -0.17929727 -0.07947887 -0.088573135 -0.13045503 -0.15579657 -0.2511833
-0.16802269 -0.025230084 -0.46123567 -0.09555054 -0.09377908 -0.3042127 -0.41906503 -0.40526852
-0.06559739 -0.4245104 -0.4078534 -0.47194606 -0.07573918 -0.04740949 -0.053347137 -0.23438814
-0.39278054 -0.20672229 -0.18479256 -0.43859357 -0.47472736 -0.45489833 0.0075864 0.011320858
-0.16014907 -0.31779575 -0.080452144 -0.07334208 -0.025814895 -0.24918185 -0.34160954 -0.3750062
-0.33549 -0.08889492 -0.27106243 -0.11136382 -0.31296867 -0.10105244 -0.12625457 -0.13185254
00000000: 4290 bfbd 26f5 77bc fb50 b3be 4798 07be
00000010: 3020 bebd 9d84 0ebe 68f6 84be 20d5 f4be
00000020: 2276 e9bd 2a23 1cbe a6ba a6be c297 a8bc
00000030: 2d21 1abe d8ed 49be 6d6a eb3c b910 7cbe
00000040: 6242 4abe c5c7 9dbe 13f4 e9be a9e6 babe
00000050: 9dba aabe 690c acbe 3edd 1cbe e455 86be
00000060: 1e70 96be f206 81bd 6133 73bd 756d cdbe
00000070: 5a3d 66be 7274 b0be 7373 96be a586 c3be
00000080: 7898 0ebf 8df0 44be 72bd 99bd 6a03 aebe
00000090: 799f cabd 4cb0 85be c5cb 40bd 69bd ba3b
000000a0: ab58 bdbe 0605 d5bd 21c0 4abe 1106 1abe
000000b0: 66aa 5cbe 7ba4 e8be 4772 a5bd fe57 a3bd
000000c0: 43ba b6be b072 a8be dff2 35bd d3cc f5bd
000000d0: a170 3abe cbf5 1ebe a048 34be 4b71 88be
000000e0: 1311 20bc ac3c f9be a0e4 79be ba41 643d
000000f0: de7e 26bd 5e30 2fbe 46dc 6fbe f7ec e4be
00000100: 31e2 4cbe 6650 bdbe c492 703a 98f0 05bf
00000110: 8260 d3be 5318 a2be 3f3f b2bd 7765 acbe
00000120: e25b e03c 4609 54be 4245 a0be ab50 58bd
00000130: 2489 94bd 9be3 64be 7d18 19bd 559e d8be
00000140: 9e5c a1be 20ca 1bbe b499 37be d1c5 a2bd
00000150: d565 b5bd 0196 05be 2389 1fbe 199b 80be
00000160: 240e 2cbe 52af cebc 1527 ecbe 00b0 c3bd
00000170: 3f0f c0bd c4c1 9bbe b18f d6be 5b7f cfbe
00000180: ed57 86bd 6d59 d9be 29d2 d0be eaa2 f1be
00000190: 251d 9bbd 7430 42bd 8782 5abd 7203 70be
000001a0: 881a c9be 02af 53be 433a 3dbe 568f e0be
000001b0: 770f f3be 6fe8 e8be 5697 f83b 1f7b 393c
000001c0: 1efe 23be 20b6 a2be 18c4 a4bd 5f34 96bd
000001d0: c279 d3bc 8729 7fbe 72e7 aebe d000 c0be
000001e0: 58c5 abbe 8a0e b6bd b2c8 8abe b712 e4bd
000001f0: 6e3d a0be 95f4 cebd e148 01be 5a04 07be

fc2.weight f4 [128, 128]
-0.035940677 -0.1619788 -0.09038764 -0.028228069 -0.39688545 0.23645635 0.12362986 0.046136897
-0.00070453604 0.025971696 0.035115313 0.11785963 0.027775899 0.04365238 -0.88223726 0.10513393
-0.11133566 -0.031017922 0.017555874 -0.108341284 -0.18792032 -0.05426478 0.05043573 -0.02245616
0.055964846 -0.48583242 -0.03200751 -0.004116267 0.03661541 0.0884759 0.11557901 -0.06948581
-0.088917896 -0.059599575 -0.09225146 -0.017059578 0.056538388 0.03847223 0.042314168 -0.03127504
-0.07629709 -0.08302572 -0.045590285 0.0034758647 -0.11217136 -0.017175384 -0.006439895 -1.0491134
-0.07245699 -0.1694028 -0.10651849 -0.5448671 0.03373022 -0.0069183838 -0.07129287 -0.13464093
-0.1807917 0.024964834 -0.35904786 0.040938307 -0.75565416 -0.08694116 -0.0075749164 -0.23882473
-0.12732685 -0.14276597 -0.064299226 0.046260256 -0.19645433 -0.20386897 0.21127935 -0.23691759
0.19140898 -0.10541415 -0.024058681 -0.043187976 0.09780395 -0.21352816 0.04633846 -0.07873534
-0.108456254 0.119892105 -0.0069563794 0.048415132 0.009787217 -0.19870552 -0.7082955 -0.21639016
-0.08914155 -0.3199628 -0.11098357 -0.24258445 -0.07390707 0.10876378 -0.15002722 -0.08514025
0.13599786 -0.068810225 -0.10101239 -0.11142351 -0.32879406 0.14271729 0.0068369694 -0.12238106
-0.17261887 0.03583865 -0.19232881 0.050148334 0.19871692 -0.12962085 0.102781795 -0.33633137
-0.022269892 -0.12136636 -0.41181132 0.042313162 -0.012665495 -0.008791921 0.022778733 0.19876377
-0.19559103 -0.011723271 -0.056336887 -0.360883 -0.02845497 -0.008134091 -0.53523445 0.07367241
0.007715929 0.068463005 0.03485528 -0.09173519 -0.24547097 0.22112052 0.04678372 -0.08661439
0.05399648 0.045857616 -0.07240187 0.055773206 -0.00854297 0.0704168 -0.7717447 -0.046808124
-0.1721046 -0.064916804 -0.14142731 -0.08479399 0.0029898644 0.05967719 0.0205505 0.028789857
0.0135319745 -0.48325154 -0.0800302 0.0052439016 -0.05463668 0.010051787 0.017013492 0.025777804
0.022896165 0.038928982 0.1067122 -0.03051592 0.04135149 -0.13905941 0.04566971 -0.06847552
-0.077063695 -0.11881065 -0.027458157 0.013894399 -0.08097311 0.07615971 0.023336342 -0.19723545
-0.19297501 -0.0042653685 0.046362855 0.08908729 0.08445975 -0.03638096 0.15113093 -0.076094486
0.0503869 -0.038870554 -0.007829337 -0.111166686 0.08101421 -0.03136485 -0.08625306 0.23237158
-0.17147803 -0.11711421 -0.019948136 0.05379726 -0.083350174 0.15934518 0.124681674 0.07570676
0.13837627 0.023133552 0.15939996 0.03890233 -0.035028618 0.051994212 -0.014360421 -0.017929366
-0.06571799 0.056471407 0.04595467 -0.016849365 0.09207466 -0.28893933 -0.33832315 0.036120087
-0.01494864 -0.044376634 -0.30016515 0.15488207 0.08428517 -0.022991408 0.104868956 -0.06162572
0.011682799 0.0695061 0.037272114 -0.04258592 -0.03575559 0.13801752 -0.026403654 0.02961966
-0.085288905 0.12769717 0.12627025 0.1402488 -0.285213 0.07396144 -0.56472087 -0.7393788
-0.020233104 -0.015021648 -0.27539885 0.011086327 -0.2948868 -0.0814485 0.0922131 -0.19042894
0.021770772 -0.10491535 0.09024506 -0.43266687 -0.10413227 -0.020061208 -0.06622774 -0.06596199
00000000: 8836 13bd c5dd 25be 281d b9bd 8d3e e7bc
00000010: 9234 cbbe 9d21 723e a731 fd3d 0bfa 3c3d
00000020: 9db0 38ba 98c2 d43c 13d5 0f3d 6460 f13d
00000030: 488a e33c d7cc 323d 4dda 61bf 7550 d73d
00000040: f303 e4bd 4c19 febc 56d1 8f3c 09e2 ddbd
00000050: 2f6e 40be bf44 5ebd b295 4e3d fbf5 b7bc
00000060: 653b 653d 07bf f8be 4f1a 03bd c0e1 86bb
00000070: 0afa 153d da32 b53d b0b4 ec3d 944e 8ebd
00000080: 961a b6bd af1e 74bd 55ee bcbd 87c0 8bbc
00000090: cc94 673d 0f95 1d3d 9f51 2d3d 421a 00bd
000000a0: a641 9cbd 6409 aabd e1bc 3abd 55cb 633b
000000b0: 19ba e5bd 64b3 8cbc c105 d3bb 5949 86bf
000000c0: 5564 94bd ed77 2dbe 5e26 dabd 697c 0bbf
000000d0: b328 0a3d 9cb3 e2bb ff01 92bd 50df 09be
000000e0: 7621 39be 0d83 cc3c 1fd5 b7be edae 273d
000000f0: 8d72 41bf 350e b2bd 0137 f8bb 788e 74be
00000100: f861 02be 3e31 12be 50af 83bd 657b 3d3d
00000110: 532b 49be 07c3 50be 9d59 583e 869a 72be
00000120: b700 443e 60e3 d7bd b616 c5bc e0e5 30bd
00000130: 704d c83d 20a7 5abe 66cd 3d3d fe3f a1bd
00000140: 501e debd fe89 f53d 57f2 e3bb f24e 463d
00000150: 905a 203c 7679 4bbe db52 35bf 6295 5dbe
00000160: d88f b6bd 2ad2 a3be 5b4b e3bd 0f68 78be
00000170: 975c 97bd 8bbf de3d bca0 19be 035e aebd
00000180: 0643 0b3e 60ec 8cbd 95df cebd 0232 e4bd
00000190: b257 a8be 7b24 123e a808 e03b eca2 fabd
000001a0: 00c3 30be 8ccb 123d d8f1 44be 5768 4d3d
000001b0: 737c 4b3e 54bb 04be 437f d23d a033 acbe
000001c0: 596f b6bc ed8e f8bd efd8 d2be 9150 2d3d
000001d0: f082 4fbc fd0b 10bc 779a ba3c bb88 4b3e
000001e0: 0449 48be f612 40bc 82c1 66bd a8c5 b8be
000001f0: 661a e9bc da44 05bc 2005 09bf 8fe1 963d
00000200: e7d5 fc3b 5536 8c3d 69c4 0e3d a9df bbbd
00000210: be5c 7bbe 6b6d 623e 49a0 3f3d e362 b1bd
00000220: 6a2b 5d3d 32d5 3b3d 6e47 94bd 7272 643d
00000230: d0f7 0bbc af36 903d 1091 45bf e0b9 3fbd
00000240: 303c 30be 1af3 84bd 52d2 10be 79a8 adbd
00000250: 9af1 433b 1270 743d 8659 a83c b5d8 eb3c
00000260: 37b5 5d3c bf6c f7be e0e6 a3bd 09d5 ab3b
00000270: b6ca 5fbd 40b0 243c e15f 8b3c f92b d33c
00000280: bd90 bb3c ff73 1f3d ed8b da3d 86fc f9bc
00000290: 2e60 293d 9765 0ebe 2910 3b3d e53c 8cbd
000002a0: 92d3 9dbd 0053 f3bd eeef e0bc 55a5 633c
000002b0: 3bd5 a5bd 9ff9 9b3d db2b bf3c 17f8 49be
000002c0: 3e9b 45be 81c4 8bbb fae6 3d3d 6673 b63d
000002d0: 3cf9 ac3d 3404 15bd 11c2 1a3e 6dd7 9bbd
000002e0: 7e62 4e3d bb36 1fbd 9f46 00bc 5cab e3bd
000002f0: c7ea a53d 6e78 00bd 72a5 b0bd d1f2 6d3e
00000300: f097 2fbe 93d9 efbd 466a a3bc 845a 5c3d
00000310: 7fb3 aabd 622b 233e 1b59 ff3d 250c 9b3d
00000320: 82b2 0d3e 9382 bd3c be39 233e 0d58 1f3d
00000330: 2b7a 0fbd e2f7 543d f947 6bbc 9be0 92bc
00000340: 2797 86bd 904e 673d f73a 3c3d ae07 8abc
00000350: a491 bc3d dbef 93be b138 adbe a8f2 133d
00000360: 24eb 74bc 46c4 35bd 3faf 99be 6899 1e3e
00000370: b49d ac3d 7a58 bcbc 89c5 d63d 406b 7cbd
00000380: 3669 3f3c 3759 8e3d a5aa 183d 936e 2ebd
00000390: 7474 12bd 7754 0d3e 7a4c d8bc eea4 f23c
000003a0: f3ab aebd 0cc3 023e fd4c 013e 629d 0f3e
000003b0: 7007 92be 1879 973d 8c91 10bf ee47 3dbf
000003c0: e5bf a5bc 5c1d 76bc 1401 8dbe 6da3 353c
000003d0: 67fb 96be 79ce a6bd 39da bc3d ceff 42be
000003e0: 9e58 b23c dcdd d6bd 67d2 b83d 8386 ddbe
000003f0: 4d43 d5bd 6757 a4bc 69a2 87bd 1417 87bd

fc2.bias f4 [128]
-0.07602393 -0.1825449 -0.021150464 -0.14533721 -0.20669551 -0.071306355 -0.08902764 0.06824587
-0.071642965 -0.081357375 -0.0373772 -0.030528953 -0.044635687 -0.0031270918 -0.044212174 -0.12732084
-0.078648195 -0.020146435 -0.108549304 -0.061844192 -0.111832485 -0.028253319 -0.018318988 0.028180815
-0.0128823565 -0.07321995 -0.08973139 -0.015587495 -0.07277256 0.071299575 0.006654929 -0.03755493
-0.04805327 0.04857366 0.057261147 0.031097762 -0.027379105 0.030732062 -0.03990137 -0.010368705
0.07389844 -0.06245573 -0.019837653 -0.005964418 -0.08476361 -0.09075235 -0.04157467 0.07100441
-0.00521716 -0.07961707 -0.06784857 0.006135732 -0.09652698 -0.011123694 -0.088170394 -0.10487592
0.024524592 -0.025381638 -0.041015223 -0.013327735 -0.083836064 -0.08089936 0.0035853586 0.05220696
-0.0477107 -0.053919323 -0.059700575 0.014354829 -0.018754305 -0.018083723 -0.050595526 0.05923473
-0.08198865 0.014095038 -0.04127284 -0.01335691 0.015415926 0.0017118588 0.04910275 -0.082084656
-0.028839855 -0.10240666 -0.041965663 -0.03652699 0.007169615 -0.050029736 0.016457058 -0.10417429
-0.10166112 -0.07296217 0.05380513 -0.00864089 -0.12910907 -0.07591889 -0.012800405 0.03308062
-0.01865817 0.0025566109 0.051553886 -0.030300792 -0.018613894 -0.023347925 -0.021113984 -0.024459997
-0.06367037 -0.22741318 -0.054019652 -0.025515476 -0.10616301 -0.108975016 -0.022602659 -0.053557403
-0.04297974 -0.0513442 -0.030278288 0.08229664 0.02011111 -0.032135747 0.057447627 0.011870896
-0.030665362 -0.06482384 -0.03398359 -0.06933553 0.04780268 -0.09820191 -0.012141411 -0.052667465
00000000: 6fb2 9bbd 0ded 3abe bd43 adbc 47d3 14be
00000010: fda7 53be 1109 92bd 2054 b6bd 7ec4 8b3d
00000020: 8cb9 92bd b29e a6bd d618 19bd db17 fabc
00000030: e9d3 36bd e5ef 4cbb d317 35bd 6560 02be
00000040: 4e12 a1bd 230a a5bc 194f debd 5650 7dbd
00000050: 6e08 e5bd 8173 e7bc b411 96bc 74db e63c
00000060: 8510 53bc 57f4 95bd 17c5 b7bd b162 7fbc
00000070: c809 95bd 8305 923d 9711 da3b 33d3 19bd
00000080: 81d3 44bd 2df5 463d aa8a 6a3d bcc0 fe3c
00000090: 254a e0bc cec1 fb3c 9e6f 23bd 80e1 29bc
000000a0: 1158 973d 94d1 7fbd 9382 a2bc 2a71 c3bb
000000b0: 8b98 adbd 5edc b9bd 334a 2abd c36a 913d
000000c0: b6f4 aabb 460e a3bd 31f4 8abd 400e c93b
000000d0: f0af c5bd 2740 36bc ae92 b4bd 30c9 d6bd
000000e0: cce7 c83c 27ed cfbc 94ff 27bd 925c 5abc
000000f0: 3eb2 abbd 90ae a5bd 56f8 6a3b f7d6 553d
00000100: 4c6c 43bd 82da 5cbd 9788 74bd 8430 6b3c
00000110: a1a2 99bc 5124 94bc 413d 4fbd 1ea0 723d
00000120: aae9 a7bd e0ee 663c b60d 29bd f1d6 5abc
00000130: 1593 7c3c 7360 e03a f71f 493d 001c a8bd
00000140: 8f41 ecbc 95ba d1bd 30e4 2bbd 539d 15bd
00000150: 17ef ea3b fbeb 4cbd f4d0 863c 5559 d5bd
00000160: b533 d0bd 316d 95bd c562 5c3d 8592 0dbc
00000170: 2b35 04be 5d7b 9bbd cab8 51bc 8b7f 073d
00000180: 05d9 98bc d08c 273b 2b2a 533d 5e39 f8bc
00000190: 2a7c 98bc 2644 bfbc 3cf7 acbc 5560 c8bc
000001a0: 9c65 82bd 00df 68be b643 5dbd d505 d1bc
000001b0: fe6b d9bd 4b2e dfbd 3629 b9bc 025f 5bbd
000001c0: 860b 30bd 4c4e 52bd 2c0a f8bc 248b a83d
000001d0: 0ec0 a43c c6a0 03bd 344e 6b3d 267e 423c
000001e0: ed35 fbbc 5dc2 84bd 6032 0bbd c9ff 8dbd
000001f0: becc 433d 151e c9bd c5ec 46bc d7b9 57bd

fc3.weight f4 [225, 128]
0.0068760533 -0.006454511 -0.048282724 0.063777186 -0.0012150353 0.060680624 -0.054032225 0.014708973
-0.029506892 -0.03088244 0.04093849 0.10175764 0.08318802 0.018607156 -0.03692838 -0.0082788905
-0.02192647 -0.008226564 -0.05880861 -0.04179699 -0.08264387 -0.008227287 0.0024296069 -0.0066882973
-0.008711755 -0.04419884 -0.024941329 0.07587346 -0.08446664 0.018633755 -0.03443625 0.00660678
-0.024894418 0.023674445 -0.016509678 0.027188184 -0.042237874 0.01894162 0.0126829315 0.056276795
0.007537069 -0.060776632 0.0048717824 0.03596562 -0.054458797 0.0064300173 -0.027785802 -0.0021026072
-0.010192923 -0.07874003 -0.013945128 0.011216298 0.04878383 0.042217806 0.10384009 -0.042762067
0.004159216 0.006407048 0.08194259 0.005728895 0.01409742 -0.03868296 -0.0056505767 -0.0052782977
0.07411742 0.08416981 -0.009682149 0.010924949 0.014436479 0.001413686 0.048514258 0.00090410444
-0.027076568 0.008428875 0.0050818636 -0.028274076 -0.017467255 -0.0049665784 -0.0006325863 -0.010758534
0.09309902 -0.05508573 -0.065218374 -0.077998005 -0.026469862 0.0072647124 0.009102144 0.005363771
-0.034391273 0.017476551 0.014596537 0.0457815 -0.009529436 0.05642546 -0.0044918726 0.011228788
-0.069825985 0.006941053 0.0044823475 0.010077447 -0.03746246 0.0038092348 0.074332185 -0.022068664
-0.08805747 -0.00083310937 0.040409446 0.03780905 0.048473306 0.04148134 -0.08514677 0.014941734
-0.06753303 0.061043136 -0.07117349 0.011219169 -0.0017964382 -0.058643363 -0.014515669 0.028603602
0.002858572 -0.08111147 0.032118175 -0.05306913 0.0229967 0.035522502 0.03549171 -0.006894143
-0.008615032 0.0041281516 0.06770403 -0.031015709 0.0036078373 -0.04021852 -0.024672471 -0.0063943355
-0.046706147 -0.00096189976 0.055024005 -0.05063015 0.008215994 0.007992031 0.019649168 -0.011903092
0.01529168 -0.00624257 0.048554845 0.009960413 0.07795564 0.011776239 0.020123444 0.017919771
-0.018036798 0.028258413 -0.043249622 0.055305798 0.028612718 0.005717902 0.018973943 -0.06416823
0.014107445 0.005684452 0.007672627 -0.004468134 0.007509717 -0.0007171302 -0.0768001 -0.033336148
0.00912284 0.06139589 -0.0008452378 -0.0066992305 -0.0366582 0.0006268133 -0.017165514 0.010279999
0.0048874356 0.022164047 0.024363521 -0.0031404742 0.008749516 -0.025455179 0.05209399 -0.030327795
0.011753682 -0.009770424 0.056531817 0.03344909 0.0053126668 0.019159963 -0.017598018 -0.019695273
-0.036495153 -0.017013595 -0.0025399546 0.010375463 -0.0012288864 0.022621138 -0.00041575322 -0.0034690313
0.03771805 -0.011384195 -0.01410211 -0.017529009 -0.0039697695 -0.023547923 -0.0022748488 0.012601793
0.046746396 0.022797383 -0.05708849 0.0191264 0.0026078655 -0.0006082119 -0.012972254 0.043886058
-0.011717595 0.08017113 0.02583148 0.061637316 -0.002813316 0.068194024 -0.011379595 -0.010213827
0.02057669 -0.011114562 -4.3002812e-05 -0.031294305 0.016434748 -0.053043976 -0.046945024 -0.03500887
-0.06282484 0.006640654 0.013650444 -0.00028828747 0.010731138 0.031206591 -0.02431252 0.069919005
0.01994229 -0.026862368 -0.08656874 -0.016076542 -0.024168901 -0.036781278 -0.0055324524 0.010869367
-0.058050755 0.055321015 -0.024023203 -0.010371798 -0.004613268 0.012238827 -0.021800399 -0.0060027028
00000000: 8450 e13b 5d80 d3bb 1bc4 45bd 9d9d 823d
00000010: d241 9fba 3f8c 783d e550 5dbd e7fd 703c
00000020: 70b8 f1bc 2cfd fcbc 1eaf 273d 4f66 d03d
00000030: 7b5e aa3d 096e 983c 3742 17bd 2fa4 07bc
00000040: 249f b3bc b6c8 06bc 4ce1 70bd 5233 2bbd
00000050: 3041 a9bd becb 06bc 0a3a 1f3b 8129 dbbb
00000060: c0bb 0ebc d809 35bd c251 ccbc 8b63 9b3d
00000070: d9fc acbd d1a5 983c 060d 0dbd b07d d83b
00000080: 61ef cbbc e9f0 c13c 4e3f 87bc c1b9 de3c
00000090: 9f01 2dbd 752b 9b3c 12cc 4f3c 7f82 663d
000000a0: 84f9 f63b ebf0 78bd 79a3 9f3b b050 133d
000000b0: 3010 5fbd e5b2 d23b 0d9f e3bc e5cb 09bb
000000c0: 3800 27bc 7442 a1bd 1b7a 64bc 90c4 373c
000000d0: 8ed1 473d 94ec 2c3d 1daa d43d 4727 2fbd
000000e0: 084a 883b 37f2 d13b 84d1 a73d 74b9 bb3b
000000f0: ddf8 663c 0672 1ebd 7928 b9bb 92f5 acbb
00000100: e0ca 973d 3961 ac3d e0a1 1ebc 8ffe 323c
00000110: fb86 6c3c 6e4b b93a e3b6 463d 6c01 6d3a
00000120: aecf ddbc 4419 0a3c c385 a63b 099f e7bc
00000130: 7d17 8fbc aebe a2bb 26d4 25ba 9044 30bc
00000140: b3aa be3d 93a1 61bd 3691 85bd 6bbd 9fbd
00000150: 53d7 d8bc d30c ee3b 2921 153c 93c2 af3b
00000160: dddd 0cbd fc2a 8f3c 5026 6f3c 6285 3b3d
00000170: 5a21 1cbc 621e 673d 8f30 93bb f3f8 373c
00000180: ed00 8fbd c671 e33b a8e0 923b e01b 253c
00000190: 3d72 19bd 5ba4 793b 793b 983d 58c9 b4bc
000001a0: 7a57 b4bd 0665 5aba 6084 253d aadd 1a3d
000001b0: f28b 463d 56e8 293d 6e61 aebd 2dce 743c
000001c0: c24e 8abd 5e08 7a3d 68c3 91bd 9bd0 373c
000001d0: 7776 ebba 0634 70bd 21d3 6dbc 1a52 ea3c
000001e0: e156 3b3b c51d a6bd 598e 033d 045f 59bd
000001f0: 9363 bc3c 0b80 113d c15f 113d 43e8 e1bb
00000200: 1026 0dbc 7245 873b 69a8 8a3d a814 febc
00000210: 7771 6c3b 2dbc 24bd ec1d cabc 9387 d1bb
00000220: f24e 3fbd 0028 7cba da60 613d 8f61 4fbd
00000230: 609c 063c 02f1 023c 4bf7 a03c 3005 43bc
00000240: f489 7a3c 798e ccbb 72e1 463d 0031 233c
00000250: 35a7 9f3d 20f1 403c ecd9 a43c 7ccc 923c
00000260: e8c1 93bc 307e e73c 8426 31bd 5588 623d
00000270: 3865 ea3c 3d5d bb3b 3e6f 9b3c a26a 83bd
00000280: ea22 673c a444 ba3b a96a fb3b 6d69 92bb
00000290: 1214 f63b cbfd 3bba 5f49 9dbd 7c8b 08bd
000002a0: f777 153c 427a 7b3d f392 5dba 3885 dbbb
000002b0: e926 16bd ba50 243a b19e 8cbc 716d 283c
000002c0: c826 a03b 6091 b53c 0296 c73c 6ad0 4dbb
000002d0: 215a 0f3c 6187 d0bc 8260 553d ff71 f8bc
000002e0: 8492 403c 2114 20bc e88d 673d ea01 093d
000002f0: e115 ae3b 5bf5 9c3c b829 90bc fb57 a1bc
00000300: f17b 15bd 1860 8bbc 5e75 26bb d9fd 293c
00000310: 9612 a1ba f74f b93c 74f9 d9b9 b058 63bb
00000320: 3e7e 1a3d c684 3abc 890c 67bc ff98 8fbc
00000330: d714 82bb 93e7 c0bc a115 15bb c077 4e3c
00000340: 2679 3f3d 94c1 ba3c 9fd5 69bd f8ae 9c3c
00000350: b9e8 2a3b 6970 1fba 9489 54bc dec1 333d
00000360: 28fb 3fbc c330 a43d 8a9c d33c 6977 7c3d
00000370: 9c5f 38bb 4fa9 8b3d 7b71 3abc e557 27bc
00000380: 7290 a83c da19 36bc eb5d 34b8 752e 00bd
00000390: 2aa2 863c a444 59bd 6d49 40bd 7665 0fbd
000003a0: 4faa 80bd d899 d93b 1da6 5f3c 4a25 97b9
000003b0: a8d1 2f3c f7a4 ff3c 0d2b c7bc b231 8f3d
000003c0: 035e a33c 780e dcbc f44a b1bd f4b2 83bc
000003d0: dcfd c5bc f7a7 16bd 9349 b5bb 6e15 323c
000003e0: a1c6 6dbd 4a98 623d 4fcc c4bc 79ee 29bc
000003f0: e62a 97bb 5c85 483c c096 b2bc 52b2 c4bb

fc3.bias f4 [225]
0.0029579115 0.0061584353 0.0078070113 0.005192286 0.005702465 0.0030332406 0.0058304323 0.007555894
0.0067595276 0.008122137 0.005798955 0.004185701 0.0064398698 0.011872096 0.0072892406 0.0067920503
0.008713137 0.006608033 0.00868749 0.008211608 0.007584323 0.003932533 0.0072161057 0.0059787505
0.00068569044 0.006871848 0.0063826237 0.002903333 0.0032607117 0.009481047 0.010696192 0.0074138376
0.0084585 0.0070818383 0.0036572262 0.007440358 0.005646251 0.0063209706 0.0068879444 0.005537781
0.0073401374 0.0062437598 0.0083768405 0.0036172196 0.00531902 0.012343101 0.0056716846 0.0043210285
0.0046611642 0.008351712 0.004878819 0.007602938 0.007559916 0.0039750766 0.006653004 0.006300528
0.0056648287 0.009178629 0.006120808 0.0050432524 0.0052115633 0.0036711446 0.006391595 0.0063695507
0.0068240906 0.004468191 0.010710749 0.005678041 0.0033527669 0.0053689997 0.008380491 0.0058048237
0.004271719 0.0067496942 0.008612564 0.006019512 0.009573446 0.0031055291 0.0060299262 0.0058739297
0.005174204 0.005038071 0.0074262773 0.0049466924 0.0056877974 0.0060832896 0.0043228916 0.0070748
0.006491491 0.008451313 0.0068997084 0.00734565 0.008527619 0.0061175353 0.00106665 0.07575862
0.017713815 0.0072822496 0.0029361558 0.005755425 0.0034240922 0.09572724 0.007815011 0.00085825374
0.0031252939 0.0075355843 0.004606302 0.006419608 0.062378872 0.008283074 0.07473272 0.0043143425
0.10069813 0.007151222 0.003946202 0.008517427 0.09842878 0.009705001 0.0068014977 0.0059022973
0.007401901 0.0038910517 0.0066499873 0.0076774075 0.063661754 0.008363455 0.031078137 0.042504042
0.00744218 0.0024451944 0.0044675567 0.009021016 0.005650123 0.0074068117 0.003483817 0.0061623342
0.009607425 0.05662598 0.007367081 0.011868794 0.062524855 0.038892727 0.005902937 0.005878277
0.007175871 0.009378454 0.063711725 0.0054856883 0.0109742535 0.012061931 0.0099299485 0.0076701385
0.010527171 0.07084 0.007806443 0.02058777 0.0069692014 0.05534364 0.007348688 0.07615627
0.003801415 0.004387134 0.0038212955 0.06184959 0.005523442 0.0048033637 0.009197717 0.068420514
0.06621493 0.06813504 0.0665713 0.0037359307 0.0064936713 0.067704685 0.065916605 0.0069026295
0.07736711 0.0069573103 0.006807684 0.0067531792 0.0067093386 0.0056175576 0.063316375 0.007356368
0.0066011325 0.08965539 0.0034701014 0.0037686825 0.004698175 0.060698796 0.007613677 0.08621744
0.002879497 0.006530443 0.0065676523 0.004045301 0.0032112245 0.005428156 0.0067388657 0.0060907947
0.0048946682 0.011480947 0.007707896 0.0066189948 0.0047075236 0.0067087123 0.006151053 0.0056195543
0.009633938 0.005952341 0.008742479 0.012829914 0.060215697 0.0056604133 0.03173963 0.09853293
0.056458995 0.0052590417 0.007955482 0.0066108895 0.004044912 0.0738925 0.008424817 0.0542741
0.004874029
00000000: 85d9 413b b3cc c93b f5d1 ff3b 0d24 aa3b
00000010: bedb ba3b 55c9 463b 360d bf3b 6f97 f73b
00000020: 077f dd3b b612 053c 2905 be3b 3428 893b
00000030: 8b05 d33b 2e83 423c 95da ee3b d98f de3b
00000040: 8cc1 0e3c 3388 d83b f955 0e3c fb89 063c
00000050: ea85 f83b 7adc 803b 1575 ec3b 65e9 c33b
00000060: e8bf 333a 3d2d e13b 5425 d13b d845 3e3b
00000070: aab1 553b 6556 1b3c 153f 2f3c c7ef f23b
00000080: 8595 0a3c c40e e83b 13ae 6f3b 3fce f33b
00000090: 3004 b93b 2520 cf3b 44b4 e13b 4676 b53b
000000a0: 8985 f03b 7498 cc3b 043f 093c e00e 6d3b
000000b0: 2c4b ae3b b83a 4a3c 8ad9 b93b 6a97 8d3b
000000c0: aebc 983b 9ed5 083c 80de 9f3b 1122 f93b
000000d0: 2cb9 f73b 5c41 823b 7101 da3b a974 ce3b
000000e0: 07a0 b93b f661 163c 0f91 c83b de41 a53b
000000f0: c3c5 aa3b 9697 703b 9670 d13b aab7 d03b
00000100: 9f9c df3b e769 923b 237c 2f3c dc0e ba3b
00000110: 18ba 5b3b 6fee af3b 544e 093c 6436 be3b
00000120: c7f9 8b3b 8a2c dd3b b61b 0d3c 543f c53b
00000130: f1d9 1c3c 2286 4b3b b096 c53b 187a c03b
00000140: 5e8c a93b 6716 a53b 2158 f33b dd17 a23b
00000150: b460 ba3b 5556 c73b 0ba7 8d3b b9d3 e73b
00000160: 93b6 d43b 6077 0a3c f316 e23b c7b3 f03b
00000170: 6db7 0b3c 9b75 c83b d6ce 8b3a 5627 9b3d
00000180: 901c 913c f09f ee3b 856c 403b 0198 bc3b
00000190: bc66 603b a50c c43d 880a 003c 6ffc 603a
000001a0: bbd1 4c3b 10ed f63b 76f0 963b 935b d23b
000001b0: fd80 7f3d bbb5 073c 780d 993d 545f 8d3b
000001c0: d23a ce3d cc54 ea3b 244f 813b ae8c 0b3c
000001d0: 0795 c93d b901 1f3c 19df de3b 0f68 c13b
000001e0: a58b f23b 0401 7f3b 23e8 d93b c392 fb3b
000001f0: 1861 823d df06 093c 9497 fe3c b818 2e3d
00000200: 88dd f33b 8e3f 203b 9564 923b e2cc 133c
00000210: ab24 b93b d7b4 f23b c050 643b 68ed c93b
00000220: 7668 1d3c a5f0 673d 8e67 f13b 5575 423c
00000230: 080d 803d fb4d 1f3d 6d6d c13b 909e c03b
00000240: 9223 eb3b 16a8 193c 4b7b 823d 4ac1 b33b
00000250: 5bcd 333c 689f 453c 39b1 223c c955 fb3b
00000260: 287a 2c3c 9014 913d 31cd ff3b afa7 a83c
00000270: e65d e43b 03b0 623d 43cd f03b d2f7 9b3d
00000280: 2921 793b f3c1 8f3b b36e 7a3b ff55 7d3d
00000290: fdfd b43b 8965 9d3b 05b2 163c 0e20 8c3d
000002a0: b19b 873d 628a 8b3d 8956 883d 84d6 743b
000002b0: ddc8 d43b c1a8 8a3d 49ff 863d 742f e23b
000002c0: a672 9e3d 26fa e33b fe12 df3b c649 dd3b
000002d0: 03da db3b 7d13 b83b 04ac 813d b00d f13b
000002e0: 504e d83b 3f9d b73d a46a 633b 00fc 763b
000002f0: 26f3 993b 4d9f 783d 277c f93b c592 b03d
00000300: f1b5 3c3b 54fd d53b 7635 d73b 728e 843b
00000310: 6873 523b acde b13b b4d1 dc3b 4a95 c73b
00000320: 7463 a03b 951a 3c3c 8592 fc3b 27e4 d83b
00000330: 9241 9a3b c2d4 db3b c68e c93b 3d24 b83b
00000340: aad7 1d3c db0b c33b 9d3c 0f3c 8f34 523c
00000350: bca4 763d fd7a b93b 6a01 023d a2cb c93d
00000360: 8c41 673d 0a54 ac3b b657 023c 29a0 d83b
00000370: 2e8b 843b f354 973d 3e08 0a3c 854e 5e3d
00000380: 52b6 9f3b
